src/features/VGAE_DP.pth (torch, 7895 bytes, 6 tensors)

layers.0.weight f4 [13, 32]
00000000: 98bf ccbd d6ba 8d3e a363 8cbe defa 303e
00000010: 4fec 7c3d 304c 85bd 409b 393d 119d 5e3e
00000020: 4756 2b3e 0fb6 59bf 92de 223e de27 143d
00000030: 95b8 97be 81b8 673f 58cd 6bbe e47d f13d
00000040: 2c09 dcbe 5aef 3abe e38b 033f 3247 37bf
00000050: 1fa6 d0bd 8492 e1be dcf8 8abd 6d4c d2be
00000060: e32f 32bf e343 b23e 7d98 b83f 9f56 473e
00000070: c2c5 82bf ff3c 063f 5b75 cfbf f90b e9bd
00000080: 910a ab3d e4a6 a13e 8566 26bc 11bc 39be
00000090: a624 a2bd 2a81 0a3e cb79 783e 1b46 b93e
000000a0: b9b4 163f 4d25 343f 66fc 97be 026d eb3e
000000b0: 0ae7 e13d 8f96 5ebe 5bc0 943e fddd 37be
000000c0: 1758 05be ccf5 acbc 1b54 17bf c451 bcbe
000000d0: 8d5e d83e 1baf 57be 3e0b 4b3e 6f8b 0bbf
000000e0: ee13 133e d0fc a13d 8568 07bf d911 02bf
000000f0: 3886 24bb f17f 8dbe ca03 093f 944c bc3e
00000100: b120 283e 6d59 01bf 3aa2 d4be 5637 6e3d
00000110: 242e ce3e 082d cbbe b9ee 983e 2c8e c0be
00000120: f73b f2be 8857 29bf f9e9 dfbd 0158 ecbd
00000130: e1fd a6be d998 2bbd 16ab a63e cf75 f6be
00000140: 42af ebbe 4e4c 7abc f49f febf 0da3 cdbe
00000150: e1e0 b73d e4b9 96bc 83de 94bf 90ed 893d
00000160: 2a1f 1abe cc59 43bf 0f9d 5f3e 2153 c3bd
00000170: a558 c43e 69d8 99be 0e81 bfbf 6d0d 4d3e
00000180: 2e74 16bf e55b 923e eeb0 3fbf a99b babe
00000190: ee33 4d3e 0d7b 0f3d a40a 6e3e 28f1 5a3e
000001a0: d81b 88be 846b a0be 1309 85be d3c5 4a3e
000001b0: 4077 3fbe 719b 343f 69c0 c5bc ef95 363c
000001c0: bd19 aebd bb4e 44be be6c 883e 306b 38bd
000001d0: 598e 2f3e 7209 fb3d 3914 bebd 5116 86be
000001e0: 31f2 a3bc 2999 cc3b e040 8ebf 071a 85be
000001f0: b06e de3c 6d7f e43c 9449 e23d ba1c 3cbf
00000200: fd0e b8bd e76d b23e 5cdd 3dbe 85ff a3be
00000210: 45dd a23e 9fb5 88be 6505 a5be 8560 573e
00000220: 8948 acbe 80e1 8cbe 5bea 3a3e 1f61 83be
00000230: 972f 3abe a953 0c3d 1bb1 fabd 1d15 673e
00000240: 90c6 d4ba ea67 afbc a818 813e 7479 c43e
00000250: b3ee 353e b94c fc3d 500e 953e 96eb d53d
00000260: 8eb0 2bbe 02b1 a23e a1fc f43e 9008 acbd
00000270: 330a a33e 8b5b 2a3e cad2 1cbe 923d b13e
00000280: bea4 4c3e c347 7b3e c3cb 803e 3fd8 fabd
00000290: 53aa dabc 3b99 813e f1ee 30bd 1190 a6bd
000002a0: 7b68 6a3e d5e5 e6be cbe0 cbbe 1df0 cabe
000002b0: 4044 f43d a27b a0be 4a33 6ebe 7578 913e
000002c0: f158 003f d20d a43d 8450 a03e 18a4 0a3d
000002d0: d5bf 1cbf 51f7 0dbe 930d b8be d2d4 a33d
000002e0: 3e75 883e 0c8d b73d 8d6f f43d a69e 1e3d
000002f0: 85f6 8abe 936e f53d c280 97be a508 503e
00000300: 2f59 9dbd 9ee5 1bbe 9189 bfbf ce8e 213d
00000310: 9405 73bd 279b 7abe dc67 21be 8c1f b1bd
00000320: 6b6a d53d 37e8 1c3d eec9 213e 48e5 993e
00000330: 7cf6 aebd 4eae 293f 3bf4 80be 31c4 0a3e
00000340: b82e c9bd 7cbb 67be a619 cf3e 1a48 3ebe
00000350: 312a 133f 5728 d03e 545d 763f 918c 24be
00000360: 7d13 c03e f6df 5b3f 0cf4 663f 2675 27be
00000370: 467b 05bf 3719 6dbd 710f 4b3f bd81 06bf
00000380: cbe0 0e3d 1027 cd3d 6f70 ec3e 07b4 afbe
00000390: 60b3 e73d 170e b5be ee2f cbbe f24a 0c3f
000003a0: 7b86 553f 68a5 94bf b5e8 8dbe 46b0 063f
000003b0: 17f9 243e 7309 ddbf 36b1 b0bc c8f8 f7be
000003c0: 57e2 d13e 3a8a 8abe b9f3 79bf 287b 21bf
000003d0: 3da1 c13e 8398 26bf 98c4 59bf 0047 00c0
000003e0: 21ac f43e c142 bf3d 2d60 f8bf abc3 1d3f
000003f0: 937f febe 2fc0 cbbd 4a6e 233f 8604 993e
-0.09997481 0.27681607 -0.27419767 0.17283198 0.0617488 -0.06508672 0.045314074 0.21739604
0.16732131 -0.85043424 0.15905216 0.036170833 -0.29633012 0.90515906 -0.23027551 0.1179159
-0.42975748 -0.18255368 0.51385325 -0.7159301 -0.10187935 -0.44057095 -0.067857474 -0.41073933
-0.6960432 0.34817418 1.4421536 0.19466637 -1.0216601 0.5243682 -1.6207689 -0.11379237
0.08351625 0.3157264 -0.0101562785 -0.18138148 -0.079171464 0.13525835 0.2426521 0.361863
0.5886951 0.70369416 -0.29684752 0.45981604 0.11030395 -0.21737121 0.29053006 -0.17955776
-0.13021885 -0.021113299 -0.5911271 -0.36781132 0.42259637 -0.21062891 0.19828507 -0.54509634
0.14363071 0.07909548 -0.5289386 -0.50808483 -0.0025104415 -0.27636674 0.53521407 0.36777174
0.16418721 -0.5052708 -0.4153002 0.05815824 0.40269578 -0.39682794 0.2986963 -0.3760847
-0.47311375 -0.6614919 -0.109332986 -0.11540223 -0.3261557 -0.041893814 0.32552403 -0.48136756
-0.4603215 -0.0152769815 -1.9892564 -0.4016346 0.08978439 -0.018399186 -1.1630405 0.067347646
-0.1505095 -0.76308894 0.21837257 -0.0953734 0.3834888 -0.3004792 -1.4961259 0.20024653
-0.58771026 0.28585735 -0.7487935 -0.36446884 0.20039341 0.03502946 0.23246247 0.21381056
-0.26583743 -0.31332028 -0.25983486 0.19802026 -0.18697834 0.70549685 -0.0241396 0.011144145
-0.08501003 -0.19170658 0.26645464 -0.045024097 0.17144145 0.12257661 -0.09281201 -0.261889
-0.020012947 0.006243844 -1.1113548 -0.2599642 0.02715239 0.027892793 0.1104919 -0.73481333
-0.08987234 0.34849474 -0.18541473 -0.32030883 0.3180944 -0.26701066 -0.32230678 0.21032913
-0.3364909 -0.27515793 0.18253462 -0.25660035 -0.18182217 0.034259472 -0.122408114 0.22566648
-0.0016233493 -0.021411855 0.25214124 0.3837391 0.17766838 0.12319321 0.29112482 0.10445325
-0.16766569 0.3177567 0.4784899 -0.08400071 0.3184372 0.16636483 -0.15314785 0.34617287
0.19984719 0.24539094 0.25155458 -0.12248277 -0.026692545 0.25312218 -0.043196622 -0.08132947
0.22891419 -0.45097223 -0.3981994 -0.39636317 0.1192708 -0.31344324 -0.23261753 0.28412214
0.50135714 0.080104485 0.3131143 0.0338479 -0.6123021 -0.13863875 -0.35947856 0.07999577
0.2665195 0.089624494 0.11935339 0.038725518 -0.27141204 0.11983981 -0.29590422 0.20315798
-0.07683026 -0.15224311 -1.4963857 0.03944283 -0.05933149 -0.24473248 -0.15762275 -0.08648595
0.10420688 0.038307395 0.15799686 0.3005774 -0.08543107 0.6628159 -0.25186333 0.13551404
-0.09823364 -0.22630113 0.40449256 -0.18582192 0.57486254 0.40655777 0.9623616 -0.16069247
0.37514868 0.8588861 0.90216136 -0.16353282 -0.52141225 -0.057885375 0.79320437 -0.52541715
0.034882348 0.10017216 0.4617953 -0.34317037 0.1131351 -0.35362312 -0.39685005 0.5480186
0.83408326 -1.1612978 -0.27716604 0.5261272 0.16110645 -1.7268509 -0.021568876 -0.48431993
0.40992996 -0.27058583 -0.97637516 -0.63078547 0.37818328 -0.65076464 -0.85065603 -2.0043335
0.47787574 0.09338904 -1.940435 0.6162669 -0.49706706 -0.099487655 0.6384016 0.29886264

layers.0.bias f4 [32]
00000000: d76a 213e edbf 0fbd 7dde 1dbd 0000 0000
00000010: ff81 2bbe 84d1 e6bd 2b5d 00be 479c 7bbe
00000020: cc98 5bbe d5b9 e7bd 62a1 e2bd a544 f03d
00000030: fedd ecbd 7599 8b3e 86a3 4d3e c0fc 6abc
00000040: ae64 72be 0cb4 c4bd b381 a8be c2cc 1cbe
00000050: cd95 ae3c 14f8 cb3d f5a1 683e c73a c73c
00000060: 78ed 1dbe 11dd 36bd 4aaa f93d c7f7 b23c
00000070: f0f2 ec3d 5c09 8c3c 0096 e4bc dfb7 123d
0.15763412 -0.035095144 -0.03854226 0.0 -0.16748808 -0.11270431 -0.12535541 -0.24571334
-0.21445006 -0.113147415 -0.110659376 0.11731843 -0.11565779 0.27265516 0.2008191 -0.014342487
-0.23671219 -0.09604654 -0.32911453 -0.15312484 0.021311665 0.099594265 0.22718032 0.02432002
-0.15422618 -0.04464442 0.12190683 0.021846665 0.11569774 0.017094307 -0.027903557 0.035819884

layers.1.weight f4 [32, 16]
00000000: 100c 67bd f4fb 103e 3843 0e3f 84fa 9a3d
00000010: add7 c13d a00e 0abf 1222 f0bd c8ec 11bd
00000020: ea91 003f 1cb5 5dbe ab91 0d3f af00 183e
00000030: b978 ee3e 9c6a 61be e30e 163f 80ba f1bd
00000040: 9e81 f6bd b370 b03d 6b90 59bd 9232 62bd
00000050: ae90 49bd 6038 96bd 1342 3cbf d358 6c3d
00000060: 33d9 dd3e ecdb bdbe 2314 8bbd d83f 863d
00000070: 999d 173f 42b0 9d3d 7fbc 04bf f2b5 b93e
00000080: 1025 cdbe 4f33 50be 0868 ed3e 5672 a9bd
00000090: b1ef 613f e744 963f 734b 4c3f b3b8 0f3d
000000a0: a8e4 9e3d b827 923c 9662 d63e 490f f8be
000000b0: 7e0b e3be 5bb3 e8bd fea1 2b3f e793 043e
000000c0: 120a 32bd d640 9bbe 63d0 483e d2f6 d3bd
000000d0: bc6c 64be b299 0fbe cdbd c43b 1abd 213e
000000e0: 8e7b a23c 49a6 923e 5348 8fbe 8f97 493e
000000f0: 7606 87be 3e2b c2bd f386 3b3e d8a6 11bd
00000100: 7322 66be e4af 823e 8328 a13c 2e92 883d
00000110: 612b 3a3d dc97 063f 3424 d5be 2280 263e
00000120: bb5e 91bc 3be8 9abe 5027 bc3d d51c 4fbe
00000130: 3b23 243c 52ba eebd 26fe debe 603e 3ebe
00000140: 5f20 bf3d 2376 59bd 5352 be3d 8f5b 493e
00000150: 3116 15be fc43 db3e 1d3a 683f b236 80be
00000160: 8aa3 713f ec81 083e 9c56 2f3b 339c 08be
00000170: ff14 97bc b4fd 243e 6cb7 81be 5bda 523c
00000180: 49b3 08bc 6c1c 463e 0de3 b53b e9b4 ad3e
00000190: a353 92bd 3858 1ebe b13f d0bd fab3 64be
000001a0: 9a1c 8b3e b744 aabe 965e 193d 2b69 5a3d
000001b0: bd18 c3ba 324b 63be 92a5 053e 6008 b63e
000001c0: 3aa1 bdbd b6f4 5ebe 99e2 fe3e 98bf a9bc
000001d0: fc12 e9be ce3a 56be 6391 b03e 3cce 0abe
000001e0: 5d0e 0dbe 22bb ae3e 51cb 20be 716f 7ebe
000001f0: 58b9 06bf 9de8 9cbd b3e1 e8be 9a9a 4ebe
00000200: 47f6 88be 791c 303d f6ce df3e d7c4 c0bd
00000210: bd54 a23f f53b 12bf b280 14bf 3064 f6bc
00000220: 84a0 4bbf 59b1 973e b30d 7abf a8bf 18bf
00000230: b4e3 8cbf 8dee ddbc db5e b9be a114 3fbe
00000240: 3e98 293e 1fb0 5bbe 89bd a4be c9b7 31be
00000250: 8267 3abf b7af 943f f847 923f 450a 903e
00000260: 1d80 703f da01 a43d 8520 363e 900d 5b3d
00000270: 2cce 713c 32c8 ee3d b7d0 8d3f 3660 28be
00000280: 2245 993e f584 543d feba 88be a8f4 36bd
00000290: e967 3dbe 603f a8be 3eb9 99bd b8fa 363e
000002a0: b090 9f3d d25b 24be 5a42 263e 891c df3e
000002b0: f318 c6be 30f9 e0be 7edb c93e 40da 0f3e
000002c0: e1f4 fd3e 09f9 a3be 5c6f bf3e 9c40 a13e
000002d0: 91eb f83e 08d8 0bbf 365f f33e 7a47 fdbd
000002e0: 01f9 043f 150e e63e 52ba f1be db20 713e
000002f0: 6462 e73c 6e45 dc3e 2d76 2e3f 30f9 e43d
00000300: 35b0 9d3e 0220 aabe 5c7d 69be cab3 43be
00000310: 8a1d 27be 2498 59be e53c acba 0187 d1bd
00000320: 4d9e a03e 7282 0dbe eefc 2ebe 72ba b0bd
00000330: 203b f23d cdfa 893d 2477 39be 9c68 143e
00000340: dd1b 1fbf 49e7 b0be 66d8 b2be d247 193d
00000350: a59e 07be d927 8b3e e2a7 bcbd 526f 29be
00000360: e3a8 1b3f a297 493e e5cc 363f 082a 17bf
00000370: 2d50 6cbf 7b52 d2be 8274 0d3f 7283 8fbe
00000380: b6d2 173e 58f1 463c 193f 9a3d 96ff a83c
00000390: b88b 9abe e677 653e 7040 d7bc 8621 eabc
000003a0: 3afd d53e 1626 aebc d441 9e3e 317b 363d
000003b0: 2f4f bdbc afda 753e 25c8 eb3e 02d5 69bd
000003c0: e789 013e ed2e 0ebe 5945 dcbd 1e2c 003e
000003d0: 11ef 3dbf 4361 3fbe ad13 d63d 891f 9ebe
000003e0: 9976 87be a9ec 3e3e 7d02 88be ee94 51bd
000003f0: 1ec3 163e 3f8c 473e 6966 843d ec90 1f3e
-0.056407988 0.14158612 0.5557132 0.07567313 0.09464965 -0.53928566 -0.117252484 -0.035626203
0.5022265 -0.21651119 0.55300397 0.14844011 0.4657648 -0.22013324 0.58616465 -0.1180315
-0.12036441 0.08615246 -0.053116243 -0.05522401 -0.049210243 -0.073349714 -0.7353832 0.057701897
0.43329772 -0.3708185 -0.0679095 0.06555146 0.5922485 0.07699634 -0.5185012 0.36271626
-0.4006734 -0.20332073 0.46368432 -0.08273761 0.88256365 1.1739777 0.79802626 0.035088252
0.077584565 0.017841205 0.4187209 -0.48449162 -0.44344705 -0.11362334 0.67044055 0.12947045
-0.043466635 -0.30322903 0.19610743 -0.103498116 -0.22307104 -0.14023474 0.0060040713 0.15794793
0.019834306 0.2864249 -0.27984866 0.19686721 -0.26372117 -0.09480904 0.18313198 -0.035559505
-0.22474079 0.2552482 0.019672638 0.066685066 0.045451526 0.5257547 -0.41629183 0.16259816
-0.017745366 -0.30255303 0.09187186 -0.20225842 0.010018165 -0.116566315 -0.43553275 -0.18578482
0.09332346 -0.05309118 0.09293046 0.19663833 -0.14559247 0.42825305 0.90713674 -0.2504173
0.94390166 0.13330811 0.0026754504 -0.13340835 -0.018442629 0.16112405 -0.25335252 0.012869443
-0.008343526 0.1934678 0.005550748 0.33927086 -0.07144859 -0.1546334 -0.10168398 -0.2233428
0.2717026 -0.3325555 0.03744372 0.053322952 -0.0014884692 -0.22196653 0.13051441 0.35553265
-0.09259267 -0.21773037 0.49782255 -0.020721242 -0.45522296 -0.2092087 0.3448592 -0.13555235
-0.1377501 0.34127146 -0.15702559 -0.24847199 -0.5262656 -0.07661555 -0.45484695 -0.20176163
-0.26750395 0.042995904 0.43712586 -0.09412544 1.268211 -0.5712274 -0.58008873 -0.03007707
-0.795418 0.29627493 -0.97677153 -0.59667444 -1.100699 -0.027091289 -0.3620518 -0.18660213
0.16561982 -0.21453904 -0.32175854 -0.17355265 -0.7281419 1.1616124 1.1428213 0.28132835
0.93945485 0.08008166 0.17785843 0.05347973 0.014758628 0.11659278 1.107932 -0.16442952
0.29935557 0.05188461 -0.26705164 -0.044666916 -0.1849667 -0.3286085 -0.07506035 0.17869079
0.07791269 -0.16050652 0.16236249 0.43576458 -0.3869091 -0.43940115 0.39425272 0.140481
0.4960089 -0.32025936 0.37389648 0.31494606 0.48617223 -0.5462651 0.47533578 -0.12367149
0.5194245 0.4493262 -0.47212464 0.2354769 0.028245158 0.4302172 0.6814907 0.11180341
0.30798498 -0.33227545 -0.22801727 -0.19111553 -0.16319862 -0.21249443 -0.0013140707 -0.10230828
0.31370774 -0.13819292 -0.17088673 -0.086293116 0.118276834 0.067372896 -0.18111855 0.1449303
-0.6215189 -0.34551457 -0.34930724 0.03742201 -0.13244112 0.2717884 -0.092117086 -0.16546372
0.60804576 0.1968675 0.71406394 -0.5904851 -0.9230984 -0.41078553 0.552559 -0.28029972
0.14826474 0.012142502 0.07531566 0.020629685 -0.30184722 0.22409019 -0.026275843 -0.028580438
0.4179476 -0.021258395 0.30909598 0.04455108 -0.023109047 0.24009202 0.46051136 -0.057087906
0.12650262 -0.13885088 -0.107554145 0.1251683 -0.7419291 -0.18689446 0.104529716 -0.30883434
-0.2645767 0.18644966 -0.26564398 -0.05116742 0.14722869 0.19487093 0.06464846 0.15582627

layers.1.bias f4 [16]
00000000: 4e9c 073d fcf6 e33c 9223 323e 8072 673d
00000010: d94e df3d 6ef5 67be 4322 2fbe ddec 28bd
00000020: 3a43 71bd 2b84 2c3c 9b00 a6be 396c abbd
00000030: 378a 07be 2989 9f3d fa4d c23b aa21 cabd
0.03310805 0.027827732 0.17396381 0.05650568 0.10903711 -0.22652218 -0.17102914 -0.041241515
-0.058902003 0.010529558 -0.32422337 -0.08370251 -0.13236319 0.07789833 0.0059297057 -0.09869702

layers.2.weight f4 [32, 16]
00000000: 6714 46be d658 d7be ec60 38be 7b47 393d
00000010: 0493 b0be c1b0 d1bd 72e6 92be a982 febd
00000020: 229e 443e a331 1fbe fd8b ebbc e15c f6bd
00000030: 3fb4 9ebd c5bb 66bb 9cb9 86be c1cb dabd
00000040: a854 a8be 8386 20be 973d 79be 3fff 93bd
00000050: 2652 adbd ea9a 8fbe 2a7e 2abe 6070 b8bd
00000060: 35cb ccbe 412b 96bc 5fe7 94bd a8e1 7fbe
00000070: 1a9e 66be 8114 f5bd e119 b3be a279 92be
00000080: ecc1 cf3d 3821 303d a1f6 373c 54e4 38bd
00000090: 79e6 e6bc 045c 96be f6eb 21bc 48d5 53bd
000000a0: dd18 c0be 01e9 d93d ccda 94bc 6314 9ebe
000000b0: 51e2 8abe 564a 853d 3f57 a9bd 9dea 0bbd
000000c0: 133d aa3e aff7 9e3e 094d 5abd 7eb1 143e
000000d0: bda3 33be d2dd afbd 7ee6 70bd 5da8 66bb
000000e0: d13a 89be 9e92 a0be 3705 b5bd aa28 0ebe
000000f0: 27d7 5a3e a4b0 91be 1f45 373e 8acb 813e
00000100: 7d5f 85be 84b0 4fbe e328 77be cc0d 6dbe
00000110: 66d5 9bbe 279b e3be 8687 a8be 040e 35be
00000120: 2d9c 9fbe e44b bfbe dc72 4abe 0d31 3ebe
00000130: daf8 cb3d c448 16bd 149a 05bf 8ddd 2fbe
00000140: 3b5e d73c 4e46 9dbe 1ac3 20be 2843 dbbd
00000150: 2c1a d6be 409d bcbe 6826 b1be 478d 66be
00000160: 0b29 d83d 8295 2e3e 818e d8bd c32a 3b3e
00000170: b697 acbd 6429 203a 74cd 97bd b43f 0abd
00000180: 3f64 fb3c 1a2f 46be f77f 693d a95a 5fbc
00000190: 120e 553e 41c2 39be 7cf5 a0bd 2893 48be
000001a0: 6733 69bd bb06 36be c026 e4be 736e d33d
000001b0: def8 713e c5d3 573e 3768 95bd 1c90 383e
000001c0: 5e06 07bd 1970 0fbc 8316 a4be 696e a5be
000001d0: d600 05bf 68a6 a6bb bb57 c7be 0079 78be
000001e0: 1259 f5be ff93 e6be 699e b8bd 6b0c d4be
000001f0: edb7 37be 9225 0c3d 50d2 81be faec 76be
00000200: e205 e9be 80bb 81be 953a 30bf f9a9 63be
00000210: 27b9 08bf f2d9 dbbe 6f9d 38bf e501 f9be
00000220: 8995 d2be f67f 01bf c932 23bf f96a acbe
00000230: c11f 51be 1f97 dbbe a2be 11bf a09c 96be
00000240: b54e 0cbe d563 df3b e951 c1be b438 44be
00000250: 43d8 60be 3600 dfbe ec8f 88be a5b4 f0bd
00000260: 9ce1 8bbe 6bb2 edbe 1c18 a5be cf99 5dbe
00000270: f450 e6be ce5b 8fbe f527 a0be 2c24 3cbd
00000280: 1201 f83d dc38 9ebe d321 3ebe e0c0 033e
00000290: 465f bdbe 21a0 b5be 7599 b23d a0a1 adbe
000002a0: eba4 ed3a 3d26 923b d6e7 243e af79 693e
000002b0: cebf 033e e5f5 e73c e21a c93d 7a08 db3d
000002c0: 9456 c9be 42d7 91bd 47b4 97bd 2a5b a7be
000002d0: 46e7 72be 6038 b7be 1729 60be 7ec8 acbe
000002e0: 8f6c d4be 41f3 b9be 7373 14bd a34e 4cbe
000002f0: 32bf 02bd 3e5d 3abe 6f12 a5be 85fd 7abe
00000300: 4010 30be d134 b0bc db32 77be ef3b 233d
00000310: 97e6 203e 8479 6c3e 3b85 143e 95b9 953d
00000320: b351 bcbd 7c60 0fbe 6beb 753e 425d bcbe
00000330: 8ce9 e9be f439 1a3e 9306 603e 3ed9 a6be
00000340: f340 80be 681b 4cbe bf3e a2be f036 ecbe
00000350: ac44 95be bbbb c5be 4799 d7be 3d35 1abe
00000360: d317 abbe 5c03 3bbe f47e 23be 6c3c aebe
00000370: 3648 89be db2c 93be a4fe f4be 7ac2 40be
00000380: c0a3 2dbe 6c16 92be 7b09 afbe fc50 90be
00000390: ec44 19bf 7b06 8cbd da87 e4be c902 e4bd
000003a0: d429 f4be 8f33 3ebc a64e 85be c60f d5be
000003b0: 01fb bdbe f5c5 32be e539 a2be 930a e2be
000003c0: 4a39 a2be 0fdf 643e f618 74bd 18ec adbe
000003d0: 7d91 113d 7cf0 82be 3fd5 563e e957 0bbe
000003e0: 0d3e 2ebe 70be 7e3c cbd6 dabc 854b 4fbe
000003f0: 08d2 6bbe ed1d 74bd 4211 f0bd 25e8 833d
-0.1934372 -0.42059964 -0.18005723 0.045234185 -0.34487164 -0.10238791 -0.2869144 -0.12427265
0.19200948 -0.15546279 -0.028753275 -0.12029434 -0.07749223 -0.0035207134 -0.26313484 -0.10683394
-0.32877088 -0.15676312 -0.24339901 -0.07226419 -0.08462934 -0.28047878 -0.1664969 -0.09005809
-0.39998785 -0.018331172 -0.07270693 -0.24988425 -0.22521248 -0.119668014 -0.34980682 -0.28608423
0.101444095 0.04300043 0.0112282345 -0.045139626 -0.02818607 -0.29367077 -0.009882918 -0.051717073
-0.3751897 0.10640145 -0.018170737 -0.3087493 -0.2712579 0.06508319 -0.08268594 -0.03415929
0.3324972 0.31048343 -0.053296123 0.14520833 -0.1754293 -0.08587231 -0.058813564 -0.0035195567
-0.26802686 -0.3136186 -0.08838885 -0.138827 0.21371137 -0.2845508 0.17897461 0.253506
-0.26049414 -0.20282179 -0.24136691 -0.23149794 -0.30436248 -0.4445431 -0.32915896 -0.17681128
-0.3117384 -0.37362587 -0.19770378 -0.18573399 0.09959574 -0.03669049 -0.5218823 -0.17174359
0.02629005 -0.307177 -0.15699425 -0.107061684 -0.41816843 -0.36838722 -0.34599614 -0.2251483
0.10554703 0.1704922 -0.105740555 0.18278031 -0.08427374 0.00061096833 -0.07412234 -0.03375216
0.03068745 -0.19353905 0.057006802 -0.013632455 0.20806149 -0.18140508 -0.078593224 -0.19587386
-0.056933787 -0.17776005 -0.44560814 0.10323801 0.23630092 0.21076877 -0.07295268 0.18023723
-0.032965057 -0.0087547535 -0.32048425 -0.323108 -0.519544 -0.005085755 -0.3893412 -0.24264908
-0.47919518 -0.45034787 -0.09014589 -0.41415724 -0.17941256 0.034215517 -0.25355768 -0.24113837
-0.455123 -0.25338364 -0.6883939 -0.22232808 -0.5340752 -0.42939717 -0.72115225 -0.48634258
-0.4112971 -0.5058588 -0.63749367 -0.33675364 -0.2042227 -0.42888734 -0.5693151 -0.2941637
-0.137019 0.006817321 -0.37757805 -0.19162256 -0.21957497 -0.43554848 -0.26672304 -0.11753205
-0.27320564 -0.46425185 -0.32244956 -0.21640705 -0.44983637 -0.2799973 -0.31280485 -0.045932934
0.12109579 -0.30902755 -0.1856759 0.12866545 -0.3698675 -0.3547373 0.08720676 -0.33912373
0.0018130814 0.0044601248 0.16104063 0.22800325 0.12866136 0.028315494 0.098195806 0.10694976
-0.39323866 -0.07121135 -0.07407432 -0.3268674 -0.23721036 -0.35785198 -0.21890675 -0.33746713
-0.41489074 -0.363184 -0.036242913 -0.19951873 -0.03192062 -0.18199632 -0.32240626 -0.24510773
-0.17193699 -0.02150956 -0.24140494 0.03985208 0.15712963 0.2309323 0.14503948 0.073107876
-0.091952704 -0.1400165 0.24015586 -0.367899 -0.45685995 0.1506117 0.21877508 -0.32587618
-0.25049552 -0.1993233 -0.31688496 -0.46135664 -0.29153955 -0.3861979 -0.4210913 -0.15059371
-0.33416614 -0.18263 -0.15966398 -0.34030473 -0.26812905 -0.2874516 -0.47850525 -0.18824187
-0.16956997 -0.28532732 -0.3418692 -0.28186786 -0.5987079 -0.068371736 -0.44634897 -0.11133344
-0.47688162 -0.011608972 -0.26036566 -0.41613597 -0.37105563 -0.17458327 -0.31684795 -0.44148692
-0.31684333 0.22350715 -0.059594117 -0.33969188 0.03553914 -0.255741 0.20979784 -0.13607754
-0.17015858 0.0155483335 -0.02671375 -0.20243652 -0.2302934 -0.059598852 -0.11722042 0.064407624

layers.2.bias f4 [16]
00000000: d60f 8fbe 514c e7be 7b9d 11bf 636a a4be
00000010: 7b44 f2be ed8a 12bf ebf6 0abf bb9c bdbe
00000020: 0e4d d3be ccce 9cbe 683e 00bf 9321 9dbe
00000030: 2aa5 c5be 8e3c 89be ad9c c1be eb05 c5be
-0.2794177 -0.45175412 -0.5688092 -0.32112417 -0.4731787 -0.57243234 -0.54283017 -0.37033638
-0.41269726 -0.30626523 -0.50095224 -0.30689678 -0.38602573 -0.26804012 -0.37814847 -0.38481078
