src/features/VGAE_TA.pth (torch, 10455 bytes, 6 tensors)

layers.0.weight f4 [33, 32]
-0.52448684 -0.16184023 0.02430436 0.14902715 0.8088843 0.066447355 -0.50838864 0.8646844
-0.11337385 -0.4725232 -0.8219697 -0.7505017 1.0235788 -0.59548306 0.42373767 -0.9048692
0.71238345 -0.09407109 0.040281143 0.054279942 0.07041804 1.2528489 -0.33224648 -0.32209137
-0.10170165 0.1616035 -0.33440042 -0.2518796 -0.31644034 -0.60035247 -0.59582573 -0.26151127
-0.51110077 -0.7734897 0.22135268 -0.14109947 0.36898002 -0.058624573 -0.57954717 0.48921064
0.02574056 -0.023010157 -0.13931844 -0.05228811 0.14563912 0.08446947 0.09906484 -0.4437178
-0.019477045 -0.06945066 0.0425045 -0.77743673 0.011285614 0.4732332 0.050812922 -0.281782
-0.07180257 -0.18967092 -0.14874263 -0.478134 0.26712552 -0.93514097 -0.33439663 -0.021517344
-0.4001046 -0.48286772 -0.29452395 0.24869047 0.83556813 0.0064083007 -0.7675912 0.85868555
0.04249261 -0.52766293 -1.2365124 -0.6007142 0.89075154 -0.9367211 0.16015887 -1.0376339
0.81123954 -0.16387182 -0.24181883 -0.39004058 0.2099312 1.0412996 -0.11636115 -0.36962965
0.060172245 0.1594858 -0.39883447 -0.06351837 -0.1865297 -0.5007789 -0.5607203 -0.05945192
0.018273223 0.12689954 0.09519622 0.023791462 -0.37453386 0.120780684 -0.23157938 0.40156245
-0.15966359 0.085868925 -0.24402383 0.054645963 0.42976743 0.17745396 -0.0857525 -0.35146064
0.019980587 -0.64767134 -0.2775723 0.013299083 -0.38919416 0.4370583 0.2470303 -0.17368206
-0.019941077 -0.12772928 -0.66503555 -0.13167049 0.17451355 0.34122774 0.32606092 0.3318106
0.53258866 0.4229898 0.15153177 0.022720728 0.10299338 -0.25460225 0.46322474 -0.57165915
-0.36071286 0.18228583 0.29925928 -0.24902123 0.40904045 -0.45027512 -0.53529334 -0.06774236
0.14419726 -0.176307 -0.24419071 -0.2556928 -0.08341875 0.23313405 -0.5020826 -0.16991706
0.27744874 -0.12575702 -0.33967304 0.35420835 0.35639006 -0.08048048 -0.008640785 -0.8801677
-0.296969 0.1592378 -0.094304495 0.085161395 -0.2730297 -0.2205953 -0.72114104 -0.6057763
-0.26836148 0.29834175 0.8250039 -1.5221323 -0.27808973 -0.44291484 0.5427572 0.35545084
1.0267327 1.3903325 -0.2546911 1.128989 0.12803635 -0.20683129 0.37125653 0.1476113
-0.30037367 0.09367583 -0.122844905 -1.4171408 0.45516187 0.011456094 0.032350823 -0.6673196
0.0918591 -0.26038575 -0.26020414 -0.03552417 -0.07982199 0.0114453165 -0.107061885 -0.48483044
-0.13149412 0.4516783 -0.027174026 0.15055484 -0.15489902 -0.6377822 -0.18440515 -0.19018677
-0.50025976 0.23147434 -0.1640098 -0.36334398 0.31518045 -0.19661216 0.004040948 0.15198615
0.042534355 -0.1269891 0.35981348 0.01781378 0.3017705 0.1576786 0.22904919 -0.6550756
-0.7465814 0.22766756 0.003693926 0.47756383 0.7468497 -0.24798672 0.1900956 0.52827495
0.14821927 -0.116819665 -0.4048028 -0.42940968 -0.054499872 -0.0011945373 -0.062185552 -0.26706845
-0.07940602 0.5245235 -0.12416042 -0.13800168 -0.45747837 -0.47419018 0.18967079 -0.32831892
0.28439575 -0.15428291 0.4437601 0.032654494 -0.17582242 -0.53840935 0.3007674 -0.41680658
00000000: c544 06bf 72b9 25be f019 c73c 939a 183e
00000010: 0b13 4f3f 8d15 883d c225 02bf f55b 5d3f
00000020: 8d30 e8bd 90ee f1be 9b6c 52bf e120 40bf
00000030: a104 833f 9471 18bf 25f4 d83e 82a5 67bf
00000040: c35e 363f 58a8 c0bd d7fd 243d a554 5e3d
00000050: 5537 903d 5a5d a03f 361c aabe 29e9 a4be
00000060: f448 d0bd 637b 253e 8836 abbe 5df6 80be
00000070: 7804 a2be b3b0 19bf 0988 18bf cee4 85be
00000080: 80d7 02bf 6c03 46bf 47aa 623e 617c 10be
00000090: f3ea bc3e 5220 70bd 345d 14bf d179 fa3e
000000a0: dedd d23c cc7f bcbc 7ea9 0ebe 0f2c 56bd
000000b0: 6c22 153e 54fe ac3d 82e2 ca3d fb2e e3be
000000c0: 538e 9fbc 263c 8ebd 3319 2e3d 1806 47bf
000000d0: 4ce7 383c 9f4b f23e 3621 503d bb45 90be
000000e0: 3a0d 93bd 1839 42be fd4f 18be fbcd f4be
000000f0: adc4 883e 6665 6fbf 0936 abbe 2445 b0bc
00000100: 83da ccbe 703a f7be d8cb 96be b7a8 7e3e
00000110: cbe7 553f b9fc d13b db80 44bf d1d2 5b3f
00000120: bb0c 2e3d eb14 07bf 0a46 9ebf 68c8 19bf
00000130: 4b08 643f f4cc 6fbf b000 243e 30d1 84bf
00000140: 65ad 4f3f 04ce 27be 5b9f 77be 66b3 c7be
00000150: 34f8 563e 4e49 853f c14e eebd 1940 bdbe
00000160: 2c77 763d 3f50 233e 0834 ccbe eb15 82bd
00000170: a401 3fbe 0c33 00bf 5e8b 0fbf db83 73bd
00000180: bab1 953c f4f1 013e 3cf6 c23d 50e6 c23c
00000190: e7c2 bfbe dd5b f73d 2523 6dbe 9899 cd3e
000001a0: da7e 23be 0cdc af3d 62e1 79be 72d4 5f3d
000001b0: 7a0a dc3e 7eb6 353e 029f afbd a6f2 b3be
000001c0: 54ae a33c cacd 25bf f51d 8ebe 66e4 593c
000001d0: 7544 c7be 1bc6 df3e 83f5 7c3e b6d9 31be
000001e0: 785b a3bc 77cb 02be c53f 2abf a1d4 06be
000001f0: aeb3 323e 67b5 ae3e 75f1 a63e 14e3 a93e
00000200: bb57 083f 1e92 d83e 252b 1b3e d220 ba3c
00000210: 31ee d23d 3a5b 82be cb2b ed3e 4158 12bf
00000220: 5baf b8be 23a9 3a3e 8338 993e 6cff 7ebe
00000230: c06d d13e 768a e6be fc08 09bf 82bc 8abd
00000240: 72a8 133e d289 34be 210d 7abe 2bea 82be
00000250: 73d7 aabd b1ba 6e3e 7c88 00bf bdfe 2dbe
00000260: c30d 8e3e 73c6 00be a0e9 adbe cc5a b53e
00000270: c278 b63e f3d2 a4bd 1492 0dbc ac52 61bf
00000280: 520c 98be 3c0f 233e b722 c1bd 1969 ae3d
00000290: 8dca 8bbe bce3 61be b39c 38bf 2814 1bbf
000002a0: ad66 89be 40c0 983e 7533 533f 3bd5 c2bf
000002b0: c761 8ebe bcc5 e2be 23f2 0a3f a7fd b53e
000002c0: fa6b 833f 6af6 b13f df66 82be b682 903f
000002d0: f61b 033e 95cb 53be 5615 be3e 6b27 173e
000002e0: 94ca 99be 1dd9 bf3d 1c96 fbbd df64 b5bf
000002f0: fa0a e93e 57b2 3b3c 4c82 043d 75d5 2abf
00000300: a020 bc3d 4851 85be 7a39 85be cb81 11bd
00000310: b679 a3bd 2385 3b3c 4343 dbbd b23b f8be
00000320: 65a6 06be 6142 e73e 109c debc 0c2b 1a3e
00000330: d99d 1ebe b245 23bf b4d4 3cbe 52c0 42be
00000340: 0611 00bf 9c07 6d3e 2ff2 27be 3908 babe
00000350: 555f a13e b354 49be ee69 843b 42a2 1b3e
00000360: 8138 2e3d 6e09 02be 7939 b83e 34ee 913c
00000370: aa81 9a3e 8076 213e df8b 6a3e 09b3 27bf
00000380: f51f 3fbf af21 693e cb15 723b 3f83 f43e
00000390: 8b31 3f3f 3bf0 7dbe 6ca8 423e 073d 073f
000003a0: cbc6 173e 263f efbd 5042 cfbe 96db dbbe
000003b0: 423b 5fbd 0592 9cba 47b6 7ebd 32bd 88be
000003c0: a09f a2bd 2c47 063f d147 febd 5050 0dbe
000003d0: 9b3a eabe 0ec9 f2be 0f39 423e 6b19 a8be
000003e0: 529c 913e 57fc 1dbe 8634 e33e b8c0 053d
000003f0: cb0a 34be 32d5 09bf 2ffe 993e ac67 d5be

layers.0.bias f4 [32]
0.09081905 0.18878642 -0.108907945 0.0036917212 -0.057719894 -0.110439315 0.13182534 0.19765162
-0.10849236 0.12620819 0.20770079 0.03735575 -0.21310472 -0.19833809 0.06858215 -0.010155541
-0.11727486 -0.18666837 -0.10703107 -0.0046655466 0.0025962393 -0.026694091 -0.023642132 -0.10097343
0.11907806 -0.09287334 0.033934593 0.04153663 -0.000877175 -0.01124576 0.033737287 0.012124989
00000000: 57ff b93d 3a51 413e 210b dfbd cef0 713b
00000010: b26b 6cbd 022e e2bd 39fd 063e 3065 4a3e
00000020: 3e31 debd b83c 013e 84af 543e 5802 193d
00000030: 2038 5abe 2419 4bbe cc74 8c3d 6d63 26bc
00000040: cd2d f0bd fe25 3fbe 1b33 dbbd 71e1 98bb
00000050: ab25 2a3b 91ad dabc 25ad c1bc 28cb cebd
00000060: 33df f33d 6134 bebd 00ff 0a3d 5022 2a3d
00000070: 38f2 65ba 2340 38bc 1c30 0a3d e4a7 463c

layers.1.weight f4 [32, 16]
-0.14179945 -0.25640777 0.19193654 -0.6705714 0.08874547 -0.30924794 -0.57168 -0.09388891
-0.566928 -0.06342014 0.75847894 0.10454632 0.46293837 0.4212421 -0.08925713 -0.16508877
-0.10131302 -0.47378236 0.16670689 -0.47506884 -0.3162758 0.30214414 0.16414382 0.28491414
0.46712542 -0.21499434 -0.024789568 0.2156059 -0.693201 -0.09661753 -0.15306859 -0.07168242
-0.27114743 0.43974045 0.215009 0.045948263 0.5659758 -0.102855094 -0.19945566 -0.16286795
0.1586399 0.17478001 -0.07906231 0.2604254 -0.44351065 0.13295326 -0.28535634 0.20532064
0.021064114 0.26152092 0.18217853 -0.18756653 0.5477501 0.49038318 0.34746003 -0.14747654
-0.22033529 0.18829645 -0.06960312 -0.075300746 0.277281 0.08339117 0.065576166 0.23794591
-0.13083366 -0.017509911 0.03132366 -0.17878653 0.6531444 1.0105051 -0.35090888 0.13406391
0.23819524 -0.18348972 -0.4216581 0.0021388961 0.1612895 0.032864828 -0.073209055 0.5511101
0.049137305 0.27806148 -0.17484656 -0.15044999 -0.09821777 0.05530214 0.3508756 0.2891595
0.25828618 0.22235551 0.064803496 -0.27128792 0.1600761 -0.0045222947 -0.34524992 -0.11864432
-0.17029302 -0.46977353 -0.11011834 -0.6482423 -0.21870372 0.2490276 -0.23677675 -0.2595369
-0.15041526 -0.14992718 0.020840077 -0.13187578 -0.40357593 0.24384254 0.23893398 -0.5355809
-0.15337184 0.6696751 0.35176396 -0.403559 1.1544552 0.1452752 0.41290691 -0.038924433
-0.19551334 -0.14423524 0.5794515 -0.25087062 -0.9502421 0.62670016 -0.17385688 0.9055728
0.13212597 0.0037943742 -0.11518172 0.18740676 0.41188633 -0.0795797 -0.000938611 0.17702447
-0.18303384 -0.14850628 0.22115938 0.16789332 0.17708951 0.32380718 -0.34588122 0.20185877
0.14009564 0.41620016 0.21888177 -0.23319085 0.4158509 -0.60060185 0.050020453 0.05758456
-0.14567555 0.113762334 -0.3352894 -0.28482217 0.31662476 0.083184436 0.1384518 -0.10563229
-0.04594777 0.28734106 -0.25163868 -0.69457394 0.10569746 -0.64438224 0.8400972 0.49426693
0.37807587 -0.14650218 -0.12327896 0.028273083 -0.2606177 -0.31659806 -0.13855961 0.17038164
0.49996918 -0.48389193 -0.082349725 -0.63224465 -0.08005346 0.39731866 0.9736 -0.2904459
-0.9410586 0.50297153 0.23051065 -0.42900452 0.9523516 0.397171 -0.024739094 -0.46936038
0.25096124 0.42765585 0.039941642 0.44133002 -0.5969951 0.25723633 -1.0296915 0.13549711
0.22794424 -0.2213231 0.58495635 0.41639838 0.21353076 0.09380661 -0.14540786 -0.35937276
-0.2167298 0.3648341 -0.010109022 0.9380406 -0.39796135 -0.07214149 0.18675798 -0.11637634
0.027365567 -0.11883711 0.7270301 0.12111087 -0.8514646 0.42593822 -0.3980886 -1.4204623
-0.104682595 0.37280697 0.1054143 0.7923189 0.006655071 0.4744281 0.5888488 -0.31692255
-0.09765694 0.23424464 -0.23227128 -0.2277747 0.2996025 -0.251878 0.091661334 0.48783925
0.03769663 0.63092357 0.10414825 -0.44070104 0.45673412 0.044932462 0.119122945 -0.22745444
-0.3759365 0.15093909 -0.48498616 -0.29859883 -0.048918467 -0.07673075 -0.08147102 -0.53175133
00000000: e033 11be e147 83be 038b 443e 91aa 2bbf
00000010: 2fc0 b53d bf55 9ebe 9f59 12bf d448 c0bd
00000020: 3222 11bf 6be2 81bd ad2b 423f 621c d63d
00000030: 4206 ed3e 0bad d73e 71cc b6bd 080d 29be
00000040: 337d cfbd 9a93 f2be 36b5 2a3e 393c f3be
00000050: e7ee a1be a3b2 9a3e 5115 283e 44e0 913e
00000060: 102b ef3e 7a27 5cbe 7e13 cbbc cbc7 5c3e
00000070: 9f75 31bf 69df c5bd 03be 1cbe 3cce 92bd
00000080: d6d3 8abe a925 e13e 522b 5c3e 3f34 3c3d
00000090: cae3 103f b1a5 d2bd 1b3e 4cbe dbc6 26be
000000a0: 7f72 223e 88f9 323e 6ceb a1bd 7a56 853e
000000b0: d413 e3be e624 083e 3a1a 92be 933f 523e
000000c0: a68e ac3c 12e6 853e 028d 3a3e 7111 40be
000000d0: 5a39 0c3f 8113 fb3e 48e6 b13e 1704 17be
000000e0: 939f 61be c9d0 403e 158c 8ebd 4737 9abd
000000f0: c6f7 8d3e fdc8 aa3d cc4c 863d 18a8 733e
00000100: 42f9 05be f270 8fbc 3d4d 003d d113 37be
00000110: 7934 273f 3b58 813f 54aa b3be 0d48 093e
00000120: 74e9 733e bbe4 3bbe 92e3 d7be b92c 0c3b
00000130: 1329 253e 459d 063d a1ee 95bd 8d15 0d3f
00000140: 3344 493d 135e 8e3e fa0a 33be 900f 1abe
00000150: 6626 c9bd 7f84 623d f7a5 b33e b70c 943e
00000160: 163e 843e 2ab1 633e b2b7 843d 40e6 8abe
00000170: fdea 233e c22f 94bb 99c4 b0be cbfb f2bd
00000180: 4b61 2ebe 2886 f0be b985 e1bd 35f3 25bf
00000190: def3 5fbe 1701 7f3e 9b75 72be 05e2 84be
000001a0: 7506 1abe 8386 19be cfb8 aa3c 720a 07be
000001b0: 81a1 cebe dcb1 793e 1cab 743e d41b 09bf
000001c0: 820d 1dbe d46f 2b3f 681a b43e 499f cebe
000001d0: 30c5 933f 06c3 143e 8968 d33e 3a6f 1fbd
000001e0: a634 48be 67b2 13be ef56 143f 1d72 80be
000001f0: 1143 73bf 6c6f 203f 8a07 32be 9ed3 673f
00000200: 084c 073e 09ab 783b 65e4 ebbd 8fe7 3f3e
00000210: c4e2 d23e affa a2bd 1e0d 76ba e745 353e
00000220: 396d 3bbe 0812 18be 9b77 623e 3aec 2b3e
00000230: f456 353e 0eca a53e 5817 b1be 11b4 4e3e
00000240: 3b75 0f3e 3018 d53e 8b22 603e 95c9 6ebe
00000250: 69ea d43e 0bc1 19bf 3fe2 4c3d cadd 6b3d
00000260: f92b 15be 3afc e83d 0dab abbe 36d4 91be
00000270: a41c a23e 9a5c aa3d 4fc6 0d3e be55 d8bd
00000280: bb33 3cbd 5e1e 933e c9d6 80be 99cf 31bf
00000290: e977 d83d 3cf6 24bf 9c10 573f 8e10 fd3e
000002a0: 2993 c13e ab04 16be ae79 fcbd f49c e73c
000002b0: af6f 85be 2419 a2be 92e2 0dbe 8678 2e3e
000002c0: f6fb ff3e afc0 f7be f9a6 a8bd c9da 21bf
000002d0: 12f3 a3bd 5a6d cb3e d93d 793f 53b5 94be
000002e0: 37e9 70bf bec2 003f fc0a 6c3e 7ba6 dbbe
000002f0: 51cd 733f ff59 cb3e a4a9 cabc 0150 f0be
00000300: fe7d 803e b5f5 da3e d999 233d 02f6 e13e
00000310: acd4 18bf 7bb4 833e eecc 83bf c1bf 0a3e
00000320: 376a 693e 86a2 62be b3bf 153f 2b32 d53e
00000330: cfa7 5a3e ae1d c03d cce5 14be b5ff b7be
00000340: 6bee 5dbe 89cb ba3e 50a0 25bc 6e23 703f
00000350: 97c1 cbbe ebbe 93bd 7c3d 3f3e b856 eebd
00000360: c12d e03c df60 f3bd a51e 3a3f fa08 f83d
00000370: 96f9 59bf 9314 da3e 45d2 cbbe b5d1 b5bf
00000380: d463 d6bd 8ee0 be3e 74e3 d73d 69d5 4a3f
00000390: c812 da3b 3de8 f23e ccbe 163f ac43 a2be
000003a0: 5d00 c8bd d4dd 6f3e 86d8 6dbe c53d 69be
000003b0: 8065 993e 27f6 80be f0b8 bb3d 11c6 f93e
000003c0: c867 1a3d 3584 213f ad4b d53d 91a3 e1be
000003d0: 0ed9 e93e 1a0b 383d bbf6 f33d d1e9 68be
000003e0: c07a c0be c78f 1a3e 1b50 f8be f2e1 98be
000003f0: bb5e 48bd 0325 9dbd 47da a6bd db20 08bf

layers.1.bias f4 [16]
-0.026846934 0.008820308 0.06865346 0.034048196 0.049136147 -0.14815876 0.04812672 0.05153892
0.04325039 0.0022729728 0.02861634 -0.018685952 -0.040923037 -0.0027752682 -0.08228948 -0.036104966
00000000: 1aee dbbc 0e83 103c 2f9a 8c3d 1f76 0b3d
00000010: fc42 493d eeb6 17be 8620 453d 791a 533d
00000020: 5227 313d 28f6 143b d16c ea3c 4813 99bc
00000030: ea9e 27bd 46e1 35bb 6387 a8bd cde2 13bd

layers.2.weight f4 [32, 16]
-0.38106003 -0.28853485 -0.31103304 -0.26242793 -0.12822595 -0.08961512 -0.42387974 0.16075651
-0.15579547 -0.20330329 -0.10527129 0.047127213 -0.054674454 -0.15393184 -0.16251804 -0.091645874
-0.18237379 -0.3165996 -0.42130765 -0.1957507 0.014121796 -0.23755202 -0.2784251 -0.1844131
-0.0009328785 -0.16522989 -0.15313606 -0.3166147 -0.41992676 -0.2873169 -0.22683114 -0.2022204
0.08428599 -0.31904295 0.22272915 0.044708 0.2022213 0.09884927 -0.30992657 0.22765929
0.013673033 0.058930054 0.045757122 -0.40725613 -0.16531429 -0.20379011 -0.11806523 0.14249195
0.14908905 -0.21990822 0.014430994 -0.2719841 0.030006036 -0.22963224 -0.3362103 0.06779163
-0.32428497 -0.3912318 -0.18269989 -0.099190734 -0.04898609 -0.41099712 -0.2765732 -0.09625642
-0.11441065 0.005222 -0.21566209 0.008293406 0.10143476 -0.14557756 0.17339358 0.19845095
0.022224184 0.062194742 0.0195137 0.054484032 -0.0895077 0.10920411 0.20505929 -0.022644129
-0.035151716 0.13854422 -0.26528582 -0.21138495 -0.2772683 -0.105785966 0.21058081 -0.054651137
0.005683019 -0.2982526 -0.070541605 0.19664131 -0.10798861 0.1772173 -0.39836666 0.15606886
0.09277042 -0.46850753 -0.14780211 -0.4691954 -0.34767655 -0.32346675 -0.07838624 -0.26991016
-0.33586985 -0.040290833 0.04137257 -0.3835124 -0.27075776 0.07657647 -0.27785897 0.06743941
-0.19447674 -0.23900525 -0.17213659 -0.34745872 -0.49366283 -0.2594237 -0.43026263 -0.16113943
-0.30470997 -0.17039251 -0.4664548 -0.290805 -0.6615233 -0.36225957 -0.26831537 -0.5803655
0.22080342 0.16813679 0.22620282 -0.14052205 0.0548867 -0.41313833 -0.0635078 -0.33074614
-0.1832597 0.1501956 0.0311504 -0.00047194905 -0.036819264 0.087747216 -0.19058527 -0.41792232
-0.00024239859 -0.3578322 -0.084571525 -0.4171947 -0.09161639 -0.35900316 -0.4508681 -0.26229224
-0.50698787 -0.16624871 -0.33102706 -0.46031097 -0.6115802 -0.42788634 -0.45711842 -0.23748611
-0.383393 -0.17053632 -0.19444859 -0.43556592 -0.23923162 -0.04086773 -0.36730656 -0.16926675
-0.43140024 -0.323076 -0.2256782 -0.06122463 -0.23303442 -0.22501606 -0.027303783 -0.54738545
-0.3316659 0.009174888 -0.38943976 -0.18952839 0.111737385 -0.29421934 -0.28093216 0.12532118
0.09864995 -0.25905263 -0.14432666 0.1898634 -0.06626734 0.06635782 -0.27516532 -0.178335
-0.48563582 0.035275698 -0.19192769 -0.19844018 -0.07937891 -0.13261673 -0.38864368 -0.13205455
-0.23107712 -0.044556875 -0.12752786 -0.036427613 -0.13079666 -0.041732725 -0.025337981 -0.38422275
0.01234488 -0.45341614 -0.43010044 -0.07166705 -0.12816435 -0.04151779 -0.20522892 -0.20679131
0.048032112 -0.40918085 -0.17477745 -0.36526188 -0.060639832 -0.019846339 0.13888347 -0.5018394
0.017209608 -0.16454153 -0.21131273 0.07767754 -0.18793559 -0.06214659 -0.35480905 -0.07049102
-0.005439574 -0.11248129 -0.045318794 -0.40907973 -0.15349744 0.11299423 0.077091664 -0.25434354
-0.17673387 -0.17723797 -0.22776306 -0.13069576 -0.09046393 0.33759865 0.23886096 -0.10031062
0.04127175 -0.03389161 -0.17753267 -0.24360299 0.1371541 -0.3016323 0.10321555 -0.27516356
00000000: 4d1a c3be d7ba 93be b93f 9fbe f45c 86be
00000010: aa4d 03be 2288 b7bd c406 d9be 5b9d 243e
00000020: d988 1fbe bd2e 50be 7998 d7bd 7708 413d
00000030: 52f2 5fbd 4fa0 1dbe 216b 26be d5b0 bbbd
00000040: 32c0 3abe 5819 a2be a3b5 d7be df72 48be
00000050: 1b5f 673c d640 73be bc8d 8ebe cad6 3cbe
00000060: 6b8c 74ba 0632 29be b3cf 1cbe 521b a2be
00000070: a400 d7be 331b 93be 6c46 68be dd12 4fbe
00000080: 229e ac3d 9959 a3be 1c13 643e bc1f 373d
00000090: 1a13 4f3e 7c71 ca3d b2ae 9ebe 841f 693e
000000a0: db04 603c a460 713d d26b 3b3d e083 d0be
000000b0: 2648 29be 5bae 50be 2fcc f1bd 69e9 113e
000000c0: cdaa 183e 9f2f 61be fa6f 6c3c 8041 8bbe
000000d0: 38cf f53c b724 6bbe c223 acbe 57d6 8a3d
000000e0: ae08 a6be 894f c8be ae15 3bbe 8324 cbbd
000000f0: a3a5 48bd 376e d2be 019b 8dbe 1622 c5bd
00000100: 2250 eabd 501d ab3b 86d6 5cbe 11e1 073c
00000110: 07bd cf3d 4912 15be 168e 313e ba36 4b3e
00000120: 7e0f b63c eabf 7e3d 32db 9f3c a62a 5f3d
00000130: d04f b7bd 68a6 df3d 10fb 513e 2e80 b9bc
00000140: 3ffb 0fbd 89de 0d3e 8bd3 87be 4c75 58be
00000150: 1cf6 8dbe 50a6 d8bd 7fa2 573e dfd9 5fbd
00000160: 9e38 ba3b 91b4 98be 1e78 90bd 575c 493e
00000170: 2229 ddbd 7478 353e b7f6 cbbe 84d0 1f3e
00000180: 6bfe bd3d 38e0 efbe 7059 17be 613a f0be
00000190: a902 b2be 6f9d a5be f788 a0bd aa31 8abe
000001a0: 22f7 abbe 0008 25bd 4976 293d bd5b c4be
000001b0: c3a0 8abe 20d4 9c3d 8843 8ebe ac1d 8a3d
000001c0: e924 47be cbbd 74be 9344 30be 1ce6 b1be
000001d0: 60c1 fcbe 2fd3 84be 624b dcbe bc01 25be
000001e0: f202 9cbe 607b 2ebe 2ad3 eebe 65e4 94be
000001f0: 9759 29bf 167a b9be a260 89be d592 14bf
00000200: 4b1a 623e 0d2c 2c3e b6a1 673e 03e5 0fbe
00000210: e0d0 603d de86 d3be 6110 82bd 8f57 a9be
00000220: 6ea8 3bbe e0cc 193e 202f ff3c ee6f f7b9
00000230: cccf 16bd d0b4 b33d c928 43be eaf9 d5be
00000240: 602c 7eb9 c835 b7be d633 adbd 8b9a d5be
00000250: 60a1 bbbd 43cf b7be 2fd8 e6be 2b4b 86be
00000260: f5c9 01bf 1a3d 2abe 617c a9be e1ad ebbe
00000270: 8590 1cbf eb13 dbbe 6d0b eabe 8f2f 73be
00000280: 164c c4be 13a1 2ebe 881d 47be 7f02 dfbe
00000290: 22f9 74be ec64 27bd 9b0f bcbe 4354 2dbe
000002a0: 7ee0 dcbe 386a a5be 3018 67be adc6 7abd
000002b0: 93a0 6ebe 9c6a 66be 2fac dfbc 7421 0cbf
000002c0: 1dd0 a9be 4552 163c a664 c7be bb13 42be
000002d0: 92d6 e43d eba3 96be 57d6 8fbe 3254 003e
000002e0: fc08 ca3d 8ca2 84be 5eca 13be 8d6b 423e
000002f0: 2cb7 87bd 9ce6 873d 78e2 8cbe 739d 36be
00000300: 42a5 f8be 407d 103d b188 44be e733 4bbe
00000310: 6991 a2bd aecc 07be 4efc c6be 4f39 07be
00000320: 7b9f 6cbe 4581 36bd aa96 02be 1f35 15bd
00000330: 8fef 05be efef 2abd 9991 cfbc d8b8 c4be
00000340: 2e42 4a3c 2926 e8be 2036 dcbe 2dc6 92bd
00000350: 843d 03be 8f0e 2abd 8827 52be 1ac1 53be
00000360: 52bd 443d 2780 d1be dcf8 32be 9b03 bbbe
00000370: 7961 78bd ca94 a2bc 7837 0e3e 8c78 00bf
00000380: 2afb 8c3c 937d 28be 5d62 58be 6715 9f3d
00000390: 3072 40be 6c8d 7ebd 88a9 b5be 995d 90bd
000003a0: 743e b2bb 975c e6bd 33a0 39bd e672 d1be
000003b0: 6f2e 1dbe 8569 e73d 3ce2 9d3d 5139 82be
000003c0: b9f9 34be df7d 35be b83a 69be 1cd5 05be
000003d0: 2745 b9bd bbd9 ac3e f897 743e a86f cdbd
000003e0: 910c 293d eed1 0abd 20cb 35be 1073 79be
000003f0: 2072 0c3e 8c6f 9abe ad62 d33d 3de2 8cbe

layers.2.bias f4 [16]
-0.26969853 -0.36229226 -0.2566878 -0.47546867 -0.42315462 -0.6172499 -0.3641575 -0.28874853
-0.27352056 -0.26614326 -0.30198845 -0.2513289 -0.28546688 -0.29358608 -0.33668694 -0.3301717
00000000: ed15 8abe 5f7e b9be 956c 83be a170 f3be
00000010: b9a7 d8be 1704 1ebf da72 babe d9d6 93be
00000020: e30a 8cbe ee43 88be 3b9e 9abe 2eae 80be
00000030: b728 92be ea50 96be 3b62 acbe 440c a9be
