src/features/VGAE_DP.pth (torch, 7895 bytes, 6 tensors)

layers.0.weight f4 [13, 32]
-1.6487441 -0.975388 0.13807319 -2.5004392 -0.40048137 -0.57041925 1.0176071 1.1768694
-0.6031174 -0.037944682 -0.025260396 0.26210856 -0.21494073 -0.06443529 0.48967114 -0.85885805
0.16249119 -0.17526396 -0.20784578 -0.50843334 0.724643 0.6458393 0.046557672 -0.073975585
0.11911363 -0.11010363 0.08325406 0.2737975 -0.64113826 0.027050799 -0.23142207 -0.4305676
0.6202054 -0.648571 0.26249364 0.3546084 0.07212884 -1.1156914 -0.72440434 0.38504016
0.545099 0.021971963 -0.23299755 -0.55335253 -0.76651895 0.24836718 0.3511374 0.018237544
0.07680101 -0.2776914 -0.13346289 0.5130578 -0.42537832 -0.46944004 -0.06786115 0.103172444
0.00036373222 0.08687786 -0.045416784 0.07183494 0.24023812 -0.39877614 0.13872841 -1.8868779
-1.1500363 0.33794004 0.069120035 1.5434145 -0.046343997 -0.90429175 0.1418292 0.19338758
0.41092074 -1.7514639 -0.005983265 -0.2571423 -0.50328255 -0.9760505 0.49085712 -1.0176666
-0.11335122 0.08703756 0.22402897 -0.4270976 -0.71756685 -0.9913752 -0.11000631 0.39528322
-0.33107084 0.13564286 -0.06715954 0.30356804 -0.27613708 0.045108 -0.3121754 0.13223258
0.5758996 -0.13691345 -0.47621968 -0.03389316 -0.037575923 0.5214761 -0.53895986 -0.55675244
0.03145085 0.44738078 -0.24862377 -0.22117272 -0.47805536 0.20619692 -0.004573516 -0.07357844
0.26034448 0.0007758188 -0.13502733 -0.70058405 0.22202832 0.13588226 -0.40934086 -0.22900987
0.43081248 0.1394604 0.16116098 0.15958616 -0.49684986 0.068448305 -0.26557362 -0.7220755
-0.0020308513 0.13801408 -0.13630441 -0.098167725 -0.25960156 0.2577234 -0.08207926 0.3388377
0.076625444 0.15039313 -0.2636661 0.43827546 0.3692752 0.06278385 0.091822244 0.27436343
-0.11637293 -0.082042605 0.33808878 -0.43094033 0.16468456 0.24309874 -0.008635781 0.24160591
-0.51068366 0.16422378 -0.37720487 -0.09792013 -0.093031965 0.058661193 0.17033641 -0.2336291
-0.08224111 0.20920034 0.19939956 -0.38677463 0.1398724 0.0010823372 0.25444683 0.06834808
-0.3008444 0.075700104 -0.26226664 -0.3525805 0.21128362 -0.08951607 0.43841764 -0.010978373
-0.053566575 -0.28791943 -0.2579694 0.10066563 0.2567595 -0.37191942 0.061242357 0.37330714
0.08513273 0.18063429 0.08883068 -0.402992 -0.06390693 -0.02720062 -0.36760718 0.43120438
0.65668535 -0.87692124 -0.46274784 1.2589527 0.25565782 1.5293163 0.8205355 0.5336523
-0.5918698 0.803927 -0.26417816 -0.39242 0.10048356 1.172419 0.7151416 -0.4335027
-0.78112125 0.29284936 -0.11310704 -1.4565696 -0.07344367 0.21021952 0.4220864 -0.68235075
0.19225332 0.09734563 -0.40534937 0.62817013 -1.0200416 0.5432113 0.14345333 -0.45451432
-0.46272925 -1.4868941 1.0423869 0.8741898 0.13400462 -2.8569648 -1.7087874 -1.5280974
-0.14892508 -0.17631957 0.07454409 0.19840117 -1.4629796 0.86969846 0.18014908 0.35482776
0.48223877 -0.024325266 -0.25270104 -0.5779345 -0.6409334 -0.12917867 -0.055248275 -0.2833327
-0.0450096 -0.7538399 -0.16623239 0.49661547 0.11256799 0.2076266 0.14451745 0.5581727
00000000: 0c0a d3bf 07b3 79bf 0f63 0d3e 3207 20c0
00000010: e50b cdbe ff06 12bf f340 823f a8a3 963f
00000020: e765 1abf e26b 1bbd e4ee cebc 1833 863e
00000030: 6c19 5cbe a6f6 83bd 2db6 fa3e 1fde 5bbf
00000040: 1764 263e 6578 33be 86d5 54be b028 02bf
00000050: 3482 393f b955 253f 42b3 3e3d 8380 97bd
00000060: d9f1 f33d 037e e1bd 1b81 aa3d 302f 8c3e
00000070: a321 24bf a399 dd3c e8f9 6cbe 5b73 dcbe
00000080: c8c5 1e3f c008 26bf 9165 863e 3b8f b53e
00000090: 49b8 933d face 8ebf 9072 39bf fc23 c53e
000000a0: 9c8b 0b3f 8cfe b33c e996 6ebe 83a8 0dbf
000000b0: 963a 44bf f753 7e3e 48c8 b33e e766 953c
000000c0: d949 9d3d 912d 8ebe 7faa 08be c257 033f
000000d0: 30cb d9be 725a f0be c9fa 8abd 134c d33d
000000e0: 50b3 be39 05ed b13d f306 3abd 321e 933d
000000f0: fb00 763e 632c ccbe d20e 0e3e 3785 f1bf
00000100: 6434 93bf 7a06 ad3e ce8e 8d3d 9b8e c53f
00000110: 34d3 3dbd aa7f 67bf ac3b 113e 6507 463e
00000120: 3464 d23e f82f e0bf 440f c4bb 28a8 83be
00000130: 20d7 00bf 72de 79bf a051 fb3e e642 82bf
00000140: af24 e8bd c040 b23d da67 653e 89ac dabe
00000150: 76b2 37bf c4ca 7dbf fd4a e1bd 9062 ca3e
00000160: 1e82 a9be f6e5 0a3e f18a 89bd 456d 9b3e
00000170: d761 8dbe 2bc3 383d 74d5 9fbe fa67 073e
00000180: 286e 133f 0a33 0cbe 11d3 f3be 8ed3 0abd
00000190: 36e9 19bd 757f 053f 46f9 09bf 5487 0ebf
000001a0: 9bd2 003d 180f e53e 3b97 7ebe 1a7b 62be
000001b0: acc3 f4be 4925 533e 6fdd 95bb 4bb0 96bd
000001c0: df4b 853e 5160 4b3a 9b44 0abe 7a59 33bf
000001d0: 645b 633e b824 0b3e 2095 d1be 9081 6abe
000001e0: 7493 dc3e b5ce 0e3e 6207 253e 8e6a 233e
000001f0: 1b63 febe a02e 8c3d 44f9 87be f1d9 38bf
00000200: 0818 05bb 9053 0d3e 6293 0bbe 290c c9bd
00000210: 7fea 84be 52f4 833e 2c19 a8bd 237c ad3e
00000220: cded 9c3d a800 1a3e 3eff 86be a465 e03e
00000230: a411 bd3e d294 803d 4d0d bc3d 5d79 8c3e
00000240: ee54 eebd f405 a8bd f919 ad3e 36a4 dcbe
00000250: 12a3 283e e0ee 783e 177d 0dbc 8a67 773e
00000260: 2abc 02bf 472a 283e ff20 c1be 598a c8bd
00000270: 8b87 bebd b846 703d ab6c 2e3e 773c 6fbe
00000280: 076e a8bd 9d38 563e 662f 4c3e 5307 c6be
00000290: b63a 0f3e 36dd 8d3a db46 823e 14fa 8b3d
000002a0: 4708 9abe a808 9b3d d047 86be 6e85 b4be
000002b0: bc5a 583e 3454 b7bd 4778 e03e a2de 33bc
000002c0: a068 5bbd 2d6a 93be 9114 84be c829 ce3d
000002d0: fb75 833e 396c bebe 44d9 7a3d 1d22 bf3e
000002e0: 125a ae3d 32f8 383e dcec b53d f854 cebe
000002f0: a3e1 82bd d6d3 debc 0237 bcbe d2c6 dc3e
00000300: 881c 283f e97d 60bf 49ed ecbe 5d25 a13f
00000310: 95e5 823e a3c0 c33f 9d0e 523f 709d 083f
00000320: c784 17bf 29ce 4d3f 5c42 87be 46eb c8be
00000330: 53ca cd3d d311 963f 8513 373f 11f4 ddbe
00000340: 90f7 47bf 5af0 953e aaa4 e7bd df70 babf
00000350: a369 96bd c943 573e b51b d83e 8aae 2ebf
00000360: 0ede 443e 255d c73d f489 cfbe c2cf 203f
00000370: b990 82bf e50f 0b3f 6ee5 123e 1ab6 e8be
00000380: d9ea ecbe 8c52 bebf ef6c 853f e7ca 5f3f
00000390: 8238 093e 83d8 36c0 8cb9 dabf b298 c3bf
000003a0: d17f 18be 1e8d 34be 92aa 983d ad29 4b3e
000003b0: ea42 bbbf 8fa4 5e3f 0079 383e fcab b53e
000003c0: 00e8 f63e c845 c7bc 0862 81be 84f3 13bf
000003d0: 3614 24bf 6a47 04be 044c 62bd fc10 91be
000003e0: fd5b 38bd a7fb 40bf d338 2abe 6244 fe3e
000003f0: 0c8a e63d 119c 543e 62fc 133e 68e4 0e3f

layers.0.bias f4 [32]
0.057869725 -0.07659385 0.003785718 -0.04306239 -0.083047196 -0.20231934 -0.05965007 0.15448059
0.24598606 0.102080174 -0.096446425 0.013193443 0.0060431743 -0.3789461 -0.11458321 -0.06466818
-0.13712339 0.0 0.0 -0.1329699 -0.2058707 -0.15474875 -0.0059163035 0.010260952
0.050540563 0.098439895 -0.11310784 -0.039887793 0.1509868 -0.1393568 -0.09747073 0.20695212
00000000: ce08 6d3d 3ddd 9cbd cf19 783b 3062 30bd
00000010: a614 aabd cd2c 4fbe a253 74bd 2930 1e3e
00000020: c5e3 7b3e 690f d13d b485 c5bd 5029 583c
00000030: d205 c63b 3905 c2be 9aaa eabd c070 84bd
00000040: 136a 0cbe 0000 0000 0000 0000 4329 08be
00000050: c5cf 52be 7576 1ebe 8ddd c1bb 8d1d 283c
00000060: 9f03 4f3d db9a c93d 15a5 e7bd 6261 23bd
00000070: 499c 1a3e 8db3 0ebe bc9e c7bd 42eb 533e

layers.1.weight f4 [32, 16]
-0.4583028 -0.1245259 -0.025204588 0.7177958 0.3488324 0.2554696 0.17480077 0.12623638
-1.0835934 -0.20555587 0.2098135 -0.37501013 -0.0380349 -0.18702051 0.4261505 0.5747735
-0.7815001 -0.35145366 0.061807685 -1.7606909 -0.2830145 0.36000237 -1.0685571 0.27829903
-0.35837984 -0.6572111 0.28411445 0.18264261 -0.30937853 0.06503587 0.07497185 0.5161737
0.117518514 0.2855523 -0.28439534 -0.38139376 -0.3018319 -0.011383566 0.58015585 -0.10622537
0.4946006 0.60817295 0.19337092 0.23320529 -0.22370222 -0.053155318 -0.5286808 -0.6134319
0.39891824 0.15396479 -0.0030492814 -1.3050909 -0.47161138 -0.15338963 -1.1462356 -0.5345999
0.3761357 0.44602925 0.16998662 -0.81660014 0.48611042 0.33711594 0.46730933 0.7727601
-0.076772444 -0.24278747 -0.1902236 -0.3214103 0.18026243 -0.36840838 0.24653408 0.31991202
-0.37829885 0.018502627 0.06253306 0.3198758 0.45613876 0.1320711 0.20711142 0.3100959
0.5684223 0.4449584 0.0036528853 1.0510776 -1.5354728 -0.41057068 -0.73584217 -0.47078064
0.84000534 0.9252226 -0.047848333 0.26363432 -0.10402155 0.20379375 -0.67025334 -1.2642382
1.2741743 0.7534808 -0.036367934 -0.67094845 -0.3117649 -0.5398741 1.9784803 -0.28203103
-1.4665025 1.5909531 0.07886225 1.084727 0.15127812 0.087610066 0.065206714 0.29889897
0.2926525 0.19325474 -0.35036632 -0.006257771 0.36692095 -0.09437989 0.2551992 -0.3656971
-1.0498095 1.0183899 0.06761136 0.45144638 -0.09943862 -0.31542557 -0.7136405 1.2878948
0.09444757 0.04510009 0.4141071 0.576041 0.3772659 0.15407316 0.41275588 -0.12975857
0.69925684 -0.085275955 0.25826874 -0.45466837 0.14182945 0.09050467 0.24894899 0.92193574
0.25155097 -0.016596306 -0.50460005 -0.11467858 0.6195332 0.059410423 -0.531974 0.38672155
0.028430302 0.6831284 0.1777527 0.61927176 -0.12894574 -0.35273802 0.6673687 0.67554975
-0.14447197 0.14675882 0.3197922 -0.3549752 0.31877896 0.13824894 -0.28549144 0.05751834
-0.25169638 -0.15032764 -0.089567624 -0.13545102 -0.2505426 0.0036151165 -0.2486608 -0.071095094
-0.32486323 -0.047518935 0.34138644 -0.3533853 0.06330146 -0.28841564 -0.45776752 0.21326564
0.91295904 -0.97091085 -0.8305785 -0.93664485 -0.30087227 0.083783016 1.5484449 1.0240406
0.2893107 -0.04209645 0.16515101 -0.98851436 -1.3634049 0.04304879 0.21764575 0.3309355
0.08960651 -0.37347752 -0.07203325 -0.6614584 0.20799655 0.018919628 -0.22327614 0.6630656
-0.10318544 -0.29845145 0.12496186 -0.25677738 0.95654786 0.21581818 -0.8988304 0.53787506
-0.4060828 -0.32173872 -0.17679577 0.15773785 -0.18957897 -0.099244654 0.08457726 -0.6234047
-0.050156407 0.02435329 -0.1121635 0.058717586 0.32642165 -0.061319295 -0.67702585 0.06977267
0.28628933 -0.13486247 -0.33241165 0.40827292 -0.19519481 0.08623113 -0.13749188 0.043724302
-0.22495104 -0.16428193 0.20696786 0.26701325 0.14748855 -0.10270532 0.7502635 -0.02230161
-0.5937724 -0.49266186 -0.2716612 0.4447912 -0.0377589 -0.20036642 0.58637553 -0.7451637
00000000: aaa6 eabe 6f07 ffbd da79 cebc 77c1 373f
00000010: 299a b23e e9cc 823e f9fe 323e 1c44 013e
00000020: 30b3 8abf 3d7d 52be 5ad9 563e 5401 c0be
00000030: 7cca 1bbd 4e82 3fbe 6630 da3e 5b24 133f
00000040: 6410 48bf bcf1 b3be 0e2a 7d3d 525e e1bf
00000050: 47e7 90be 3b52 b83e 7bc6 88bf 367d 8e3e
00000060: 907d b7be fd3e 28bf 7377 913e aa06 3b3e
00000070: dd66 9ebe 8731 853d d78a 993d f623 043f
00000080: 8cad f03d e933 923e 449c 91be 0b46 c3be
00000090: b689 9abe 2382 3abc 1885 143f b08c d9bd
000000a0: 4a3c fd3e 39b1 1b3f 0703 463e 5ecd 6e3e
000000b0: 3212 65be 64b9 59bd a057 07bf df09 1dbf
000000c0: 033f cc3e f2a8 1d3e 74d6 47bb 380d a7bf
000000d0: 0c77 f1be 2c12 1dbe d9b7 92bf 8adb 08bf
000000e0: dc94 c03e f25d e43e f910 2e3e b50c 51bf
000000f0: 77e3 f83e 769a ac3e 2b43 ef3e 9bd3 453f
00000100: df3a 9dbd 479d 78be fac9 42be e48f a4be
00000110: b796 383e 06a0 bcbe 6e73 7c3e 82cb a33e
00000120: 63b0 c1be d292 973c 5511 803d c3c6 a33e
00000130: 058b e93e a53d 073e 0415 543e e4c4 9e3e
00000140: 2084 113f 96d1 e33e 3f65 6f3b b689 863f
00000150: 5f8a c4bf 5236 d2be 2760 3cbf 290a f1be
00000160: 970a 573f 63db 6c3f 9dfc 43bd 14fb 863e
00000170: 4009 d5bd 4faf 503e b995 2bbf 8fd2 a1bf
00000180: 2518 a33f 1ee4 403f 8bf6 14bd 47c3 2bbf
00000190: a69f 9fbe 3035 0abf d83e fd3f 5f66 90be
000001a0: 5bb6 bbbf 5aa4 cb3f 8882 a13d 56d8 8a3f
000001b0: a7e8 1a3e e86c b33d 198b 853d 4909 993e
000001c0: 8cd6 953e 92e4 453e 3763 b3be fd0d cdbb
000001d0: 10dd bb3e 3e4a c1bd 78a9 823e a63c bbbe
000001e0: 2860 86bf 9a5a 823f d377 8a3d fb23 e73e
000001f0: 7aa6 cbbd 767f a1be 25b1 36bf bdd9 a43f
00000200: ba6d c13d dfba 383d d905 d43e 6c77 133f
00000210: ff28 c13e 5bc5 1d3e bd54 d33e 6edf 04be
00000220: 7f02 333f 29a5 aebd cd3b 843e 4bca e8be
00000230: bd3b 113e 835a b93d 7cec 7e3e fb03 6c3f
00000240: 4acb 803e faf4 87bc 782d 01bf 9adc eabd
00000250: ba99 1e3f 5858 733d 732f 08bf 5e00 c63e
00000260: aae6 e83c 81e1 2e3f ce04 363e 9888 1e3f
00000270: 5a0a 04be 149a b4be add8 2a3f d4f0 2c3f
00000280: 76f0 13be f247 163e cebb a33e 4fbf b5be
00000290: ff36 a33e 2191 0d3e ef2b 92be 5a98 6b3d
000002a0: 59de 80be 7def 19be 3b6f b7bd acb3 0abe
000002b0: 1f47 80be 97eb 6c3b f0a0 7ebe 4e9a 91bd
000002c0: 7954 a6be 37a3 42bd 34ca ae3e ebee b4be
000002d0: 32a4 813d 37ab 93be 8160 eabe 4f62 5a3e
000002e0: afb7 693f 9d8d 78bf cba0 54bf f5c7 6fbf
000002f0: ee0b 9abe 6e96 ab3d 7133 c63f c313 833f
00000300: 8820 943e 546d 2cbd 591d 293e 470f 7dbf
00000310: 0d84 aebf ee53 303d 87de 5e3e 6170 a93e
00000320: 9e83 b73d 7238 bfbe 2b86 93bd 5655 29bf
00000330: 0cfd 543e 56fd 9a3c 80a2 64be abbe 293f
00000340: e352 d3bd a1ce 98be 01ec ff3d 5378 83be
00000350: 52e0 743f 71ff 5c3e c019 66bf 2eb2 093f
00000360: 16ea cfbe f0ba a4be f309 35be 0886 213e
00000370: fd20 42be c840 cbbd d836 ad3d 7397 1fbf
00000380: ce70 4dbd 8d80 c73c fab5 e5bd da81 703d
00000390: bd20 a73e f129 7bbd 9151 2dbf f9e4 8e3d
000003a0: 8494 923e 6319 0abe dc31 aabe 2609 d13e
000003b0: 26e1 47be f299 b03d acca 0cbe 4118 333d
000003c0: 9159 66be 8639 28be 62ef 533e f6b5 883e
000003d0: 3d07 173e 2b57 d2bd 4511 403f deb1 b6bc
000003e0: 7801 18bf 2d3e fcbe 2d17 8bbe acbb e33e
000003f0: 14a9 1abd db2c 4dbe b51c 163f 0cc3 3ebf

layers.1.bias f4 [16]
-0.0097405575 0.021293245 -0.0901023 -0.13773632 -0.11164836 -0.08311578 -0.05193409 0.0081333
0.17930004 0.0056843646 0.02673721 0.03755211 0.06681508 0.08895922 -0.12017053 -0.105322644
00000000: dc96 1fbc 2c6f ae3c 8e87 b8bd c00a 0dbe
00000010: e5a7 e4bd 9b38 aabd d7b8 54bd 8841 053c
00000020: 6e9a 373e e843 ba3b fe07 db3c 3ed0 193d
00000030: 58d6 883d 4030 b63d f81b f6bd 66b3 d7bd

layers.2.weight f4 [32, 16]
-0.43636563 -0.30275133 -0.07957774 -0.533391 -0.5403217 -0.16233578 -0.25201565 -0.23949143
-0.45140532 -0.4544891 -0.45197603 -0.40519512 -0.5080862 -0.26516354 -0.366494 -0.35417056
0.07089133 -0.03245657 -0.30739653 -0.24723917 -0.40124568 -0.2951421 -0.12912059 -0.0043550003
-0.21542895 -0.12620269 -0.4370512 -0.055160888 -0.40002152 0.069651835 -0.2082734 -0.3227112
-0.18361473 -0.013203691 -0.027825989 -0.38871682 -0.3931259 -0.38195753 -0.19215661 -0.2217936
-0.1892102 -0.055297688 -0.210391 -0.27783138 -0.12414036 -0.053272437 -0.36157724 -0.27105528
-0.012084241 -0.1282226 0.028516257 -0.24885301 -0.040263347 0.030942904 -0.13865536 -0.21218309
0.0622276 -0.2052375 -0.178727 -0.25542262 0.0061243465 -0.24637169 -0.19002125 -0.2615632
-0.015237258 0.23300144 0.034459505 -0.24896203 0.22674571 0.039439313 0.1920117 -0.36112508
-0.38466355 0.018967787 -0.13320768 -0.03859043 -0.3025613 -0.29028934 -0.085947074 0.19644363
-0.05612571 -0.49721768 -0.33671528 -0.40050015 -0.40296674 -0.13316259 -0.6037207 -0.3600071
-0.4181596 -0.34441957 -0.39707273 -0.4344861 -0.33165273 -0.3740311 -0.12060102 -0.45834276
0.08443021 -0.07541439 0.1620605 -0.20622766 -0.16966937 0.15833539 -0.14362068 0.049901064
-0.25055012 -0.19093527 0.18665119 -0.25824222 -0.15460841 -0.017605165 -0.13041747 -0.13445927
-0.3756648 -0.18834704 -0.15638311 -0.22585467 -0.060340114 -0.38446635 0.06782783 -0.26748264
-0.07857847 -0.13007204 -0.08773398 -0.05589148 -0.14029026 -0.028475385 -0.049239896 -0.042804427
-0.34571373 -0.43265763 -0.51615304 -0.32320297 -0.27939227 -0.29209495 -0.39733702 -0.3280098
-0.8130869 -0.37482914 -0.030792631 -0.3145306 -0.32490388 -0.32916483 -0.346003 -0.4723535
-0.15064384 -0.06735932 0.14967899 -0.039679114 0.16919912 0.1414933 0.19410414 0.047018856
0.021321518 0.0138390865 0.102108054 0.18942958 0.09688969 0.016549518 0.07943163 0.1977055
-0.15041167 -0.41188544 0.03734066 0.20659587 0.010053194 0.12368146 -0.051745735 0.13433489
-0.0005748562 -0.085342586 -0.26616699 0.0641075 -0.24323179 0.1916876 -0.21635932 0.09303752
0.16425756 0.16321339 -0.3065317 0.07224445 0.13285656 0.28319135 0.30166882 0.09959321
0.025932135 0.05448746 0.051127784 0.016754417 -0.26761538 -0.0990139 0.24350105 0.39537886
-0.59332216 -0.18364142 -0.09960731 -0.36663774 -0.3780821 0.02607546 0.0707597 -0.19601531
-0.06096557 -0.019463545 0.041700944 -0.15348557 0.037304755 -0.3130209 -0.16985284 0.09633998
-0.09262593 -0.2553106 -0.3220789 -0.14785482 -0.44579783 -0.1778696 -0.20135266 -0.33685112
-0.40700907 -0.19435646 -0.1623237 -0.30710617 -0.16935256 -0.2406224 -0.32349375 -0.35522434
-0.3114968 -0.21286039 -0.31904024 -0.42611706 -0.2921647 -0.044080373 -0.24900027 -0.05164516
-0.046988208 -0.28558573 -0.40927643 -0.03820564 -0.30721337 -0.1934699 -0.1684394 -0.32280594
-0.08254453 -0.19049287 0.030861812 -0.19188881 0.060613092 -0.21770817 -0.22274877 -0.022378415
0.18090829 -0.24301296 0.05755592 0.1824475 -0.21330182 0.10891777 0.28696352 -0.26718348
00000000: 516b dfbe 3902 9bbe a7f9 a2bd 508c 08bf
00000010: 8652 0abf 5a3b 26be 3208 81be 3e3d 75be
00000020: 991e e7be ccb2 e8be 6769 e7be bc75 cfbe
00000030: f011 02bf 84c3 87be 1aa5 bbbe d855 b5be
00000040: 792f 913d 2ef1 04bd 1463 9dbe 442c 7dbe
00000050: 1370 cdbe de1c 97be 3038 04be 64b4 8ebb
00000060: 6899 5cbe 473b 01be 2dc5 dfbe 62f0 61bd
00000070: 9fcf ccbe 9fa5 8e3d 9f45 55be 673a a5be
00000080: 8005 3cbe 4b54 58bc 54f3 e3bc e405 c7be
00000090: cc47 c9be f08f c3be b4c4 44be dd1d 63be
000000a0: 52c0 41be d47f 62bd bd70 57be ea3f 8ebe
000000b0: 4d3d febd 3334 5abd a720 b9be c2c7 8abe
000000c0: fbfc 45bc c94c 03be ed9a e93c 53d3 7ebe
000000d0: 2eeb 24bd f97b fd3c acfb 0dbe 8646 59be
000000e0: 5ee2 7e3d c729 52be 3604 37be c1c6 82be
000000f0: beae c83b dc48 7cbe ee94 42be 9deb 85be
00000100: b1a5 79bc ee97 6e3e 6925 0d3d e7ef 7ebe
00000110: 0730 683e 1e8b 213d b79e 443e 63e5 b8be
00000120: 9ff2 c4be 5562 9b3c 9867 08be 0011 1ebd
00000130: 51e9 9abe cea0 94be 0505 b0bd 8528 493e
00000140: 13e4 65bd 5193 febe f265 acbe 5b0e cdbe
00000150: a851 cebe c65b 08be 718d 1abf da52 b8be
00000160: 0419 d6be c357 b0be 1e4d cbbe f674 debe
00000170: 63ce a9be 0181 bfbe abfd f6bd e7ab eabe
00000180: bfe9 ac3d dc72 9abd 30f3 253e 582d 53be
00000190: cfbd 2dbe ac22 223e 4d11 13be 0f65 4c3d
000001a0: 1b48 80be 8984 43be 7d21 3f3e 5338 84be
000001b0: ab51 1ebe b538 90bc 288c 05be b1af 09be
000001c0: 2357 c0be 0cde 40be e522 20be 7246 67be
000001d0: 3227 77bd c6d8 c4be 51e9 8a3d 7cf3 88be
000001e0: c0ed a0bd 9b31 05be dfad b3bd 77ee 64bd
000001f0: 40a8 0fbe 3645 e9bc c6af 49bd b253 2fbd
00000200: 6401 b1be 4d85 ddbe 9b22 04bf dc7a a5be
00000210: 810c 8fbe 788d 95be c26f cbbe e7f0 a7be
00000220: 7726 50bf 9be9 bfbe d440 fcbc 280a a1be
00000230: cd59 a6be 4b88 a8be 4e27 b1be 51d8 f1be
00000240: 6142 1abe aff3 89bd 7345 193e 9186 22bd
00000250: 8942 2d3e 9fe3 103e 3cc3 463e d896 403d
00000260: 77aa ae3c 56bd 623c 071e d13d d4f9 413e
00000270: 1a6e c63d db92 873c 0dad a23d 5073 4a3e
00000280: 8405 1abe a6e2 d2be 85f2 183d de8d 533e
00000290: 27b6 243c b54c fd3d 56f3 53bd 168f 093e
000002a0: f2b1 16ba 18c8 aebd 0a47 88be cb4a 833d
000002b0: c111 79be c149 443e 4c8d 5dbe 758a be3d
000002c0: 2233 283e 6921 273e b9f1 9cbe e6f4 933d
000002d0: 8d0b 083e 75fe 903e 5674 9a3e 86f7 cb3d
000002e0: a16f d43c 3e2e 5f3d 5e6b 513d 8f40 893c
000002f0: e204 89be cdc7 cabd 5758 793e 196f ca3e
00000300: f6e3 17bf 7f0c 3cbe ebfe cbbd f1b7 bbbe
00000310: fa93 c1be 349c d53c 76ea 903d 3db8 48be
00000320: 09b7 79bd 0372 9fbc 9cce 2a3d 522b 1dbe
00000330: dfcc 183d 4744 a0be e7ed 2dbe e54d c53d
00000340: aab2 bdbd 12b8 82be 87e7 a4be 4167 17be
00000350: 9d3f e4be 7323 36be 642f 4ebe c077 acbe
00000360: 7e63 d0be 6105 47be 2f38 26be 053d 9dbe
00000370: c26a 2dbe b865 76be f9a0 a5be f7df b5be
00000380: 827c 9fbe 13f8 59be 3e59 a3be 042c dabe
00000390: 9d96 95be 9f8d 34bd edf9 7ebe e089 53bd
000003a0: b576 40bd 4b38 92be ae8c d1be 847d 1cbd
000003b0: 124b 9dbe f91c 46be 617b 2cbe d246 a5be
000003c0: 1b0d a9bd 9010 43be e9d1 fc3c 807e 44be
000003d0: 6f45 783d e4ee 5ebe 4118 64be f052 b7bc
000003e0: 0640 393e 64d8 78be c2bf 6b3d 84d3 3a3e
000003f0: cb6b 5abe 4810 df3d e2ec 923e 46cc 88be

layers.2.bias f4 [16]
-0.3410741 -0.32149088 -0.33673412 -0.59893847 -0.70828426 -0.3788339 -0.77867794 -0.40448916
-0.6270168 -0.50835437 -0.38993153 -0.5091276 -0.44257548 -0.45121878 -0.7808772 -0.75447917
00000000: 44a1 aebe 749a a4be 6a68 acbe 0854 19bf
00000010: 1e52 35bf 84f6 c1be 7057 47bf 3419 cfbe
00000020: 2c84 20bf 8323 02bf 1ba5 c7be 3056 02bf
00000030: 4199 e2be 2606 e7be 91e7 47bf 8c25 41bf
