src/features/VGAE_AT.pth (torch, 8407 bytes, 6 tensors)

layers.0.weight f4 [17, 32]
-0.022477683 -0.30036512 -0.07024711 0.09460141 -0.021898268 0.19425745 0.24571432 0.024588814
0.20639321 -0.2704895 0.17751265 0.27506924 0.2574041 -0.20479973 0.15454027 0.14208288
0.29231632 -0.02137621 -0.28957722 -0.16245185 0.0020074297 0.15103245 -0.097988255 -0.27141395
-0.22323067 -0.29630837 -0.33630496 -0.1228712 0.016468033 -0.016527308 0.22961333 -0.16658805
0.24919793 0.17080188 -0.08464943 -0.05870872 0.10454485 -0.19083916 -0.11859176 0.017164413
-0.24173713 0.16411501 0.12668976 -0.0936337 0.268304 -0.1816942 0.32747927 -0.18565404
-0.0018144982 0.020073237 -0.10632848 -0.24770735 -0.2248128 -0.12478158 0.0035957636 -0.0147646405
-0.14921531 0.05881639 -0.3360469 0.19226485 0.09583293 0.17796022 -0.010082625 -0.17550616
-0.050292913 -0.2768952 0.1859644 -0.2682607 0.13447395 0.03645682 0.077803805 -0.051455412
-0.017509395 -0.49960893 0.12286052 -0.21449186 -0.20566604 -0.036813322 -0.31893873 0.13597919
0.15930606 0.30773693 0.104467474 0.44281563 0.17014565 -0.18083337 -0.034976847 -0.14590167
-0.12091169 0.16385263 -0.2318459 -0.33203182 0.162308 0.26119646 -0.02604561 -0.38106406
0.15189339 0.11679534 0.113815404 -0.060493644 0.16042247 0.31777948 0.09506375 -0.033367574
-0.06757955 0.25833932 -0.26190603 -0.046407614 0.23463838 0.12170295 0.26289824 0.2453072
-0.29024985 -0.30597237 0.08552908 -0.438331 0.047090188 0.049221583 -0.11740977 -0.30500853
0.21557955 -0.45053643 0.008955073 -0.030932963 -0.24778987 0.11577253 -0.00034430466 0.418104
-0.11976599 0.16027988 -0.042399168 -0.25686285 -0.16201228 -0.17943631 0.020592142 -0.46404976
-0.0025938114 -0.26360226 -0.19527717 0.029050091 0.2663584 -0.10708056 -0.24213293 -0.3137952
-0.15478484 0.35306826 -0.19557469 -0.09981294 0.1283902 -0.42477247 -0.096828505 0.10277799
0.23562148 0.23455878 -0.25534913 0.25908446 0.36190742 0.09947398 0.040776074 -0.24474385
0.18129422 0.17829816 0.12921594 -0.41897658 -0.25987267 -0.13925917 0.30233532 -0.18741104
-0.20420533 -0.31166855 -0.1878734 -0.4161073 -0.2311186 0.21328834 -0.04592175 0.30629382
0.21194994 0.25800037 -0.25998768 0.015601126 -0.020688497 -0.21950564 0.15618928 -0.05702341
-0.21063553 0.23101981 -0.19413663 0.24518844 0.35945082 -0.29489678 0.43456733 0.038241126
-0.32357848 -0.25568244 -0.11964074 -0.12978446 0.2726262 0.23430902 -0.15867902 0.34222254
0.24649155 0.017159242 0.29493412 0.15817544 -0.22866946 -0.15240857 -0.020426953 0.21333924
0.2172846 -0.13957846 -0.086732626 0.080819376 -0.21719266 0.107858464 -0.0056424364 0.10914765
0.09739178 0.23025115 -0.013438846 -0.26546738 -0.023510493 0.1962203 -0.11055577 0.045082387
0.23629512 -0.1132582 -0.0396115 0.14033486 0.11263511 0.17213865 0.27624732 -0.042130027
0.18310201 0.24942867 -0.27426806 0.083719894 0.037632793 0.39567018 0.075978205 0.3433811
-0.024323544 -0.004324043 0.024649736 0.14795858 0.2707706 0.114101864 0.24464364 -0.3037156
-0.11969189 -0.17509204 -0.41746855 -0.3946711 0.058431737 -0.21998453 0.22814415 0.34481725
00000000: 1e23 b8bc 75c9 99be b8dd 8fbd 62be c13d
00000010: ff63 b3bc 6deb 463e 899c 7b3e 7b6e c93c
00000020: be58 533e 9a7d 8abe e0c5 353e e0d5 8c3e
00000030: 78ca 833e 05b7 51be ce3f 1e3e 2d7e 113e
00000040: 7caa 953e 291d afbc 7743 94be c759 26be
00000050: 158f 033b 40a8 1a3e 11ae c8bd c5f6 8abe
00000060: 9596 64be bbb5 97be 2a30 acbe e5a3 fbbd
00000070: f8e7 863c 4764 87bc c21f 6b3e 0f96 2abe
00000080: be2d 7f3e b0e6 2e3e ae5c adbd 8e78 70bd
00000090: 9c1b d63d 576b 43be 3de0 f2bd 629c 8c3c
000000a0: f089 77be c40d 283e f6ba 013e 06c3 bfbd
000000b0: 245f 893e 0b0e 3abe 5dab a73e 181c 3ebe
000000c0: 75d4 edba a170 a43c bfc2 d9bd ffa6 7dbe
000000d0: 5435 66be 7c8d ffbd e7a6 6b3b 64e7 71bc
000000e0: e6cb 18be 74e9 703d 570e acbe 14e1 443e
000000f0: 0e44 c43d 343b 363e 9831 25bc e3b7 33be
00000100: f1ff 4dbd 35c5 8dbe 746d 3e3e 7759 89be
00000110: 8ab3 093e bf53 153d 9a57 9f3d e9c2 52bd
00000120: dd6f 8fbc becc ffbe 4c9e fb3d c1a3 5bbe
00000130: 1e9a 52be 91c9 16bd f04b a3be 213e 0b3e
00000140: 2121 233e b28f 9d3e 0bf3 d53d bbb8 e23e
00000150: a93a 2e3e 622c 39be e243 0fbd 3f67 15be
00000160: 8ca0 f7bd fcc8 273e 0369 6dbe 1300 aabe
00000170: 1134 263e 8bbb 853e 9a5d d5bc d41a c3be
00000180: f189 1b3e 6532 ef3d 0d18 e93d 2fc8 77bd
00000190: ca45 243e feb3 a23e c9b0 c23d 70ac 08bd
000001a0: 2667 8abd 0d45 843e 8c18 86be e915 3ebd
000001b0: 0b45 703e 653f f93d 999a 863e d031 7b3e
000001c0: a19b 94be 69a8 9cbe df29 af3d ec6c e0be
000001d0: a4e1 403d 929c 493d 8974 f0bd 142a 9cbe
000001e0: e3c0 5c3e b6ac e6be 4cb8 123c 2067 fdbc
000001f0: a1bc 7dbe 261a ed3d ca83 b4b9 ba11 d63e
00000200: df47 f5bd 6920 243e c0aa 2dbd 8783 83be
00000210: 8ce6 25be 27be 37be dab0 a83c ee97 edbe
00000220: effc 29bb e0f6 86be bdf6 47be 75fa ed3c
00000230: 2160 883e 0d4d dbbd b2f1 77be c4a9 a0be
00000240: eb7f 1ebe 5dc5 b43e bb44 48be ba6a ccbd
00000250: b878 033e c77b d9be 064e c6bd 447d d23d
00000260: c246 713e 2d30 703e 1fbd 82be b8a6 843e
00000270: ee4b b93e 04b9 cb3d d004 273d 229e 7abe
00000280: 31a5 393e cb93 363e 2f51 043e 1984 d6be
00000290: 080e 85be f599 0ebe b2cb 9a3e aee8 3fbe
000002a0: 341b 51be 0593 9fbe e261 40be 040c d5be
000002b0: 5baa 6cbe 4268 5a3e 7218 3cbd 8bd2 9c3e
000002c0: 6809 593e a018 843e 1b1d 85be dd9b 7f3c
000002d0: ec7a a9bc 16c6 60be 15f0 1f3e 6191 69bd
000002e0: d7b0 57be 7590 6c3e c1cb 46be ae12 7b3e
000002f0: f009 b83e b6fc 96be 9c7f de3e baa2 1c3d
00000300: 14ac a5be cfe8 82be 3406 f5bd 38e6 04be
00000310: a995 8b3e b4ee 6f3e c17c 22be cb37 af3e
00000320: 4868 7c3e 8a91 8c3c 9b01 973e bef8 213e
00000330: 5428 6abe fe10 1cbe 6d56 a7bc 9a75 5a3e
00000340: db7f 5e3e a8ed 0ebe e0a0 b1bd a184 a53d
00000350: c167 5ebe e6e4 dc3d 30e4 b8bb ce88 df3d
00000360: 5775 c73d f5c6 6b3e 9b2e 5cbc 57eb 87be
00000370: 1499 c0bc f9ed 483e 106b e2bd 4fa8 383d
00000380: 59f7 713e eaf3 e7bd ab3f 22bd f1b3 0f3e
00000390: 3dad e63d 1d45 303e 4a70 8d3e 8990 2cbd
000003a0: 187f 3b3e 3b6a 7f3e dd6c 8cbe 5675 ab3d
000003b0: d824 1a3d 4895 ca3e 769a 9b3d a6cf af3e
000003c0: 2b42 c7bc b4b0 8dbb 3eee c93c 7482 173e
000003d0: 72a2 8a3e 3dae e93d dd83 7a3e 9c80 9bbe
000003e0: 0621 f5bd 544b 33be 70be d5be 5512 cabe
000003f0: 1e56 6f3d a043 61be 9f9e 693e e38b b03e

layers.0.bias f4 [32]
-0.0844103 -0.10156767 -0.00052654144 -0.12457469 -0.08291019 0.11069988 0.007602521 -0.122325726
0.0 0.03270275 -0.06005212 -0.10029018 -0.06960608 0.059038818 0.089165956 -0.0016699117
-0.098389484 0.10427065 -0.10214934 0.13305154 -0.099800855 0.13210681 0.10067208 -0.060052585
-0.07188076 0.03626603 -0.11181086 -0.09779612 0.06716852 -0.09126861 0.10126401 0.06668683
00000000: 4fdf acbd b602 d0bd 9907 0aba 0421 ffbd
00000010: d1cc a9bd 9eb6 e23d 921e f93b e985 fabd
00000020: 0000 0000 52f3 053d 36f9 75bd f064 cdbd
00000030: a28d 8ebd b0d2 713d a49c b63d f0e0 daba
00000040: 6d80 c9bd da8b d53d ac33 d1bd aa3e 083e
00000050: 6464 ccbd 0247 073e 2a2d ce3d b3f9 75bd
00000060: 3836 93bd b08b 143d 18fd e4bd 5549 c8bd
00000070: a68f 893d 09eb babd 8163 cf3d 1b93 883d

layers.1.weight f4 [32, 16]
-0.08702486 -0.27621883 0.28977033 0.27763334 -0.20106356 0.060861755 0.16958296 0.20148519
-0.32305625 0.26475093 -0.064684086 -0.16564299 -0.08722266 0.29676646 0.06226473 -0.2032367
0.16954163 -0.12067532 -0.20846508 0.0411193 0.0051616435 0.27942356 0.19229457 0.22914532
0.024023904 0.15119804 -0.055091996 0.14830734 0.20674405 -0.05410029 -0.34896484 -0.21454391
-0.1964449 -0.043400574 0.3152944 0.0816195 -0.13566472 0.095245175 -0.13884835 -0.1886471
-0.1376618 -0.041505612 -0.27107638 0.3592744 -0.2506966 -0.2647069 0.12798534 0.038006693
0.36179143 -0.021551661 0.17052019 0.16272438 -0.2954034 -0.124812745 0.22175829 0.15164338
-0.16036235 0.080730624 0.18591419 0.2589629 0.057762083 0.033191465 -0.05552654 0.35294598
-0.069224864 0.24436875 0.21471915 0.182243 0.39740434 0.36215782 0.10178557 -0.2669654
0.07833747 0.27377057 -0.1999453 -0.05872237 0.4255276 0.06425691 -0.20647928 -0.10528051
0.032131694 -0.31562114 -0.0685453 0.4686872 -0.23223911 0.6322587 0.08896432 0.047114234
-0.41851705 -0.1790558 0.2971367 0.20904514 0.08331223 -0.115289435 0.2573324 -0.05628038
0.16930538 -0.26334712 0.23636204 -0.17236088 0.17027439 -0.16248254 0.23604006 0.16190378
-0.02077198 0.009755849 0.0807787 -0.17099343 -0.10331116 -0.2727711 0.059933178 -0.19715339
0.38607144 0.19197889 -0.24926145 -0.20291783 0.17420526 0.336187 0.07697673 -0.2457511
0.060430933 -0.19316442 -0.040727943 -0.23107268 0.20217651 0.10146089 0.23084338 -0.21389905
0.29238513 0.29592398 -0.29928982 0.14501137 0.028083457 -0.3298423 -0.196175 -0.34701827
-0.093448915 0.14776053 -0.32133996 0.254336 0.10908928 0.27002403 -0.012171419 -0.24155003
-0.11999007 0.022785675 -0.14243625 0.119268365 -0.002307565 0.20136157 0.042648748 0.22004434
-0.33634084 -0.14542888 0.36341467 -0.2438929 -0.21580452 0.19407514 -0.08183849 -0.007545342
-0.14084867 -0.22099343 0.0923306 -0.23911263 0.11466315 -0.21618283 0.13204318 0.16574419
-0.27384883 0.10431896 0.054639466 0.055416446 0.41334715 0.19860527 0.3524577 0.14553122
-0.12155443 -0.24039152 -0.0989863 -0.2323712 0.016091352 -0.019225975 0.016550828 -0.14055014
0.19068624 -0.26876953 -0.1801028 -0.061000653 -0.07527227 -0.03746312 0.34820312 -0.055245474
0.14340365 0.053234916 -0.28814706 0.14404792 -0.077669345 -0.050969504 -0.009374796 0.06329007
0.0052933255 -0.013033859 -0.13937773 -0.21248332 0.054379795 -0.036560163 0.081827626 0.061785873
-0.16755131 -0.0012942394 -0.1399483 0.239456 0.20726645 0.22282636 0.011591795 -0.004891623
-0.43669116 0.14726722 0.23901229 0.29565123 0.020460496 0.12895691 -0.12193104 0.09303354
-0.011129062 -0.03467197 -0.043954786 0.033176262 0.15239814 0.6236732 0.2739874 0.0720155
-0.36151955 0.10257716 0.28703594 -0.037042517 0.028217051 -0.06096685 0.16636592 -0.0009167446
0.1491046 0.28086576 -0.27355257 -0.119644776 -0.045514233 0.08131308 -0.114107415 0.20919381
-0.006357371 0.27723816 0.08772852 -0.19494785 0.043201245 0.21983893 0.36832818 0.070441365
00000000: 173a b2bd 8e6c 8dbe c75c 943e f525 8e3e
00000010: 9be3 4dbe 2d4a 793d 28a7 2d3e 2252 4e3e
00000020: a167 a5be 6f8d 873e 1779 84bd 519e 29be
00000030: cba1 b2bd c6f1 973e 4d09 7f3d 481d 50be
00000040: 529c 2d3e 9f24 f7bd df77 55be b66c 283d
00000050: 0123 a93b 9b10 8f3e dee8 443e 12a5 6a3e
00000060: c7cd c43c a9d3 1a3e 25a8 61bd e1dd 173e
00000070: b6b4 533e 4498 5dbd 85ab b2be 66b1 5bbe
00000080: da28 49be cdc4 31bd 456e a13e 2028 a73d
00000090: b1eb 0abe e70f c33d 432e 0ebe b52c 41be
000000a0: 37f7 0cbe ca01 2abd 86ca 8abe d0f2 b73e
000000b0: 4e5b 80be aa87 87be 970e 033e e8ac 1b3d
000000c0: ba3c b93e 1c8d b0bc d89c 2e3e 38a1 263e
000000d0: 1d3f 97be d39d ffbd 9b14 633e 6748 1b3e
000000e0: 0736 24be 1956 a53d 4a60 3e3e c996 843e
000000f0: ef97 6c3d c6f3 073d cc6f 63bd 56b5 b43e
00000100: c4c5 8dbd cd3b 7a3e 56df 5b3e e99d 3a3e
00000110: 9578 cb3e c06c b93e f474 d03d b0af 88be
00000120: 656f a03d a82b 8c3e 76be 4cbe de86 70bd
00000130: c1de d93e 2099 833d 4e6f 53be 4f9d d7bd
00000140: 869c 033d 1899 a1be 7a61 8cbd c5f7 ef3e
00000150: 17d0 6dbe b5db 213f ed32 b63d dbfa 403d
00000160: de47 d6be 675a 37be 4d22 983e ee0f 563e
00000170: 9a9f aa3d de1c ecbd 13c1 833e 4186 66bd
00000180: 645e 2d3e 6fd5 86be e408 723e 5f7f 30be
00000190: 695c 2e3e d361 26be 7cb4 713e 1bca 253e
000001a0: 002a aabc ffd6 1f3c 4e6f a53d e718 2fbe
000001b0: cd94 d3bd a7a8 8bbe 7e7c 753d 94e2 49be
000001c0: 28ab c53e 1d96 443e 653e 7fbe b1c9 4fbe
000001d0: dd62 323e b420 ac3e faa5 9d3d 2da6 7bbe
000001e0: 6d86 773d e5cc 45be 58d2 26bd 519e 6cbe
000001f0: 5c07 4f3e baca cf3d 3562 6c3e 5a08 5bbe
00000200: 81b3 953e 5983 973e 843c 99be dc7d 143e
00000210: 470f e63c 17e1 a8be 19e2 48be 61ac b1be
00000220: 2562 bfbd 894e 173e ac86 a4be 5438 823e
00000230: 336a df3d 9740 8a3e a26a 47bc e458 77be
00000240: 5bbd f5bd 06a9 ba3c cfda 11be f942 f43d
00000250: 843a 17bb ba31 4e3e 74b0 2e3d 4e53 613e
00000260: de34 acbe 4feb 14be 7d11 ba3e 0fbf 79be
00000270: dcfb 5cbe a2bb 463e f09a a7bd eb3e f7bb
00000280: a23a 10be 1a4c 62be d317 bd3d f1d9 74be
00000290: 83d4 ea3d 085f 5dbe 5436 073e d8b8 293e
000002a0: ea35 8cbe 2ea5 d53d a2cd 5f3d 5bfc 623d
000002b0: 3da2 d33e 2e5f 4b3e 5675 b43e 2306 153e
000002c0: 87f1 f8bd 3229 76be 54b9 cabd b7f2 6dbe
000002d0: 03d2 833c cb7f 9dbc 9a95 873c 60ec 0fbe
000002e0: 4143 433e 299c 89be de6c 38be d2db 79bd
000002f0: 5928 9abd ee72 19bd ae47 b23e 1449 62bd
00000300: 68d8 123e db0c 5a3d 0388 93be 4c81 133e
00000310: 1b11 9fbd 66c5 50bd bf98 19bc 399e 813d
00000320: a273 ad3b f88b 55bc 09b9 0ebe 3a95 59be
00000330: 59bd 5e3d 1cc0 15bd 3e95 a73d 2f13 7d3d
00000340: 9292 2bbe 78a3 a9ba 9b4e 0fbe f433 753e
00000350: a83d 543e 982c 643e 83eb 3d3c e849 a0bb
00000360: fc95 dfbe 38cd 163e a3bf 743e 995f 973e
00000370: c59c a73c 480d 043e fbb6 f9bd 5e88 be3d
00000380: ab56 36bc 3204 0ebd ef09 34bd d5e3 073d
00000390: 420e 1c3e 0ca9 1f3f 1448 8c3e dd7c 933d
000003a0: 1719 b9be f913 d23d 60f6 923e e5b9 17bd
000003b0: 7227 e73c 60b8 79bd d45b 2a3e b051 70ba
000003c0: e0ae 183e a3cd 8f3e 150f 8cbe 5208 f5bd
000003d0: 226d 3abd 7987 a63d 26b1 e9bd e736 563e
000003e0: 7e51 d0bb 29f2 8d3e 03ab b33d 69a0 47be
000003f0: caf3 303d 751d 613e 8395 bc3e 9043 903d

layers.1.bias f4 [16]
0.09801285 0.027230848 0.0032160291 0.08053452 -0.00022207526 0.12526068 0.010864676 -0.07299419
-0.0759707 0.012405964 0.043554716 0.0455098 0.07149327 0.05841121 0.056103326 0.04213564
00000000: f6ba c83d 3a13 df3c 04c4 523b 48ef a43d
00000010: e0dc 68b9 5644 003e c101 323c fa7d 95bd
00000020: 8796 9bbd 6242 4b3c 6e66 323d 7c68 3a3d
00000030: 106b 923d 9840 6f3d 9acc 653d 6c96 2c3d

layers.2.weight f4 [32, 16]
0.07420318 -0.32361546 0.05624837 -0.39294395 0.15435788 -0.15127818 -0.4912941 -0.06269993
-0.42479375 -0.36819348 -0.09482816 0.18632495 0.02806992 -0.06289539 0.12834819 -0.2868624
0.000974708 -0.13053599 0.0070549296 -0.38734496 -0.26380637 0.106622994 -0.14124456 -0.3343991
0.16997686 0.15147312 -0.16084333 0.043839842 -0.08096217 -0.12783949 -0.215574 0.12551789
0.18995719 -0.3840081 -0.44117266 -0.05641867 -0.3222906 0.11120338 -0.1327859 0.032944653
-0.24986574 -0.14108846 0.051664714 -0.333746 0.24314046 -0.35380274 -0.38430548 -0.15404938
0.19481026 0.10030752 -0.13365927 -0.27472025 0.098783426 0.22796579 0.2190575 -0.27033013
0.109708816 -0.25688773 0.1776821 0.1636388 0.08667937 -0.29210278 -0.082659826 0.1829406
-0.24557212 -0.3963827 -0.22087215 0.23157056 -0.10313018 0.0863468 0.12828386 -0.37550727
-0.44026616 -0.015091574 -0.34880176 -0.027086759 0.09060577 0.06004535 0.10505556 -0.42247668
-0.31901926 -0.42933553 -0.30678 0.08344966 0.070688576 -0.4168234 0.089304395 -0.013563171
-0.42381135 -0.40576595 -0.007683949 0.004542729 0.12301613 -0.15774475 -0.18366733 -0.08907871
-0.028677458 -0.40959188 -0.24466358 -0.22353864 -0.3417523 0.119636625 -0.3458883 -0.046894506
-0.13691054 0.06395006 -0.41395515 -0.28643787 -0.2959391 0.016730392 -0.46499613 -0.2793595
-0.070817344 0.20208056 -0.26267117 0.200269 -0.34149665 -0.02169731 0.13216701 0.1596551
0.12856583 -0.2913805 -0.06466764 0.049172994 0.21904062 -0.038730115 0.010967685 -0.23848587
0.18479796 -0.046619177 0.24989979 -0.2586009 -0.11841823 -0.2284542 0.1656471 -0.0930186
-0.2049506 0.040989075 -0.098140955 0.22893476 0.28202876 0.2203745 -0.15270743 -0.17789131
-0.18702391 -0.14677078 0.08055044 -0.35741583 -0.29083955 -0.06859942 -0.27529472 -0.1534855
-0.272041 0.08089717 0.021058066 -0.14657494 -0.32599646 -0.26254976 -0.029346514 0.056065146
0.23475078 0.33429497 -0.39076486 -0.30572978 0.10817026 0.23593843 0.2636869 0.3194549
-0.38305506 0.27645758 0.39240012 -0.33566505 -0.09363068 -0.37547362 -0.032005087 0.24787034
-0.34325233 -0.28262162 0.036032222 -0.038802486 -0.37055007 0.19562887 -0.36929396 -0.38111517
-0.20605582 -0.35178822 -0.16712038 -0.13053018 0.05610765 0.11399159 -0.37027082 -0.4092657
0.17144845 -0.097322 -0.20203713 -0.28468513 -0.06065166 -0.44047764 -0.33587906 -0.4485635
0.07956991 -0.21333607 -0.16958748 -0.30963477 0.1584838 0.12254829 -0.14672482 -0.14699648
-0.42666575 -0.31874892 0.123190284 0.22604503 -0.11242743 -0.30728763 -0.036519602 0.17869563
-0.24757724 -0.055728637 0.16532996 0.047795963 -0.27953038 -0.4270929 0.23365855 -0.11341537
-0.0904987 0.17010915 -0.17645429 -0.10412522 0.17145605 -0.509955 0.0146894585 -0.15392789
-0.2788961 -0.12503798 0.036217403 -0.21148722 -0.3861086 -0.06847642 -0.37713194 -0.068754375
-0.33150703 0.18059665 -0.24967694 -0.25234416 0.17800295 -0.30409828 -0.15382363 -0.21272038
0.11400516 -0.17645144 -0.37948617 -0.15177423 -0.14115985 0.14892253 -0.39878926 -0.3949081
00000000: d6f7 973d edb0 a5be b164 663d f32f c9be
00000010: fe0f 1e3e abe8 1abe e68a fbbe d268 80bd
00000020: 917e d9be db83 bcbe 4435 c2bd f8cb 3e3e
00000030: e4f2 e53c 4ccf 80bd b56d 033e a1df 92be
00000040: 8c83 7f3a 3aab 05be 0a2d e73b 1452 c6be
00000050: a111 87be 285d da3d 6aa2 10be 5c36 abbe
00000060: 6a0e 2e3e c51b 1b3e 1db4 24be 6891 333d
00000070: 7fcf a5bd 5be8 02be 6ebf 5cbe c387 003e
00000080: 2384 423e b69c c4be 62e1 e1be 4317 67bd
00000090: 4603 a5be 99be e33d 07f9 07be f9f0 063d
000000a0: cedc 7fbe 7e79 10be 619e 533d c1e0 aabe
000000b0: d0f9 783e a225 b5be b0c3 c4be 1fbf 1dbe
000000c0: 577c 473e 076e cd3d fadd 08be 22a8 8cbe
000000d0: f74e ca3d dd6f 693e 9c50 603e b668 8abe
000000e0: 04af e03d ca86 83be 4cf2 353e ee90 273e
000000f0: f484 b13d 7f8e 95be 8e49 a9bd c854 3b3e
00000100: 4277 7bbe acf2 cabe 4f2c 62be d520 6d3e
00000110: ea35 d3bd 97d6 b03d d85c 033e 7d42 c0be
00000120: 916a e1be a642 77bc 2596 b2be 0de5 ddbc
00000130: 858f b93d 1df2 753d 5f27 d73d dd4e d8be
00000140: 7e56 a3be ded1 dbbe 4512 9dbe a8e7 aa3d
00000150: 2cc5 903d e069 d5be 39e5 b63d 1038 5ebc
00000160: cdfd d8be 8ec0 cfbe a3c9 fbbb 2cdb 943b
00000170: e1ef fb3d d787 21be 4a13 3cbe e66e b6bd
00000180: fdec eabc 07b6 d1be 1789 7abe 50e7 64be
00000190: 28fa aebe 0c04 f53d 4518 b1be 7414 40bd
000001a0: 4732 0cbe 40f8 823d eef1 d3be fca7 92be
000001b0: 5485 97be 2d0e 893c f913 eebe 3508 8fbe
000001c0: af08 91bd 35ee 4e3e d67c 86be 5113 4d3e
000001d0: a6d8 aebe 8fbe b1bc ca56 073e a07c 233e
000001e0: c3a6 033e d32f 95be 7870 84bd 9f69 493d
000001f0: 2f4c 603e 78a3 1ebd ceb1 333c a435 74be
00000200: ad3b 3d3e c0f3 3ebd bbe5 7f3e 5667 84be
00000210: 4285 f2bd e6ef 69be 659f 293e 8980 bebd
00000220: 92de 51be 29e4 273d 20fe c8bd e06d 6a3e
00000230: 1366 903e daa9 613e 565f 1cbe 2429 36be
00000240: 3283 3fbe 144b 16be a1f7 a43d 35ff b6be
00000250: ece8 94be da7d 8cbd 6ef3 8cbe 4e2b 1dbe
00000260: f548 8bbe 6aad a53d f781 ac3c be17 16be
00000270: 02e9 a6be ec6c 86be 1a68 f0bc 91a4 653d
00000280: 8262 703e b628 ab3e 5512 c8be 9d88 9cbe
00000290: 5f88 dd3d d899 713e f801 873e 988f a33e
000002a0: cb1f c4be d98b 8d3e abe8 c83e 4adc abbe
000002b0: 71c1 bfbd 143e c0be c417 03bd b9d1 7d3e
000002c0: c5be afbe c8b3 90be 8696 133d 5bef 1ebd
000002d0: bdb8 bdbe ef52 483e 1914 bdbe 8721 c3be
000002e0: 4c00 53be 961d b4be 9b21 2bbe b4a9 05be
000002f0: 23d1 653d 6c74 e93d 2394 bdbe 468b d1be
00000300: 2f90 2f3e c250 c7bd d2e2 4ebe 40c2 91be
00000310: e06d 78bd 4986 e1be 57f8 abbe 1daa e5be
00000320: 8df5 a23d c574 5abe 57a8 2dbe 7388 9ebe
00000330: 9449 223e 99fa fa3d 083f 16be 3f86 16be
00000340: ef73 dabe 0f33 a3be 304b fc3d 5978 673e
00000350: 5a40 e6bd ce54 9dbe 9495 15bd fdfb 363e
00000360: e384 7dbe b643 64bd 424c 293e b3c5 433d
00000370: 9b1e 8fbe ecab dabe 3044 6f3e 5146 e8bd
00000380: 6257 b9bd 1831 2e3e 6fb0 34be 9a3f d5bd
00000390: 2d92 2f3e 698c 02bf 0eac 703c 469f 1dbe
000003a0: 78cb 8ebe f509 00be b358 143d 1b90 58be
000003b0: 07b0 c5be 5e3d 8cbd 7017 c1be 18cf 8cbd
000003c0: 4abb a9be 54ee 383e 50ab 7fbe 4133 81be
000003d0: 6846 363e c5b2 9bbe f183 1dbe 5fd3 59be
000003e0: 8a7b e93d b0af 34be 034c c2be b46a 1bbe
000003f0: 358c 10be 267f 183e 1b2e ccbe 6531 cabe

layers.2.bias f4 [16]
-0.14951438 -0.14907853 -0.11336144 -0.1302988 -0.15067488 -0.16173382 -0.1906725 -0.1323812
-0.14644988 -0.11967253 -0.16300172 -0.14806631 -0.1236809 -0.1231895 -0.15628453 -0.12113298
00000000: 4c1a 19be 0ba8 18be 0b2a e8bd 0c6d 05be
00000010: 844a 1abe 8d9d 25be a73f 43be f08e 07be
00000020: f5f6 15be df16 f5bd ece9 26be b29e 17be
00000030: 694c fdbd c74a fcbd 0d09 20be 9114 f8bd
