src/features/VGAE_TA.pth (torch, 10455 bytes, 6 tensors)

layers.0.weight f4 [33, 32]
000000 e1 3e 29 bf d9 8a b9 bd cb b1 a6 be e3 bd 82 be
       -0.6611157 -0.09059686 -0.3255752 -0.25535497
000010 c1 37 28 3e 81 c0 b4 be cf 40 40 bf d3 ec bb 3e
       0.16427518 -0.3530312 -0.7509889 0.3670412
000020 f0 2f 03 bf ac 8b 32 be b5 90 eb be 96 c0 02 3e
       -0.5124502 -0.17436093 -0.4600884 0.12768778
000030 d0 8b 71 bf 84 2c 63 3f 9c 59 65 be 78 23 35 be
       -0.9435396 0.887398 -0.22397465 -0.17689312
000040 a6 72 e0 3e d7 7d 0f be 4b 32 38 bd ea d6 94 3e
       0.4383747 -0.14012848 -0.044969838 0.29070216
000050 12 d7 af 3e 05 5b 46 bf 97 0e 9b be 68 20 59 3e
       0.34343773 -0.77482635 -0.3028457 0.21203768
000060 a1 7f 99 3f 25 40 86 be 07 2d da bd e8 97 95 3d
       1.1992074 -0.26220813 -0.106531195 0.073043644
000070 32 58 e5 bd 02 35 84 be fb 6a 8f be 66 f8 62 be
       -0.111984625 -0.25821692 -0.28011307 -0.22165069
000080 25 a5 73 bd fa b1 14 bf 54 cc e0 bd 75 2c 41 3f
       -0.059483666 -0.5808407 -0.109764725 0.7545846
000090 29 08 69 be 20 f7 89 3e f4 b4 6b be 40 43 0e be
       -0.22757019 0.26946354 -0.23018247 -0.13892841
0000a0 01 30 7b be 3a d2 4e be 68 2f 23 3e 46 48 f9 be
       -0.24530031 -0.20197383 0.15936053 -0.48687953
0000b0 08 2e 88 bf 07 7d b3 3e a7 59 be be c7 e6 73 be
       -1.0639048 0.35056326 -0.37177774 -0.23818503
0000c0 27 33 c6 3e 1b 9e 8a 3f 34 96 d7 3d 50 9c 4d be
       0.387109 1.08295 0.10526696 -0.2007916
0000d0 d4 14 aa be f3 b4 a9 bf 88 7e fa 3d db d2 49 bf
       -0.33219016 -1.3258346 0.12231165 -0.78837365
0000e0 c2 6b b4 be d7 4d cf 3e 7c 69 60 bf 0c 4d d3 3e
       -0.35238463 0.40489075 -0.87660956 0.4126972
0000f0 bd a0 7e bd 53 18 6f be 4d 04 0d bf 47 b6 48 3f
       -0.06216501 -0.23349123 -0.5508469 0.78403133
000100 62 05 fc be 20 15 7a be 83 55 49 bf 20 cd 90 bd
       -0.49222857 -0.24422121 -0.78646106 -0.070703745
000110 84 c7 11 be ff 58 9e be 39 15 bc be 1b aa 84 3e
       -0.14236265 -0.30927274 -0.36734942 0.2591103
000120 d7 39 b5 3c cf 2a 5b 3d cb a2 fb be 19 7c b0 bc
       0.022122307 0.053507622 -0.4914764 -0.02154355
000130 be 2e b1 bf 44 ce 9d 3f 6c 92 6e be e7 54 df be
       -1.384239 1.2328572 -0.23298043 -0.43619463
000140 a2 e0 c8 3e 47 46 d6 be 6b e1 66 3d cd 62 f0 3b
       0.3923388 -0.41850492 0.05636732 0.0073359967
000150 9b 75 1e 3f 4d 92 5c bf 98 3a 66 be 26 15 00 3f
       0.618982 -0.8616074 -0.22483289 0.5003227
000160 91 26 84 3f ac 02 a3 be ff 9b 5e be 26 1c 4e 3e
       1.032427 -0.31837976 -0.21739195 0.20127925
000170 c2 c1 49 be a9 fb 80 be d1 7c 1c bf 0b f9 a0 bd
       -0.19702819 -0.25192 -0.61127955 -0.07860001
000180 3d 2a 3a 3d fd 6e 8c be 33 40 d0 be bd 41 65 bf
       0.045450438 -0.27428427 -0.4067398 -0.89553434
000190 b8 97 ab be 4a c6 82 be 2d a7 9c be ec cc ee bd
       -0.3351419 -0.25541908 -0.30596295 -0.116601795
0001a0 d4 b7 e7 3e 39 42 0c be 32 04 60 be 4b 07 29 3e
       0.45257437 -0.13697137 -0.218766 0.16506688
0001b0 a2 a6 64 3e 6a 72 50 bf 65 70 74 bd 5c 56 3d 3e
       0.2232919 -0.8142458 -0.0596775 0.18489975
0001c0 62 08 ed 3c e7 db 47 3e 77 45 5a 3d e8 a3 35 be
       0.028934661 0.1951748 0.053288903 -0.17738307
0001d0 ce b8 08 3e 2f 7c 4e 3e dd 5f 10 be 7a c7 80 3e
       0.13351747 0.2016456 -0.14099069 0.2515219
0001e0 93 40 67 bf f0 e7 7b 3c 34 d5 f8 3d 7d 8f a0 3d
       -0.9033291 0.015375122 0.1215004 0.07839868
0001f0 8c 57 1b be 12 e4 00 bf be 7c cd be 36 38 b5 3e
       -0.15170115 -0.5034801 -0.40134233 0.35394448
000200 f1 32 2b 3e 15 35 09 be f4 de 15 bf a4 ab 66 be
       0.16718651 -0.13399155 -0.58543324 -0.22526413
000210 e4 47 9b bd 2e 21 89 be 85 34 cf 3e ec 6e d2 bd
       -0.075820714 -0.26783127 0.40469757 -0.10275063
000220 77 10 06 bf 9c 54 8e bd 9a 1d 76 bd 98 92 01 3f
       -0.52368873 -0.06949732 -0.060086824 0.5061431
000230 3f ea bf 3e a1 d3 04 3e 18 ba 3c 3d d7 5e af bf
       0.37483403 0.12971355 0.04607591 -1.3700818
000240 91 2d 73 be 78 57 ae be 92 f2 03 3e 45 ae be bd
       -0.23747851 -0.34051108 0.12885502 -0.09310583
000250 fc c5 7f 3b 78 d1 34 3e c8 b9 3e 3e 1c 84 c5 3e
       0.003902792 0.17658031 0.18625557 0.38577354
000260 71 b6 58 3e b8 b6 af 3b 88 1d 14 3f 51 7d 01 3e
       0.21163346 0.005362358 0.5785756 0.1264546
000270 ee 1e 29 3d f8 e6 3c 3e 2b 4b bc 3c 59 01 b3 be
       0.041289262 0.18447483 0.022985062 -0.34961966
000280 79 20 88 3f b6 7f 0e 3e ef c6 95 3d 29 77 04 3f
       1.063491 0.13915905 0.07313334 0.51744324
000290 e6 d9 96 be f4 60 20 3e 3a 99 25 3f a6 d8 6e bf
       -0.29463118 0.15661985 0.6468693 -0.9329933
0002a0 84 d8 21 3f 97 7d 87 be 08 b2 48 bf 4e 73 21 3e
       0.63221 -0.26463005 -0.78396654 0.15766641
0002b0 af 2e 03 bf d5 31 a0 be 4c 53 9e 3e 37 c9 82 3e
       -0.5124311 -0.3128802 0.30922925 0.2554414
0002c0 26 23 8f 3f a5 27 40 3f 3e 9c 23 be e1 50 7f bc
       1.1182601 0.7506049 -0.1597757 -0.015583248
0002d0 ad 03 a5 be 03 58 c0 be 3e ce 8b be 47 c9 85 be
       -0.32229367 -0.37567148 -0.27305788 -0.26130125
0002e0 4d 6f dc be 96 30 ad bf ff 6b 22 3f 5b 47 1c be
       -0.43053666 -1.3530452 0.6344604 -0.15261595
0002f0 df ae 74 be 62 fd 4f be 33 b9 1d 3e 8e 15 86 bf
       -0.23894833 -0.20311502 0.15402679 -1.0475328
000300 54 22 0b bd 7b 3e 4c 3e 35 0f 8a 3d 2b 3a da bd
       -0.033968285 0.1994571 0.06741182 -0.10655626
000310 32 2c 87 bd f4 16 d9 bd b2 74 82 be 13 a9 af 3d
       -0.066002265 -0.10600081 -0.25479656 0.0857717
000320 74 33 87 3e 6c 2c 40 be 3b 84 5d be e2 85 ed be
       0.26406443 -0.18766946 -0.21632473 -0.46391207
000330 99 25 5d 3e ec 29 a6 bb a0 3d a0 3e 44 d3 49 bf
       0.21596374 -0.0050709154 0.31297016 -0.7883799
000340 7b 58 3e bb c0 76 95 be 0d 33 73 be 90 b0 df 3d
       -0.0029044438 -0.29192162 -0.23749943 0.109223485
000350 f6 cd b2 3e 86 a9 3c be 64 48 c8 3d c2 77 39 be
       0.3492276 -0.18424043 0.097794324 -0.1811209
000360 ed b3 6e 3e 5e b3 79 3e 65 88 a2 bd a2 75 be bd
       0.23310824 0.2438483 -0.079361714 -0.092997804
000370 69 0e 62 be 5a 41 32 bf 95 f6 90 3e 7a da 13 bf
       -0.2207581 -0.6963097 0.28313127 -0.57755244
000380 57 a8 f5 3e 7e cd 03 3e 9a eb 93 3d 57 85 bd 3e
       0.47979996 0.12871358 0.07222672 0.37015793
000390 02 3e fe 3d cd df e0 3e 8c 8a 86 bf 1d 44 80 3e
       0.12414171 0.43920746 -1.0511031 0.25051966
0003a0 ab 8b 0a bf 0b b9 52 3e 7a 59 87 be 66 94 bc be
       -0.54119366 0.20578401 -0.26435453 -0.3683197
0003b0 5a 4d c7 bc 0d e2 36 3f 56 61 dd bd 4a b7 62 3f
       -0.024328876 0.71438676 -0.10809581 0.88560927
0003c0 95 c6 26 3f d2 c2 bc be 91 b4 9b be d1 28 10 bd
       0.6514676 -0.36867386 -0.304112 -0.035195176
0003d0 b6 44 21 bf 99 a7 6b bd 87 7d 6b 3d f2 74 93 3e
       -0.6299547 -0.05753288 0.05749276 0.2880016
0003e0 b8 fb aa 3e 30 0c 8b 3d 80 67 97 bc d7 15 cb be
       0.3339517 0.06789434 -0.01848197 -0.396651
0003f0 a4 8f a7 3d c6 1f e0 be 24 27 81 bd 3e df c7 3d
       0.08181694 -0.4377424 -0.063062936 0.09759377

layers.0.bias f4 [32]
000000 a8 02 4e 3d 8a 79 8a 3d ea ba 06 3e d8 c2 cd bb
       0.050295502 0.06761463 0.1315724 -0.0062793307
000010 08 8d a7 bd f8 e3 f2 b9 05 f7 8e 3d 31 0c 3e bd
       -0.081811965 -0.00046327687 0.06980709 -0.046398345
000020 6f b5 37 be 6a 47 b7 bd a1 43 f2 3d 60 e2 b0 bb
       -0.17940305 -0.08949168 0.118293054 -0.0053980798
000030 8d bb fd 3d b5 e3 52 be 4d 2a de bc f2 43 71 3e
       0.12389288 -0.20594676 -0.02711978 0.23561075
000040 5e e7 a2 bd 82 b2 7f 3c 44 9f 88 bd 2a ff 9c bd
       -0.07954286 0.015606524 -0.066710025 -0.07665856
000050 fe be ec 3c 85 b1 3d bc 3d c9 4a bd 9c 6c 4f bd
       0.028899666 -0.0115779685 -0.049508322 -0.050640687
000060 ed 2d c4 3d 40 74 31 3d e4 ca 55 3e fb ae 75 3d
       0.09579072 0.043323755 0.20878178 0.059981328
000070 97 b4 77 bd 08 84 80 bd b4 0b 12 3e ad 8c 74 bc
       -0.06047496 -0.06275183 0.14262277 -0.014926118

layers.1.weight f4 [32, 16]
000000 ae cc da be e7 a2 0a 3f 2f b5 8d 3e ad 43 2c be
       -0.42734283 0.5415482 0.27677295 -0.16822691
000010 69 b5 85 be f2 54 09 3f ca 51 4f 3e 19 c8 1c 3c
       -0.26114967 0.5364524 0.20246044 0.009569191
000020 e9 8b ca 3e 7e ef d5 3d d8 51 09 3f 6d 8a 47 be
       0.39559868 0.1044607 0.5364051 -0.19486399
000030 28 6d 07 3e 1b f0 08 3d 75 9e 1d 3e 94 6f a2 bd
       0.13225234 0.033432107 0.15392478 -0.07931438
000040 2a 41 7c 3c 5f 4d ff be 35 49 ba 3d f2 5a 0a 3f
       0.015396396 -0.49863717 0.090959944 0.5404502
000050 e4 73 9e 3d 7a 7f 21 3c a4 67 b8 be 24 47 b5 3e
       0.07736948 0.009857053 -0.36016572 0.35405838
000060 ae 81 db 3e 62 4c 2e 3e 95 c2 77 3d 1a df 88 be
       0.42872375 0.17021325 0.060488302 -0.26732713
000070 11 fa 07 3e a4 2c 73 be 9a 38 2d 3f 98 36 11 3d
       0.13278987 -0.23747498 0.6766449 0.035452455
000080 07 cb 89 3f a4 d3 3b 3f b5 44 40 be 20 31 48 be
       1.0765084 0.7336981 -0.1877621 -0.1954999
000090 c1 a0 dc 3e 60 78 ae bc 8e c8 ec bd cc 84 8f 3e
       0.43091395 -0.021297634 -0.1156169 0.28031003
0000a0 8a 28 1e 3e d4 f2 c7 3c b5 70 b2 3e 61 47 03 3e
       0.15445152 0.024407782 0.34851614 0.12820198
0000b0 b0 05 0d bf df e0 88 bb ef 62 1a 3f 71 d7 ac be
       -0.55086803 -0.0041771973 0.6030721 -0.3375812
0000c0 c5 13 ad be 2f 1e a7 3e 45 c9 ba bd 87 23 8e bd
       -0.33804145 0.32640216 -0.0912042 -0.0694037
0000d0 9a bb 18 bf d7 c7 87 bc a7 7d 96 be 35 70 6b 3e
       -0.5966126 -0.016574783 -0.2939274 0.22992022
0000e0 a0 3b 4f 3e ee 6a 27 be 36 a1 a5 3e 0d 8d be bd
       0.20237589 -0.16349384 0.32349557 -0.09304247
0000f0 39 d8 2a bf 54 74 34 bd 97 c5 14 bf 59 fd 89 3e
       -0.6673618 -0.04405625 -0.58114 0.269511
000100 f1 f4 d7 3d e0 71 df 3c 9b cb 4f 3e e3 fe 7e be
       0.10544766 0.02727598 0.20292513 -0.24901919
000110 a6 40 7e 3e 1f 45 ce bc 55 d5 b6 3d 57 b6 13 be
       0.24829349 -0.025179444 0.089274086 -0.14425026
000120 ed e7 31 bd 27 be 14 bd ea 6d 08 be 18 b8 1c be
       -0.043434072 -0.036314156 -0.13323179 -0.15304601
000130 1e 5e 62 3e a6 a6 8f 3e f0 7a 4e be 17 a9 e8 3c
       0.22106215 0.2805683 -0.20164084 0.02840094
000140 45 19 4b 3e d3 f8 be 3e 7e 90 ba 3e ba 19 ba be
       0.19833858 0.37299213 0.36438364 -0.36347753
000150 e4 3c c6 be a2 89 a1 be 1a 58 f4 3d 54 65 93 bd
       -0.3871833 -0.31550318 0.119308665 -0.07197061
000160 91 32 d7 3e 74 4b d3 3d 9b 05 3d be e2 05 ac 3c
       0.42030767 0.10317126 -0.1845917 0.020998899
000170 db 0f 6f 3e 8d 37 67 3e 60 fa 33 bf 36 89 eb bb
       0.23345892 0.22579785 -0.70303917 -0.0071879877
000180 0f bf 41 bf f7 4a 08 3f 85 c4 c8 be 13 a0 23 3e
       -0.7568216 0.5323939 -0.39212433 0.15979032
000190 bc 1b e3 be 0e 92 c5 be 17 57 0d bb 6f a2 55 be
       -0.44357097 -0.38587993 -0.0021566802 -0.20862745
0001a0 cb 5a 18 bd 7d 5a 1e 3d 23 72 1a 3e 9e 77 db 3e
       -0.037195962 0.038660515 0.15082602 0.42864698
0001b0 53 de 43 3f a8 1d c6 3e 9a 26 23 bf 9c b3 07 3f
       0.76511115 0.386945 -0.63730776 0.5300844
0001c0 cb 25 d6 3e 68 4c 96 be ff 03 32 3b 66 e1 76 be
       0.4182571 -0.29355168 0.0027163026 -0.2410942
0001d0 35 8e 23 3e ba e0 0b bf e0 9c a0 be 75 25 b0 3e
       0.15972216 -0.5463978 -0.31369686 0.34403577
0001e0 de 17 df bd af 89 a9 bd 46 2d 0a 3f cf ad 96 3e
       -0.10893224 -0.08278214 0.5397533 0.2942948
0001f0 3b 33 01 bf cf 5e 88 bd ae c4 a0 3d 01 5e 46 3d
       -0.50468796 -0.06658708 0.07850014 0.048429493
000200 54 98 e5 be 9e 6c 06 bf fa 00 59 3e be db 35 bf
       -0.4484278 -0.52509487 0.21191779 -0.71038425
000210 5a 6b 7d 3e e2 56 b3 bf da 70 83 3f d2 d0 a4 3e
       0.24747983 -1.401089 1.0268815 0.32190567
000220 71 77 18 3f 53 b2 c7 3d f2 6d 16 3f 89 e7 72 3d
       0.59557253 0.097508095 0.58761513 0.05930284
000230 84 a1 0a 3f f0 06 40 3b 09 6d 22 bf 5b 37 0f 3f
       0.54152703 0.002930101 -0.63447624 0.5594384
000240 50 c0 26 be e9 b8 72 be dc 86 62 3e 89 1b e1 3d
       -0.16284299 -0.2370335 0.22121757 0.1099158
000250 3d f9 3a 3e 33 c5 cc 3c 06 83 87 be 9b 72 b8 3d
       0.1825914 0.024996376 -0.2646715 0.09006234
000260 18 c4 67 bc a0 9a bc 3c 52 cf f0 3c ee 0b ff bc
       -0.0141458735 0.02302295 0.029395733 -0.031133618
000270 e5 05 06 be 89 3f 8c 3e 56 e8 97 be 2f 03 b7 bc
       -0.13088186 0.27392223 -0.29669446 -0.022340385
000280 19 d8 b9 3e d5 85 08 3f c1 0d 22 3d d7 b6 3c 3e
       0.36297682 0.5332921 0.039563898 0.18429123
000290 a1 5c d1 3d 33 6c 85 3e ff 16 23 bf 41 75 c6 3e
       0.10222746 0.26059112 -0.63706964 0.38761333
0002a0 9a b8 96 bd e9 0e 35 3e 5f 9a 14 3f cf 51 0c be
       -0.07359429 0.17681469 0.5804805 -0.13703083
0002b0 57 55 0b be c4 5d 36 bd 3a 37 16 bf bd ea b9 be
       -0.13606773 -0.044523016 -0.5867802 -0.36311904
0002c0 a6 c2 b5 3f e3 9e c7 be f1 ca 3f bf 4c 6a f6 3e
       1.4200027 -0.38988408 -0.7491904 0.48127973
0002d0 f7 77 eb 3e b0 a5 34 bf 7e e3 dc bd 61 21 7a be
       0.45989963 -0.7056532 -0.10785578 -0.24426796
0002e0 2b 6a 79 be a4 d9 88 bd d4 07 cb 3e f2 06 ff 3d
       -0.24356906 -0.06682137 0.3965441 0.124524966
0002f0 11 66 2f bf cd b9 f4 3d 7a 9a 54 bd ec 7b ee be
       -0.68515116 0.11949501 -0.051905133 -0.4657892
000300 9b 7e cc bd 60 94 8b 3e 8a 81 d8 bd 1f da a9 be
       -0.099850856 0.2726164 -0.105715826 -0.33174226
000310 f0 1f bf be 88 19 e7 be 35 4e 13 bf d9 e0 bd 3e
       -0.37329054 -0.45136666 -0.5754121 0.37085608
000320 96 c8 81 be af d7 a9 3e 87 78 63 be ce 85 19 3d
       -0.25348347 0.33172366 -0.22213946 0.03748112
000330 0f 70 1e 3f dd f2 01 be 3b e9 00 3e eb d7 ef bc
       0.6188974 -0.12690301 0.1258897 -0.029277762
000340 20 04 e0 be bd ff 74 be 1d 38 ff 3d 8e 9d cd 3d
       -0.43753147 -0.23925681 0.12461875 0.10039817
000350 9b 17 a8 3d ce af 97 bf 9d d4 69 3d 4d a9 ce bc
       0.082076274 -1.1850526 0.05708753 -0.025227213
000360 a1 a1 2b bc 20 a8 2b 3e ff be 16 3e 61 b1 34 3e
       -0.010475547 0.16763353 0.14721297 0.1764579
000370 3e 80 32 bf ac 79 d1 3e d9 ef 12 bd 29 63 1e 3e
       -0.6972693 0.4091314 -0.035873268 0.15467514
000380 37 4c 52 be 05 08 35 be 27 45 17 3e ac a9 cc 3e
       -0.20536886 -0.1767884 0.14772473 0.399732
000390 0b 16 95 3d 26 67 65 3e ea bd 73 3c f4 b2 b1 3e
       0.07279595 0.2240263 0.014876822 0.34706843
0003a0 0d 8b b7 3e 90 a0 4f be 3f aa 12 3f 9e 51 b0 bd
       0.35848275 -0.20276093 0.57291025 -0.08609317
0003b0 11 61 fc 3e 7d d2 8d be aa 3f 13 3e d7 86 93 3e
       0.49292806 -0.27699652 0.14379755 0.28813812
0003c0 16 e9 d9 3e d4 db ba 3f 52 02 06 3e 52 6a 2b 3f
       0.42560643 1.4598336 0.13086823 0.66959107
0003d0 40 f0 fd 3e 96 be 45 bc ca 58 c7 be bc 88 08 3f
       0.4959736 -0.012069365 -0.38934928 0.5333364
0003e0 72 3d 2a 3e 4d fc ea bd 1d 82 3d bf f5 5e 09 3f
       0.16625002 -0.11473904 -0.7402666 0.5366052
0003f0 c0 e5 1a be fb 7f a0 3e d9 e0 7c bf 87 2d 94 3e
       -0.15126705 0.3134764 -0.9878059 0.28940985

layers.1.bias f4 [16]
000000 7a 3c 2c 3d 73 b8 da bd 40 7d c7 3d d2 6e e8 3d
       0.042049862 -0.10679712 0.097406864 0.11349262
000010 9c 27 0f bc 02 aa 00 3e bd 6b 8e bc fe c7 08 bd
       -0.008737471 0.12564853 -0.017385358 -0.033393852
000020 de ae 8d 3c 2a 4a 18 bd 29 b4 95 bc da 7a 1e bd
       0.017295297 -0.037180103 -0.018274384 -0.03869138
000030 d2 0b 64 3e c9 f3 45 bd 17 4b 33 3d 91 35 bf bd
       0.22270134 -0.048328195 0.043772783 -0.09336389

layers.2.weight f4 [32, 16]
000000 c1 4b d5 bd 23 2c e8 be 2b 34 a0 be a6 8a c4 be
       -0.104148395 -0.45346174 -0.312898 -0.3838703
000010 69 ef 18 bd 5f e0 b5 be 5f 2c d7 be e0 d1 ef be
       -0.037337694 -0.35522744 -0.4202604 -0.4683981
000020 d5 bf 76 be 46 e0 97 be 5b 9f 08 bf 84 c3 07 be
       -0.24096616 -0.29663295 -0.5336816 -0.13258177
000030 f1 9e b1 be 98 31 ea bd 1f 82 06 bf 2b 29 5e be
       -0.34691575 -0.114352405 -0.525423 -0.21695392
000040 52 59 45 3d 25 2f f5 bd 8d fb 17 3e ea ae 94 be
       0.048180886 -0.11971883 0.14842053 -0.290397
000050 db 87 1a be 92 54 a2 be 8b ab af bd 93 67 84 be
       -0.15090887 -0.31705147 -0.08577641 -0.2586027
000060 22 71 e5 bd 88 2c 34 bd 9a a2 90 be 7a f2 8b be
       -0.11203219 -0.04398778 -0.28249055 -0.27333432
000070 60 14 c6 bb 68 b1 7c be e6 78 84 be 75 c6 8e bc
       -0.0060449094 -0.2467705 -0.25873488 -0.017428616
000080 6b 70 7f be 9f f5 dc be 38 58 d7 bc 1c d7 83 be
       -0.24945228 -0.43156144 -0.026287183 -0.25750053
000090 eb 12 88 bd 2a c2 bf be 04 37 b6 bd b0 88 48 3d
       -0.06644233 -0.37452823 -0.08897212 0.04895848
0000a0 20 73 00 be d4 e1 81 be 68 a6 3e be 66 4b 7f be
       -0.12543917 -0.25367606 -0.18618166 -0.24931106
0000b0 05 6d fa be 17 43 ef bd bc 77 d2 3b 1c 93 2c be
       -0.489113 -0.11682718 0.006422965 -0.16852993
0000c0 c7 2f f0 3d b7 b6 2b be de 10 08 be 34 1b 0f be
       0.11727863 -0.16768919 -0.13287684 -0.13975221
0000d0 b4 be a8 be d3 64 83 3c 3b 0d a4 3b 80 ed 48 be
       -0.32957995 0.016039288 0.00500646 -0.19621849
0000e0 3f 9e cc 3b 99 8d 03 be fe bf 19 be eb 54 7e bd
       0.0062444503 -0.12846984 -0.15014645 -0.062092703
0000f0 90 11 c6 be df 86 e1 bd 78 94 b2 bd 81 79 29 be
       -0.38685274 -0.11012053 -0.087197244 -0.16550256
000100 27 05 19 be fa 1b 48 bd d9 4f f8 3d 31 35 5d 3e
       -0.14943372 -0.048854806 0.12124605 0.21602322
000110 71 05 fc bd 34 1c 6b be 69 b2 3d be 62 6d 75 3e
       -0.12305725 -0.22959977 -0.1852509 0.23967507
000120 4e 68 81 be a3 22 88 be 7f 51 05 3d 2c 5d d5 be
       -0.2527489 -0.26588926 0.032548424 -0.41672647
000130 65 5c ab 3d 5c 46 42 3e 4f 4f 54 3e f0 52 52 3e
       0.08367232 0.18972152 0.20733379 0.2053945
000140 ac b4 c7 be dc ea 9e be 17 27 ca be 42 3f 15 bd
       -0.3900503 -0.31038558 -0.39482948 -0.03643728
000150 05 a5 bf be 81 44 10 be b3 73 7f be 8e 8a 18 3e
       -0.37430587 -0.14088632 -0.2494648 0.14896604
000160 cd 01 40 be 89 37 b0 3d cc 25 c2 bc 47 81 a9 be
       -0.18750687 0.086043425 -0.023699664 -0.33106443
000170 a0 bf b8 3d 09 dc 8a be 26 53 11 3e 7e 00 bb bc
       0.090209246 -0.27120999 0.14191875 -0.022827383
000180 b2 19 94 be e0 53 0f be 22 fa 50 3e 1b df 04 bd
       -0.28925854 -0.1399684 0.20407918 -0.032439332
000190 de cf 96 3c 23 2c ab be 2b 42 f3 bd 5e ea 0e be
       0.018409666 -0.3343211 -0.11877855 -0.13956591
0001a0 df 40 04 bd a2 fc 33 be 2d 19 be bd da 99 fc bd
       -0.03228843 -0.1757684 -0.09282146 -0.12334032
0001b0 0e bf b3 be ef 51 11 be 96 29 32 3d 9e 2c e2 bc
       -0.351067 -0.14191411 0.04349669 -0.027609166
0001c0 77 ee bf 3c a2 83 47 3d 80 11 0f 3c 96 68 80 3d
       0.023429139 0.04870952 0.0087322 0.06269948
0001d0 a0 71 1c be 5b 66 b0 bd 8e 13 99 be 5e d1 4d be
       -0.1527772 -0.08613273 -0.29897732 -0.20099398
0001e0 01 54 8e 3d 18 1f 19 3d d5 50 82 be 8c 41 44 bc
       0.06949616 0.03738317 -0.25452295 -0.011978518
0001f0 2b f2 98 bd 13 5c b1 bd 1e 0b 11 3e 5f d5 93 be
       -0.07468065 -0.0866014 0.14164397 -0.28873727
000200 ec d9 d5 3d 17 39 02 3e af 66 0f 3e 02 11 32 be
       0.10441956 0.1271709 0.14004014 -0.173893
000210 7f e0 c5 bd b0 ce a8 bd ff 3b 4d 3d 8f cb 07 bd
       -0.0966196 -0.082425475 0.050106045 -0.033153113
000220 2c 39 85 3d 3f 28 5d bd 09 35 85 bd 48 f3 ab bd
       0.06505045 -0.05399346 -0.06504256 -0.083960116
000230 86 64 26 be 8f 8b 0e 3e 1d 2b 8e bd 7a cc eb bd
       -0.16249284 0.13920425 -0.06941817 -0.1151361
000240 89 71 ac be c8 77 27 3e 11 ac b4 be 60 3b 5a 3e
       -0.3368037 0.16354287 -0.35287526 0.21311712
000250 74 44 0f be 49 b0 28 bc 9a dd 2a 3e 26 3b 68 be
       -0.13990957 -0.010295936 0.16686097 -0.22678813
000260 79 d8 28 bd d8 2f 5f 3e 24 b6 52 be de 50 9f 3d
       -0.04122207 0.21795595 -0.20577294 0.07779096
000270 d3 53 69 3e 27 e1 04 be fb f4 22 3d a4 4a 6d be
       0.22785883 -0.12976514 0.039784413 -0.23173004
000280 fd 4f 30 be 7e bc 01 be e6 bd df bd 9b 69 39 be
       -0.17218013 -0.1266956 -0.10924892 -0.18106692
000290 dd f1 e6 3d 4e ca 38 3e 6c b4 b0 be 2e ac d1 bd
       0.112766005 0.18045923 -0.3451265 -0.10237919
0002a0 2d 5f ba 3c d1 4b 0e be be 5e 08 3e 93 49 d5 bd
       0.022750461 -0.13896109 0.13317391 -0.10414424
0002b0 6e b8 2f bd d7 f2 6a bc a9 0b a6 bd 27 c9 31 3e
       -0.042900495 -0.014340124 -0.08107693 0.1736189
0002c0 fe 80 da bb d7 d4 c0 bd 2f 4c b5 be 17 00 3f be
       -0.006668209 -0.09415596 -0.35409686 -0.18652378
0002d0 06 69 4b be d1 22 72 bb 2a 97 9a be 6f 7a b2 be
       -0.19864282 -0.0036947022 -0.30193454 -0.34859034
0002e0 0f db 2b be 39 0c b8 3d f2 72 c6 be b2 b7 15 be
       -0.16782783 0.08986706 -0.3875957 -0.14620855
0002f0 dd 8c 34 be 1b 47 46 be 1e 65 cd be c3 48 a9 bd
       -0.1763186 -0.19363062 -0.4011621 -0.08265831
000300 90 28 59 be 3c 0b 08 bf 2a b2 82 be b2 f3 fb be
       -0.2120688 -0.5314214 -0.25526553 -0.49209362
000310 58 7e 06 bf cd 09 8a be 52 08 bf bd 4e 54 15 be
       -0.52536535 -0.26960602 -0.09327759 -0.14582941
000320 60 34 fc 3c 24 b6 84 be a7 c8 d8 bd 24 f5 02 bd
       0.030786693 -0.25920212 -0.105851464 -0.031972066
000330 61 f3 fb bd 38 c7 a5 be 54 51 75 be 31 29 1f be
       -0.1230228 -0.32378554 -0.23956805 -0.15543057
000340 e9 e9 1f be 1e 46 db bd 01 67 52 be bb 70 ae 3a
       -0.15616573 -0.10706733 -0.20547105 0.0013308743
000350 50 9a 7b 3e 5b ac 05 bd e1 6b ea bd 38 7e 80 bd
       0.24570584 -0.032635074 -0.114463575 -0.06274074
000360 cc 35 e4 bd 37 04 a7 3c 81 3b f7 3d 39 c0 ec bd
       -0.111430734 0.020387752 0.12071896 -0.11560101
000370 9e 3b 04 bd 39 cd 77 bd 4b a4 92 bd e3 72 34 3e
       -0.032283418 -0.06049845 -0.07160243 0.17621951
000380 f3 45 ba be 2f 78 48 be 19 d8 b4 be b5 a5 1f bd
       -0.36381492 -0.19577096 -0.3532112 -0.03897639
000390 3b 5e a5 be 5d 88 5e 3c aa 20 f0 bc c6 19 f7 3d
       -0.32298455 0.013582316 -0.02931245 0.12065463
0003a0 60 a0 1a be 1a 50 7c be 39 6f 97 bd 03 00 cb 3d
       -0.1510024 -0.24639931 -0.07394261 0.099121116
0003b0 36 26 36 be 1e 91 37 be 27 b9 fa bd 4e aa b5 be
       -0.17788014 -0.17926452 -0.12242346 -0.35481495
0003c0 3c 85 ad 3b 88 3d 15 3d 42 f8 8e bd fc df ba bc
       0.005295424 0.036435634 -0.06980945 -0.022811882
0003d0 50 a5 29 be 00 25 04 be 0f cc e3 bd 6d f9 60 be
       -0.16566968 -0.1290474 -0.111229055 -0.21970148
0003e0 a1 70 fc bc 86 bd f6 bd f5 a3 35 be 66 33 ef bc
       -0.030815424 -0.120478675 -0.17738326 -0.029199313
0003f0 01 3a 25 bd ac b3 27 bd 1e e0 50 be e8 35 b8 bd
       -0.04033852 -0.040942833 -0.20397994 -0.08994657

layers.2.bias f4 [16]
000000 67 51 ba be b3 d4 b8 be 66 8a 07 bf 8c 74 cd be
       -0.3639023 -0.36099777 -0.52945554 -0.4012798
000010 bc b8 a6 be 80 2d b7 be fa 61 ac be a0 6f a5 be
       -0.32562816 -0.357769 -0.336685 -0.32311726
000020 ea b7 0e bf 04 2b 99 be 19 a2 c4 be f6 c6 95 be
       -0.5574938 -0.2991563 -0.3840492 -0.29253358
000030 ab 9a 07 bf 7b 38 b0 be 9e bf d7 be 61 43 ca be
       -0.5297038 -0.3441809 -0.4213838 -0.3950453
