src/features/VGAE_BW.pth (torch, 7639 bytes, 6 tensors)

layers.0.weight f4 [11, 32]
00000000: 2c93 85be e80a 47bd 0a5e 6fbd 979d 5c3e
00000010: 0e4e 613c f05f d33d de85 1ebe d441 17be
00000020: dd03 ea3e 7c27 2e3d a97b cd3e 32cb d9bd
00000030: 943d 9cbe b26e 8d3d a493 3dbc fec8 b4be
00000040: 9812 7cbe e265 b03c 50f9 d83e a3e6 1a3e
00000050: 03e0 b0be ca86 65be d9fe 2f3d c956 57be
00000060: 2691 cfbd a2b1 983e cb23 233e 3495 1b3e
00000070: f659 85be 511c 573e d870 debd 2fba 89be
00000080: 9b9b 3fbe 1364 183e a1a0 5ebe 10a7 b7be
00000090: 1a56 b0bc a83b a53d d7f3 3dbc 359e 8abd
000000a0: b3ba d8be d626 a7be 40b5 403b 86cd e03e
000000b0: 5252 98be 2e4f 81be 3286 8dbe 00c8 b2be
000000c0: 606a a73e c863 483e c110 f53b 8d43 e2bb
000000d0: fab4 35be 53c0 833e cf51 a9be 2497 a93e
000000e0: dac3 983e a417 4fbe 8b65 b83e 9608 51be
000000f0: 5720 213e 0531 7abe 39c0 0ebe f86c 9abe
00000100: 4f09 9b3d 701d 8cbe 5836 c6be 729a d5be
00000110: fcac 7dbe 0f7c 653e 6560 c2be ac4b 8f3c
00000120: 08bf 0a3e 28c9 98be 3403 173e c665 31bc
00000130: f7be 8c3e d138 453e 068c 20be dd9f 7ebe
00000140: 2da5 8fbe 0c65 733e 8946 803e 4c78 abbe
00000150: ce55 873d 0d57 e03c 8007 84be f31c a8bc
00000160: 121d 85be 1316 2c3d 8354 3cbe 7f03 d9bd
00000170: 9dd1 1a3c ed2c ff3d c670 80be dca7 64be
00000180: 2af4 22be 9441 94bd 4466 c3be bc4d 31bf
00000190: f3eb 983e c294 1a3c fd26 fa3c b532 323e
000001a0: 4b5b bbbd 79b5 00be 9b72 05bd 4a7f 303e
000001b0: 1966 f63c aabe 7a3e 3813 b9be c9a2 6fbe
000001c0: 8407 78be 8137 dabd 5fdf d9be 8e63 db3d
000001d0: f906 2ebd c3b9 453e 7d20 16be 8bda 9b3e
000001e0: e0a6 9bbe d613 4dbe 8f1e f03e 5a49 65bb
000001f0: a501 a03e 9424 643d affc abbe 721b 79be
00000200: 6d1d 5ebd c9c5 b1bd 06f9 11be fafc 623d
00000210: 33c2 45bd bf5a 5a3e 91e4 dbbe 521d 00bc
00000220: fdcd 143e 08fd 56be 0c76 32be de1d 003f
00000230: 5be7 a0be 032b 2cbe 5c1f b3be 56e2 96be
00000240: 4aa0 8ebe f65b 2c3d 78d9 5c3d 7841 27be
00000250: 9dbd d33e e6c4 893e 04e6 cabe ede6 de3e
00000260: b4ec 2fbe c948 d63d 1aaf fc3e fdc0 93be
00000270: 822c 5abe 399f d6bd 16a3 52be b5b2 20bd
00000280: 5f1c 5dbe ea94 06be f6d9 ad3d f3bf 893e
00000290: fc83 ff3c ede6 6c3d 436c 183e b707 873e
000002a0: ecf7 1a3e cb84 303e 30e0 adbe 56d0 903e
000002b0: 5569 0a3e 2da8 d9bd 8783 60be 98a5 42be
000002c0: a580 99be 3435 1cbd bbb4 a6be f5c5 7b3e
000002d0: 3340 98bd ef47 633e 67d9 8c3e 2647 bb3d
000002e0: 2cbb d33d f962 a6be 44e8 8e3d a4f7 4d3d
000002f0: 55df 3abd 3f9c 9e3c 6c72 3a3e c0b1 7abe
00000300: 5a02 0cbe 47c7 abbe 352d 5a3e 887f e3bd
00000310: eca4 d23c 0252 a23d 740a bdbc 8722 7e3e
00000320: 7ca8 b83d 8be2 65bd 90f5 e13d 02e0 d63e
00000330: 2aab 98be bcc5 2d3d 7d54 743d 452f 9abe
00000340: ab9a a1be 6f3e bbbd 004d d43d 81ff 903d
00000350: 98b0 a9bd 994d a33b 19d5 20be 4990 003f
00000360: 4f9f a8be 0387 adbd 3590 6d3d 5415 7bbd
00000370: 2781 bdbe 80fa 153e 0a87 29be e1f1 40be
00000380: 3940 823e 2110 1cbd 89aa cc3e 0f59 b2bd
00000390: a165 9fbe c43c e3bd e563 643e c9d6 bcbe
000003a0: 32e1 523e 00ee df3e ba5e c13e 905b edbe
000003b0: 9614 ebbe 29e6 ae3e 5194 cb3d 2038 84bd
000003c0: f4ca b7be 6fa0 12be b3f1 fc3e f25c f3bd
000003d0: 958c 50bd 3479 8cbe d8a1 7c3d b3ca 0dbf
000003e0: bc29 c53d cd4b d3be d70c 1cbf 8b6b 22be
000003f0: 54eb f23e 32f1 933e ef3f 213b 97d5 88be
-0.26088846 -0.048594385 -0.058439292 0.21544491 0.01375152 0.10321033 -0.15480754 -0.14771205
0.45706072 0.042518124 0.40133408 -0.106344596 -0.3051573 0.06905879 -0.011570845 -0.35309595
-0.24616468 0.021532957 0.4237771 0.15127043 -0.34545907 -0.22414699 0.04296765 -0.210292
-0.10135107 0.29823023 0.15931623 0.15193635 -0.26045197 0.21006896 -0.10861367 -0.2689986
-0.18711703 0.14881925 -0.21740963 -0.35869646 -0.021525431 0.08068019 -0.0115937805 -0.06768457
-0.4232994 -0.32646817 0.0029404908 0.43906802 -0.29750305 -0.25255722 -0.27641445 -0.34918213
0.32698345 0.19569314 0.007478804 -0.0069050253 -0.17744818 0.2573267 -0.33070228 0.33123124
0.29836923 -0.20223862 0.3601497 -0.20413432 0.15734993 -0.24432762 -0.13940515 -0.30161262
0.07570135 -0.2736621 -0.38713336 -0.41719395 -0.2477302 0.22410606 -0.37964168 0.017492138
0.13549435 -0.2984097 0.14747316 -0.010827487 0.27489445 0.19259955 -0.15678415 -0.2486567
-0.28055707 0.23769015 0.25053814 -0.33490217 0.06608163 0.027385259 -0.25786972 -0.020521617
-0.2599874 0.04201324 -0.18391614 -0.1059637 0.00944939 0.12459741 -0.2508604 -0.22329658
-0.15913454 -0.072390705 -0.3816396 -0.6925924 0.29867515 0.009434881 0.03053617 0.17402156
-0.09148272 -0.12569226 -0.03258 0.17236057 0.03007798 0.24486795 -0.36147475 -0.23401941
-0.24221617 -0.10655118 -0.4255323 0.10712348 -0.04248712 0.19309144 -0.14660831 0.30440173
-0.30400753 -0.20027098 0.46898314 -0.0034986348 0.31251255 0.055698946 -0.3359122 -0.24326876
-0.05422728 -0.08680303 -0.14255151 0.05541704 -0.048280906 0.2132368 -0.4294782 -0.0078194905
0.14531703 -0.20994961 -0.17427844 0.50045574 -0.3142651 -0.16813283 -0.34984863 -0.29469556
-0.27856666 0.04207989 0.05391833 -0.16333568 0.413556 0.26908034 -0.39628613 0.43535557
-0.17180139 0.104631014 0.49352342 -0.28858176 -0.21306041 -0.10479588 -0.20570025 -0.03923293
-0.21592854 -0.13142744 0.084888384 0.26904258 0.031190865 0.057837415 0.14885049 0.26373073
0.15133637 0.17238156 -0.33960104 0.28283948 0.13516743 -0.1062778 -0.21925174 -0.19008482
-0.2998096 -0.038136676 -0.3255976 0.24587233 -0.0743412 0.22195409 0.27509615 0.0914443
0.103384346 -0.32497385 0.06977895 0.050284997 -0.045623142 0.019361613 0.18207711 -0.24481869
-0.13672772 -0.33550474 0.21306308 -0.11108309 0.025713407 0.07925798 -0.023076274 0.24817859
0.09016511 -0.05612425 0.110331655 0.4196778 -0.29818088 0.042424902 0.059650887 -0.3011419
-0.31563315 -0.09142768 0.10366249 0.070799835 -0.08285636 0.0049836156 -0.1570629 0.5022016
-0.32934043 -0.08473017 0.057998855 -0.061299637 -0.37012598 0.1464634 -0.1655542 -0.1884227
0.25439623 -0.03810132 0.39973858 -0.08708393 -0.31132224 -0.110955745 0.22303732 -0.36882618
0.20593718 0.43736267 0.37767583 -0.4635892 -0.45914143 0.34159973 0.099403985 -0.064560175
-0.35897028 -0.14319013 0.49403152 -0.11882962 -0.05091532 -0.2743622 0.061677784 -0.5538742
0.09627101 -0.4126877 -0.6095709 -0.15861337 0.47445166 0.28894955 0.0024604758 -0.26725456

layers.0.bias f4 [32]
00000000: ed74 b9bd 0000 0000 a89a 833d bf82 9a3d
00000010: 7f0f aebd ff9d ab3c 9e01 b5bd 0000 0000
00000020: b079 1d3c 999a 683d 598d 0f3d 115f 223d
00000030: ff2f 86bd d7f5 0c3e 82fd bcbd 0000 0000
00000040: 0000 0000 0000 0000 258c 1f3e 0000 0000
00000050: f332 68bd 5c6f 96bd 570f 00be 621c e3bb
00000060: 0000 0000 53f1 12bd b510 bb3c 811f bcbd
00000070: 5684 f13d 4d92 01bc bb19 54bd e51d c3bd
-0.09055505 0.0 0.06425983 0.07544469 -0.084990494 0.020949362 -0.08838199 0.0
0.009611532 0.05678806 0.03504691 0.039641444 -0.06552123 0.13765655 -0.0922804 0.0
0.0 0.0 0.15580805 0.0 -0.056689214 -0.07345459 -0.12505852 -0.0069308737
0.0 -0.035874676 0.022835115 -0.091856964 0.11792819 -0.007908416 -0.05178235 -0.09527186

layers.1.weight f4 [32, 16]
00000000: 0f9a 6f3d cc1f 68be 2700 393e 3ea4 aebd
00000010: 01ed 563b 81de 3a3e f3f7 613e 3b59 c1bd
00000020: 561e 09be b3d4 39be 80b5 133e 23f5 bfbd
00000030: 7b79 c93b 92f7 383d 8966 aa3c c320 43be
00000040: d61f a03e e3fb 50be 555a dbbd 87da 9abc
00000050: 4a44 a2bd 1236 5b3d cd0d 223e f94b 88be
00000060: 2c33 dcbd 5a46 383e 9af5 b03e eb00 673e
00000070: af00 97be 151b afbe aae6 8bbe 9000 20be
00000080: 3938 eb3d 0cf3 863e fdb6 183e b874 51bc
00000090: b6dd 61be 65fd 53be 3469 983c 0a2f 22bd
000000a0: ddba 113e 2771 0ebe 14a3 a03e e362 28bc
000000b0: 764a 9c3c fe17 673e d665 afbc 3362 4d3e
000000c0: 619a f2bd 96d3 803e d18a 25be fdb5 1d3e
000000d0: e7aa 95be 513f 25be 55e3 513e 86bb 46be
000000e0: 0cbb be3d b172 833d c139 d73d aaec 853e
000000f0: 649c 2b3e e0b3 703e a42e 5d3e 23da 3c3e
00000100: 1cbe 923e 703c 25be f5b7 823e 118e 01be
00000110: a9bc 153e a224 42be 9ebc 89bd 9694 7fbe
00000120: 59e6 613e df43 9cbe a113 0abe cbf0 3ebe
00000130: 57b0 a73d d17d 5e3e 46c1 eebd d92f 90be
00000140: 7c9c 84be 61fe 133d 7956 783e 5170 3cbe
00000150: 387c 823e bf54 9a3c 02a5 c83d dfc2 b9be
00000160: fcde 943c 619e a43d 6a17 72be 1a96 67bd
00000170: dbee 60bc 2639 10be 28aa 763e 8a62 b73b
00000180: 335c eebd 3c0c e0bd 9d68 733e 7659 56be
00000190: cb99 0f3e 8339 ebbd 848b 553b b211 f8bd
000001a0: ded7 0dbe a964 533e 1798 d53d c335 d5bd
000001b0: 30e5 583e c431 e5bd ee7b b53e ea7f 983e
000001c0: 86d5 b4be a934 a83d 8c48 a63e b6ba afbe
000001d0: b4ba cd3d f2aa 3d3d f674 e3bd f3a7 a6bd
000001e0: d6d2 25be 045c 3d3d db11 20bd 0541 8abe
000001f0: 6714 a13e 9a28 b2be 1851 af3e 6b86 4a3e
00000200: 1135 973d 91cb 07be 8ff0 023d 91a7 893e
00000210: d83f 25be 8b1c 8c3d fd70 b4be f338 073b
00000220: 9c76 453e d10b 8b3d 7491 c23b 3c29 73be
00000230: 9121 d83d 7a9e 64bd c1a4 59be 4fd6 d13d
00000240: cd4e 02be bcc8 c73d b09b 48be b522 ee3e
00000250: 5978 abbe 59b3 80be 09dc 5b3e d07f 97bd
00000260: 8ed0 263f 31f3 d1be b7fe 3f3e 5118 053e
00000270: 36fb a83e 10f9 f33d bc4d 9f3d 4d19 963e
00000280: b602 9cbe 7371 6c3d 23fb 753e d2af 493e
00000290: 3a0c fdbc 5903 f63d 25c3 2a3e cd1a 3a3e
000002a0: c1ff 7d3d 2419 4dbe 6efc 13be ab47 723e
000002b0: 1cc0 bfbc 06ef 0f3e 00b2 283e 1e86 ea3e
000002c0: 9618 5d3d f657 c93d 305f c1bd cb38 8ebe
000002d0: ad8a 9a3e c4d9 1e3d eba2 3c3e 3aaa 5ebd
000002e0: 2f3e fcbe 7bf7 d13e 8b80 03be 825f 8c3d
000002f0: e7bd 16be e714 cebd bf01 0abd 9843 19bf
00000300: 20c1 4cbe 0501 8c3e c5b9 563d 4a6d a23e
00000310: 0985 a63e 2ce7 31be f9e8 5b3e f220 d33c
00000320: 867f d83d 1c1b 4cbe fbb5 89be d5fb 7b3e
00000330: c818 84be e0a4 75be 4c44 693e 9e45 39be
00000340: c316 303e d0f8 fa3d 85b1 bd3d 80c1 cd3e
00000350: f574 203d 222a d7bd 4502 9c3e cec1 13be
00000360: f4b8 a43d d36e 42be 0432 8b3e ebec f83d
00000370: 3914 17be 78b6 56bd 8209 24be bf62 463e
00000380: 594f 84be 0b92 543c 5d9b a2bc 9a75 94be
00000390: c6b6 763d 36a5 02be 81b2 c43d d245 aa3e
000003a0: d6cf e0bb dc38 e03d 6b32 1b3e 78c0 9abe
000003b0: f3fe 19be cb29 66be c0e6 4b3d 2a92 133e
000003c0: b9fc 20be 7db7 c73d 7521 45bd ba1c 5fbe
000003d0: 8b79 3ebe b815 3c3e 3df5 213e 38de 8a3e
000003e0: 6c57 9fbd e2ad 943e 181a 873c 55b7 843c
000003f0: 1d83 2a3e 172e a1be f41b 963e b2f2 173e
0.05849653 -0.2266838 0.18066464 -0.085274205 0.0032795074 0.18248941 0.22067241 -0.094408475
-0.13390478 -0.18147545 0.14424706 -0.09372928 0.006148515 0.045157976 0.020800846 -0.19055466
0.3127429 -0.20408587 -0.10710589 -0.01890303 -0.07923181 0.053518362 0.15825577 -0.26620463
-0.10751948 0.17995587 0.3456238 0.22558944 -0.2949271 -0.3420035 -0.2732442 -0.15625215
0.11485333 0.26357305 0.14913554 -0.012784176 -0.22057232 -0.20702131 0.018604852 -0.03959564
0.14231439 -0.13910352 0.3137442 -0.010277483 0.019078474 0.22567746 -0.021410864 0.20056991
-0.11845852 0.25161427 -0.16166236 0.15401454 -0.2923195 -0.16137435 0.20496877 -0.19407472
0.0931302 0.0641836 0.105090626 0.26157123 0.16758877 0.23506117 0.21599823 0.18442588
0.28660667 -0.16136336 0.25530973 -0.1265185 0.1462275 -0.18959287 -0.06725429 -0.24959025
0.22060527 -0.30520532 -0.1348405 -0.18646543 0.08187931 0.21727683 -0.11657958 -0.28161505
-0.25900638 0.036131267 0.24251737 -0.1840222 0.25485396 0.018839238 0.09797098 -0.36281487
0.018172733 0.08038021 -0.23641744 -0.056539632 -0.013728823 -0.140843 0.24088347 0.0055964636
-0.11638679 -0.109398335 0.23770376 -0.20932564 0.14023511 -0.11485579 0.0032584378 -0.1211275
-0.13851878 0.20643868 0.104293995 -0.10410645 0.21181178 -0.11191133 0.35446113 0.2978509
-0.35319155 0.08213169 0.32477224 -0.34322137 0.100453764 0.046305604 -0.11106293 -0.081375025
-0.16193709 0.04623033 -0.03907953 -0.2700273 0.31460878 -0.34796602 0.34241557 0.19777839
0.073831685 -0.13261248 0.031967696 0.26885656 -0.16137636 0.06841382 -0.35242453 0.002063331
0.19283527 0.06789363 0.0059377495 -0.23746198 0.10553277 -0.055815198 -0.21254255 0.10245954
-0.12725373 0.09755084 -0.1959064 0.46510854 -0.33490255 -0.2513683 0.21470656 -0.07397425
0.6516198 -0.41005853 0.1874951 0.12997557 0.3300416 0.11912739 0.077784985 0.29316178
-0.30470818 0.05772538 0.24021582 0.19695976 -0.03088962 0.12012357 0.16676004 0.18174286
0.062011484 -0.20029122 -0.14451763 0.23660152 -0.023407035 0.14056024 0.16474152 0.45805448
0.053978525 0.0983123 -0.09441984 -0.27777705 0.30183926 0.038781896 0.18421523 -0.05436156
-0.49266192 0.41009125 -0.12842004 0.06854154 -0.1472088 -0.100625806 -0.03369307 -0.59868765
-0.19995546 0.27344528 0.052423257 0.31724006 0.32523373 -0.17373341 0.21475591 0.025772545
0.10571198 -0.19932216 -0.26896653 0.24607785 -0.25800157 -0.23988676 0.2277996 -0.18092963
0.17196183 0.122544885 0.09262375 0.4018669 0.03917404 -0.10506083 0.30470482 -0.144294
0.080430895 -0.18987589 0.27186596 0.121545635 -0.14753808 -0.05242011 -0.16019252 0.19373606
-0.25841787 0.0129742725 -0.019849474 -0.28995973 0.0602329 -0.12758335 0.096043594 0.33256394
-0.0068607135 0.10948345 0.15155952 -0.30224967 -0.15038662 -0.2247688 0.049780607 0.14411226
-0.15721406 0.097517945 -0.04812761 -0.21788302 -0.18601052 0.1836766 0.15816207 0.27122664
-0.07780346 0.29038912 0.016491935 0.0162007 0.16651578 -0.31480476 0.29318202 0.14838675

layers.1.bias f4 [16]
00000000: e9df a8bc a2e4 343b f357 133d 60f6 ec3b
00000010: 391c 7b3d 7855 bf3d ab47 1abd f172 42bd
00000020: 3ccb 2b3c 3516 843d 7bda 2ebd 74be b0bd
00000030: 085a d93d cd25 71bd 7912 8c3d 2c17 233d
-0.020614581 0.0027602096 0.035972547 0.0072315186 0.061306212 0.09342474 -0.037666004 -0.047472898
0.010485467 0.06449548 -0.042688828 -0.08630076 0.10612875 -0.05887394 0.06839461 0.03981702

layers.2.weight f4 [32, 16]
00000000: 5d93 8cbe 17ad a4be 3645 f23d 06ce fe3d
00000010: 119d cdbe 8627 253d de29 1e3e cf35 643e
00000020: 8511 65bd 84a9 79be fa2d eb3d 5887 253e
00000030: cf62 b0be 08ff 3abe d67b c8be d194 97be
00000040: 5073 b0be 40d3 63be 416e 3bbe 7e8a 993e
00000050: 7854 853e 85a3 7cbe 932c 9b3e eb64 353e
00000060: 0ac9 70be 83f1 65be 8784 89be 9a78 55be
00000070: b49a 933e 978d 783e d970 d73d 9678 80be
00000080: a572 8e3b 2aa0 b5be f3a7 39be 85a4 d23d
00000090: 05bf 9a3d 8c74 d0be 1193 a6be 2afb 003d
000000a0: 5d57 c8be 6ab7 aabe 095e d73c b2d1 4ebe
000000b0: 49cb 51be 6bc5 c13d 6aec a5be 5a79 94be
000000c0: a2e9 39be 0b24 a5bd 8b34 653e 1bf5 2f3c
000000d0: 3b4b 0ebe c5a2 87be 998b 99bc ce77 47be
000000e0: f890 0bbe 8d11 b1be 40ed 89be e33d 8fbd
000000f0: 2bf0 96be ead0 83bd 72b4 60be 9da6 21be
00000100: 117b 98bc 2a1a 2bbe bf6b 0bbe 54dd 223e
00000110: 5cda 4ebe 492d c43c 44af 6fbe b5de 853d
00000120: 9762 503d 2ec1 7ebe cd7d b4bd 8893 aebe
00000130: b2ed acbe 5206 463e ab95 cc3c 4875 903d
00000140: 6f1d 943e 7bac a5be b665 76be 28dd 043d
00000150: c12e 9e3d 6552 9abe cea8 8ebe 7685 44be
00000160: 5f29 3dbe 5d75 1e3e 3196 413d 594e 5bbe
00000170: 1e8d 16bd 63bb 4dbe b422 8ebe 10b6 d53c
00000180: 4414 9dbe 4423 10be 25a7 babe 3035 063e
00000190: b208 d13d 03e4 bf3d ee8f 003e 1a44 10be
000001a0: 5c0e 033d 6c6c 81be 414f 243e ca34 b0be
000001b0: e38a 3c3e 107b 42be e5f0 c4be 1ab4 b8bd
000001c0: 00c0 46be 2423 55be 64d4 71be 96ed 2d3e
000001d0: 2a13 623e 36e9 743c 80de c13d c205 b73d
000001e0: b6e6 29be df65 d2bd cb00 643e 665e 483e
000001f0: 5632 09be 93fc cdbd 7654 2bbe d79b 1ebc
00000200: 2daf 75bc 3831 d6be e89c 34be 3025 aabe
00000210: f47a 79be 2e79 d63d 0b24 aebd 0c12 8e3d
00000220: e3ad a53c cc90 c6be 1db2 9b3d 530d b2be
00000230: ef2e 4ebe c45e e6be 009e b2bd 0675 f73b
00000240: 1a39 733e 60c0 dabd 0856 83be c29c a9be
00000250: aa3c c6be 2ad4 c3bc 706d f3be 6b6c e5bd
00000260: 0ed5 00bf a483 1fbe a8ae 9ebe 778b ddbd
00000270: 8e52 053d a748 33be ed53 d23d 0478 2c3d
00000280: 60dd c8be af5c 80be f4fd 8abe 54d7 acbe
00000290: 6f9d 82be 7750 a4be 3dbd c2bd 7383 4bbd
000002a0: 7494 dabe b810 93bb fcb7 edbe 5884 f53d
000002b0: 60d8 1bbe 13dc c1bc f970 75bb b410 31bd
000002c0: 0aa5 2f3e 64ff c63d 01f7 82be ffac fbbe
000002d0: c7e0 b2be 44dd 8cbe 20d0 ccbe c0e6 a2be
000002e0: a7a3 bfbe a73c 96be e288 20bc 6a1a 1bbe
000002f0: c315 2cbd 5e22 afbe 09cb 95be 2f41 963d
00000300: 1aa4 2cbe 10bd 9d3d e931 4ebe 4954 f7bd
00000310: 0b70 9bbe fa07 1d3e 148d 953d 41bb d4be
00000320: 714e 063c cbd8 ec3d 6dab 68be 52d2 bdbe
00000330: d098 6abe feda 93be da9e b3bd f695 bbbe
00000340: a6af 81be ec09 89be bba2 41be dfde a6be
00000350: 7c7b bdbd dc1c 063e 9a50 613d e9d3 a1be
00000360: 20df febe 6d33 d13c 5118 d8be 52f0 573c
00000370: ae7d dfbe e8f4 0d3e c9ab 2cbe ff7a 03bf
00000380: 31f2 41bd e13f cbbd 8e85 10bd 132a b7be
00000390: daf9 dbbd 12f5 25b9 1977 b4bb 307f 18bc
000003a0: 341f a0be aed2 47bd 74ee eb3d cf37 d1be
000003b0: 849e 8f3e 5dd5 943d ab37 e73c fe84 20be
000003c0: 4ecb 923e 5c24 593d 6cd3 b03e 569f 873e
000003d0: d920 15be 2d3e 5cbd bc97 8bbe 75db 22be
000003e0: 70ee 18be 7d3a 3e3d 7a21 633d 51de 533e
000003f0: 986c 97be 2f30 65be 91bb 8ebc 56b4 8fbe
-0.2745618 -0.32163307 0.11829607 0.124416396 -0.40158895 0.040320896 0.15445659 0.22286151
-0.05592491 -0.24381071 0.11483379 0.16164911 -0.34450385 -0.18261349 -0.3915698 -0.29605725
-0.34462976 -0.22248554 -0.18303777 0.29988474 0.26041007 -0.24671753 0.30307445 0.17714278
-0.2351419 -0.2245541 -0.26858923 -0.20846787 0.28828967 0.24272762 0.10519571 -0.25092
0.004347163 -0.35473758 -0.18130474 0.10285286 0.07555965 -0.40713918 -0.32534078 0.03148953
-0.39129153 -0.3334306 0.026289957 -0.2019718 -0.20487703 0.094614826 -0.32406932 -0.28998834
-0.1815553 -0.08063515 0.22383325 0.01073959 -0.13895886 -0.2649137 -0.018743323 -0.19479296
-0.1362952 -0.34583703 -0.2693882 -0.06994226 -0.2948011 -0.064363316 -0.21943834 -0.15786214
-0.01861337 -0.167092 -0.1361532 0.15904742 -0.20200485 0.023947375 -0.23406702 0.065366186
0.050875273 -0.2487838 -0.08813057 -0.34096932 -0.33775097 0.19338349 0.024973711 0.070536196
0.28928706 -0.32358155 -0.24062237 0.032437474 0.07723761 -0.30140987 -0.27863163 -0.19191536
-0.18472813 0.15474458 0.047262374 -0.21416606 -0.036755674 -0.20091014 -0.2776085 0.02608779
-0.30679524 -0.14075953 -0.36455646 0.13106227 0.102067366 0.09369662 0.12554905 -0.14088479
0.031996116 -0.25278032 0.16045858 -0.34415275 0.18412356 -0.18992257 -0.38465038 -0.09018727
-0.1940918 -0.20814186 -0.23616177 0.16985163 0.22077623 0.01494818 0.09466267 0.08936645
-0.16591915 -0.102733366 0.22265927 0.1956726 -0.13398108 -0.1005794 -0.16731438 -0.00968071
-0.014995378 -0.41834426 -0.1763798 -0.33231497 -0.24363309 0.10472332 -0.085029684 0.06937036
0.020224517 -0.38782346 0.07602332 -0.3477579 -0.20135091 -0.44994175 -0.08721542 0.007551792
0.23752251 -0.10681224 -0.25651574 -0.3312741 -0.38718158 -0.023904879 -0.47544432 -0.1120232
-0.50325096 -0.1557756 -0.30992627 -0.108176164 0.032549433 -0.17508183 0.10269914 0.042106643
-0.39231396 -0.25070712 -0.27146876 -0.33758032 -0.25510737 -0.3209264 -0.095087506 -0.049685907
-0.42691386 -0.004488077 -0.4642943 0.11988133 -0.1521926 -0.02366451 -0.003745137 -0.04322882
0.17152801 0.09716681 -0.25579074 -0.49155423 -0.34937117 -0.27512562 -0.40002537 -0.31816673
-0.37429544 -0.2934315 -0.00979826 -0.15146795 -0.04201294 -0.34205908 -0.29256466 0.073366515
-0.16859475 0.077020764 -0.20136227 -0.12076623 -0.3035892 0.15335074 0.07302299 -0.41549113
0.008197413 0.115647875 -0.22721644 -0.37074524 -0.22909856 -0.28878015 -0.08770533 -0.3663785
-0.25329322 -0.26765382 -0.18909733 -0.32591912 -0.092520684 0.13096946 0.05500851 -0.31606987
-0.49779606 0.025537217 -0.42206052 0.013179855 -0.43650573 0.13862956 -0.16862406 -0.5135955
-0.047350112 -0.09924293 -0.035283618 -0.35774288 -0.10741015 -0.00015826922 -0.0055073616 -0.009307668
-0.31273806 -0.048784904 0.11520091 -0.4086289 0.28050625 0.07267258 0.028224787 -0.15675732
0.28670734 0.05301319 0.34536302 0.2648875 -0.14563312 -0.053770233 -0.27264202 -0.15904029
-0.14934707 0.046442498 0.055451848 0.20690276 -0.29575038 -0.22381662 -0.017423423 -0.28067273

layers.2.bias f4 [16]
00000000: 4eac 47be 56d7 8cbe 8e1d 32be 0922 9bbe
00000010: 6721 57be 956c 55be 7787 3ebe 7b93 39be
00000020: 2512 7abe 21c6 83be 0a28 48be a67e 86be
00000030: d862 65be 1b83 73be afbc 6cbe acd2 86be
-0.19499323 -0.27508038 -0.17394087 -0.30299404 -0.21008836 -0.20842202 -0.18606363 -0.18122666
-0.24420984 -0.25737098 -0.19546524 -0.262685 -0.22400987 -0.23780482 -0.23118852 -0.26332605
