src/features/VGAE_TL.pth (torch, 7639 bytes, 6 tensors)

layers.0.weight f4 [11, 32]
0.069628365 -0.29723907 0.1241879 0.10264616 0.5077613 0.7466253 0.1883672 -0.2086601
-0.12910372 0.27197915 0.7765835 -0.070196666 -0.42152965 -0.45076233 -0.28644943 0.0048706112
0.11510519 -0.295573 0.2402644 0.33566716 0.5229888 0.5240276 0.032570962 -0.32464975
-0.3901538 0.26813978 -0.4190726 -0.44023672 -0.24324067 -0.041564945 -0.11001597 0.9934405
0.36736143 -0.14234136 -0.33233342 -0.081506185 0.34778887 -0.40046084 -0.14435895 -0.23836584
-0.04705665 0.26542476 0.4036726 -0.22306669 -0.20558724 0.7209754 0.011237911 -0.26544303
-0.34526 0.36839294 0.6593718 0.16996063 0.34106266 0.16773833 -0.37459207 0.34404257
-0.043998577 -0.1165865 0.33318636 -0.15411928 -0.287293 -0.3038842 -0.2930384 -0.10022459
0.010188643 0.20527636 -0.11689623 0.85363764 0.07568241 -0.54778105 0.18626058 -0.18337443
0.11820826 -0.5145886 -0.60363305 0.04928521 -0.17160171 0.51035726 -0.09409745 0.6428792
-0.1513126 0.10979227 0.19819865 0.24155445 -0.3106007 -0.048509214 -0.4187699 0.4533133
0.20235275 0.050902795 -0.48212987 0.8575575 0.28375342 -0.35940957 0.053639103 0.19543391
0.39182916 -0.21538545 -0.21738449 0.38706082 0.1913249 -0.078268066 0.25604638 0.012146414
-0.2417163 -0.16216217 0.019219797 -0.093420625 -0.34641683 0.496994 0.21601303 0.18994504
-0.115118414 0.75701267 -0.91585875 0.097014405 0.30938986 0.022088876 0.036439367 0.52237475
-0.041934073 0.774534 0.112107426 0.627039 0.4167894 0.20007892 0.20900947 0.0023803646
1.1262736 -1.6043886 0.101712026 0.58442956 0.8277112 -0.27081826 -0.20601848 0.2198134
0.23510166 0.3707515 0.92459327 -0.00062242924 -0.117834315 -0.6439419 -0.14035454 0.5943928
-0.2846122 0.4378483 0.08304721 0.015986027 -1.1321995 0.8623364 -0.4236857 0.31789467
-0.10005039 -0.2994192 0.47689942 0.63496864 -0.092587136 -0.121481024 0.4065721 0.13266061
0.07072076 -0.18544245 0.17412664 -0.2542388 -0.36621183 -0.868907 -0.1582673 0.11159819
-0.35833266 -0.55058193 -0.028118644 0.17247044 -0.12225913 -0.6355692 -0.08525004 0.24137744
-0.30318582 0.42058504 0.14432234 0.220068 -0.22394179 -0.13091339 0.2753588 0.49739525
-0.13668543 -0.1352628 -1.3164704 0.31595442 -0.5993955 0.17724481 0.36490816 0.39418003
-0.24103901 -0.6105304 -0.057815455 -0.2826361 -0.5098569 -0.20210733 -0.23505837 -0.092962354
0.44089985 0.45663765 0.1682973 0.010994774 0.2465889 0.30079982 0.49764675 -0.4516568
-0.14368865 -0.33228958 -0.46068364 0.1996194 0.6417602 0.2465304 0.008762042 0.31236488
-0.31839833 0.075209215 0.0025001979 -0.09844977 0.13437195 -0.11952264 -0.5712187 -0.006223782
0.66041493 0.5938835 -0.3660116 0.2776311 0.43448752 -0.146966 -0.28709668 -0.2670868
-0.19747472 -0.32065704 -0.040628206 -0.107318506 -0.23281932 -0.22964588 0.15410611 -0.34209213
-0.06869139 -0.14838855 0.29762194 0.16681632 0.23192304 0.24532405 -0.38827205 -0.7497795
-0.33780447 0.11961171 0.3658506 0.29645333 0.35432774 0.06593824 0.5858551 0.34643862
00000000: 5199 8e3d b82f 98be 3a56 fe3d 2638 d23d
00000010: a5fc 013f d622 3f3f 55e3 403e feaa 55be
00000020: c433 04be da40 8b3e 2dce 463f 45c3 8fbd
00000030: bcd2 d7be 52ca e6be 80a9 92be a699 9f3b
00000040: 45bc eb3d 5855 97be df07 763e 91dc ab3e
00000050: 98e2 053f ac26 063f 2169 053d 7e38 a6be
00000060: 3dc2 c7be 9e49 893e af90 d6be b566 e1be
00000070: 1514 79be 0140 2abd 0e50 e1bd 1e52 7e3f
00000080: cc16 bc3e efc1 11be 9b27 aabe b7ec a6bd
00000090: 6211 b23e 3409 cdbe d5d2 13be 2d16 74be
000000a0: 79be 40bd c1e5 873e 2dae ce3e 986b 64be
000000b0: 7685 52be d891 383f 371f 383c 26e8 87be
000000c0: ebc5 b0be 009e bc3e 97cc 283f 290a 2e3e
000000d0: c49f ae3e 99c3 2b3e 88ca bfbe 5926 b03e
000000e0: da37 34bd e7c4 eebd 6797 aa3e 72d1 1dbe
000000f0: 1118 93be b696 9bbe 2109 96be 8d42 cdbd
00000100: 44ee 263c f733 523e 4a67 efbd ff87 5a3f
00000110: 61ff 9a3d 613b 0cbf 18bb 3e3e 82c6 3bbe
00000120: 2c17 f23d 14bc 03bf b287 1abf 4adf 493d
00000130: 5cb8 2fbe c6a6 023f 2ab6 c0bd bb93 243f
00000140: b1f1 1abe c5da e03d 96f4 4a3e 0d5a 773e
00000150: 0e07 9fbe 99b1 46bd 0269 d6be ae18 e83e
00000160: 8f35 4f3e 737f 503d bad9 f6be e388 5b3f
00000170: 2148 913e 8804 b8be adb4 5b3d d41f 483e
00000180: d59d c83e 018e 5cbe 0a9a 5ebe d62c c63e
00000190: adea 433e 024b a0bd 8318 833e c101 473c
000001a0: 7a84 77be d70d 26be d672 9d3c 5053 bfbd
000001b0: 8c5d b1be ff75 fe3e 8532 5d3e f480 423e
000001c0: 34c3 ebbd 95cb 413f b875 6abf 7daf c63d
000001d0: 5968 9e3e bbf3 b43c 7241 153d 5aba 053f
000001e0: 10c3 2bbd dc47 463f 9498 e53d a185 203f
000001f0: 6c65 d53e 7de1 4c3e 9406 563e e4ff 1b3b
00000200: bc29 903f 9b5c cdbf 654e d03d 2d9d 153f
00000210: e2e4 533f b1a8 8abe 82f6 52be c416 613e
00000220: 7dbe 703e 24d3 bd3e 25b2 6c3f 852a 23ba
00000230: 1e53 f1bd 60d9 24bf 1ab9 0fbe 202a 183f
00000240: b1b8 91be a72d e03e a814 aa3d 21f5 823c
00000250: eaeb 90bf 14c2 5c3f 55ed d8be 17c3 a23e
00000260: 38e7 ccbd 794d 99be 292c f43e 4e8d 223f
00000270: 539e bdbd 0bcb f8bd 382a d03e 2fd8 073e
00000280: 0cd6 903d a0e4 3dbe 414e 323e 972b 82be
00000290: 1e80 bbbe b070 5ebf d310 22be 988d e43d
000002a0: 6177 b7be f0f2 0cbf 1259 e6bc 179c 303e
000002b0: ff62 fabd aab4 22bf 9397 aebd a62b 773e
000002c0: 2c3b 9bbe ec56 d73e 3cc9 133e 8159 613e
000002d0: ff50 65be 290e 06be d4fb 8c3e 97aa fe3e
000002e0: 44f7 0bbe 5582 0abe 1a82 a8bf c7c4 a13e
000002f0: fc71 19bf aa7f 353e 3ed5 ba3e f7d1 c93e
00000300: eed2 76be b84b 1cbf e6cf 6cbd aeb5 90be
00000310: fb85 02bf 39f5 4ebe 24b3 70be 0c63 bebd
00000320: a0bd e13e 69cc e93e 2156 2c3e 6d23 343c
00000330: cd81 7c3e 6f02 9a3e 8ecb fe3e 8f3f e7be
00000340: 1e23 13be dc21 aabe bade ebbe 0769 4c3e
00000350: 654a 243f 7772 7c3e ab8e 0f3c 4aee 9f3e
00000360: 1b05 a3be 4a07 9a3d 5cda 233b 08a0 c9bd
00000370: cd98 093e 49c8 f4bd 643b 12bf def0 cbbb
00000380: f410 293f c008 183f df65 bbbe aa25 8e3e
00000390: 2675 de3e 417e 16be 56fe 92be 9abf 88be
000003a0: d036 4abe 292d a4be c369 26bd cec9 dbbd
000003b0: 3068 6ebe 4a28 6bbe fecd 1d3e b326 afbe
000003c0: 12ae 8cbd 2bf3 17be e761 983e e6d1 2a3e
000003d0: 3c7d 6d3e 3a36 7b3e 98cb c6be 8df1 3fbf
000003e0: b5f4 acbe fcf6 f43d c550 bb3e bbc8 973e
000003f0: 726a b53e a10a 873d 9afa 153f 6760 b13e

layers.0.bias f4 [32]
-0.5414539 0.09154835 0.0 -0.51153463 -0.1742919 0.29792663 -0.088807315 0.0
0.054754436 0.24116495 -0.071656905 -0.08597205 -0.1083409 -0.16608877 -0.42109504 0.41963172
0.0 -0.036483187 0.047864813 -0.1789237 -0.35163376 -0.30345562 -0.06443712 -0.4953339
-0.06676883 -0.22620225 0.46943286 -0.44128752 0.042261533 0.0 0.40313676 0.020646319
00000000: b99c 0abf b47d bb3d 0000 0000 eff3 02bf
00000010: 9379 32be d789 983e 9ce0 b5bd 0000 0000
00000020: 3046 603d f2f3 763e dbc0 92bd 1d12 b0bd
00000030: d5e1 ddbd 2d13 2abe c599 d7be f8d9 d63e
00000040: 0000 0000 656f 15bd e50d 443d c637 37be
00000050: 5709 b4be 895e 9bbe 9cf7 83bd 689c fdbe
00000060: 19be 88bd 90a1 67be 8159 f03e 70f0 e1be
00000070: 6e1a 2d3d 0000 0000 f167 ce3e 7822 a93c

layers.1.weight f4 [32, 16]
0.5276768 -0.24307325 -0.24201533 0.0963687 -1.5078882 -0.074339 -0.48833808 -0.16780311
-0.05873425 -0.15153447 -0.14553364 -0.7351071 0.15834852 0.04894824 -0.30448025 -0.022277761
-0.9087007 0.22810821 -2.8703296 0.05927293 1.7934954 0.2550749 -2.8099153 -0.37946385
-4.9214973 0.64438623 -0.04234891 0.21796066 0.068196766 2.9492939 0.69764245 0.039086986
-0.3502897 -0.1582516 0.06202836 0.26283917 -0.26433235 -0.03409368 0.030699426 -0.1903419
-0.27838835 0.08632016 -0.15261799 -0.27423674 0.31044278 0.026488408 -0.1970382 0.07865685
-0.18041028 -0.16146052 -0.894515 0.14247046 -0.28645867 0.35722923 -0.6478345 0.52095807
2.1263275 -0.5033062 -0.1253858 -1.0648377 0.0668181 1.045901 0.16474402 0.18624844
1.0960375 -0.10942831 1.4633954 0.16083264 -1.4197145 -0.15761033 1.0771343 -0.5748357
-1.9984449 0.55906785 0.37255743 2.1414075 -0.25875852 -1.3994914 -0.2971422 -0.23169664
-0.059180174 -0.20728095 0.578937 -0.07921244 -0.098207384 0.03283455 1.8526887 0.4872629
4.0536585 -0.7071982 -0.19399023 0.15836369 0.1950325 -0.42064404 -0.07870365 -0.007429829
0.003153404 0.25518635 -0.047290128 0.12980649 0.11377842 -0.28996152 0.002382143 0.20853399
0.20376566 0.21329167 -0.39587107 0.28486812 -0.29293472 -0.030261215 0.29997647 0.18031421
0.028143095 -0.026286736 -0.31709146 0.33314088 -0.1976441 0.0072084595 -0.11211609 0.1911499
0.34425065 -0.23164645 0.15292309 0.1132646 0.33318254 -0.05068344 -0.091769196 -0.059431564
-0.12809925 -0.04257466 0.35678118 -0.1860063 0.3365228 -0.14606935 -0.40681934 -0.16538553
-0.6016906 0.1597447 -0.03172133 -0.0039611794 0.13781543 -0.20703174 0.09979466 0.12843868
0.07705246 0.16637151 0.064174004 -0.5580517 0.74859214 0.08641207 0.008976822 0.24412379
-0.643234 -0.2945953 0.20441821 0.9977648 -0.23442756 -0.692868 -0.38791195 -0.09022034
0.7597455 0.31731436 -0.13851981 -0.40951705 -0.58539635 -0.13096759 0.7262864 -0.13557868
-1.6270875 -0.341954 0.41045228 1.0967149 -0.0068183094 -1.0926741 -0.4956269 -0.43368074
-0.08231616 -0.23475121 0.09006294 0.11581189 0.20650248 -0.15301137 -0.0071209725 -0.099050514
-0.26117697 0.29377726 -0.01501027 -0.21439646 -0.2554089 0.103459984 -0.24197802 0.077726744
0.02916413 0.12280336 0.16058926 0.26781112 -0.1355497 -0.13414349 -0.053692512 0.081333406
0.13776502 0.28947422 -0.04103708 -0.110462464 0.13728826 -0.028611176 0.29281804 0.041517574
-1.0891384 0.0004105803 1.3560259 -0.98456097 -1.27976 0.0045718728 0.6780816 0.15073428
-0.80891573 -0.33851638 -0.09350534 -3.0727978 0.33723485 0.39544564 -0.26283926 0.033869073
0.17935462 -0.30996045 0.19851546 0.58803666 -0.2013579 0.32131287 -0.3547204 0.12270612
-1.2870413 0.37344128 -0.23856749 -0.21707661 0.2747867 0.4126416 -0.039492793 -0.0012397317
0.3413168 0.32023677 0.43252656 -0.24972202 2.4708188 -0.21262997 0.00026572566 -0.75320345
-0.5521538 0.34754828 0.40167475 2.2342317 -0.15615799 -0.8738861 -0.28835523 -0.4299072
00000000: d415 073f 32e8 78be ded2 77be f45c c53d
00000010: 7b02 c1bf 0c3f 98bd 7307 fabe 94d4 2bbe
00000020: 5393 70bd da2b 1bbe c506 15be fb2f 3cbf
00000030: 1d26 223e f37d 483d d6e4 9bbe da7f b6bc
00000040: 9ca0 68bf 3395 693e 7bb3 37c0 2cc8 723d
00000050: 4291 e53f 2d99 823e a7d5 33c0 1649 c2be
00000060: e87c 9dc0 7ff6 243f 0d76 2dbd 1431 5f3e
00000070: bfaa 8b3d 3bc1 3c40 b298 323f ad19 203d
00000080: 2c59 b3be b50c 22be 7311 7e3d db92 863e
00000090: 9256 87be d1a5 0bbd 5d7d fb3c fde8 42be
000000a0: eb88 8ebe a0c8 b03d e447 1cbe c268 8cbe
000000b0: 5bf2 9e3e 38fe d83c 62c4 49be d816 a13d
000000c0: 79bd 38be e855 25be effe 64bf c7e3 113e
000000d0: b6aa 92be c0e6 b63e 7bd8 25bf 825d 053f
000000e0: c015 0840 add8 00bf 2365 00be 9a4c 88bf
000000f0: eed7 883d 15e0 853f a8b2 283e e9b7 3e3e
00000100: f54a 8c3f f31b e0bd 8a50 bb3f 50b1 243e
00000110: 34b9 b5bf 9a64 21be 89df 893f 6f28 13bf
00000120: 0bcd ffbf 121f 0f3f d9bf be3e d20c 0940
00000130: ff7b 84be 8922 b3bf 0623 98be e241 6dbe
00000140: e966 72bd 7541 54be 3735 143f 223a a2bd
00000150: f420 c9bd 857d 063d e724 ed3f 867a f93e
00000160: 92b7 8140 f10a 35bf 60a5 46be 172a 223e
00000170: 9ab6 473e a85e d7be 612f a1bd ec75 f3bb
00000180: 57a9 4e3b c9a7 823e 4bb3 41bd feeb 043e
00000190: a904 e93d d675 94be ba1d 1c3b ef89 553e
000001a0: f2a7 503e 2269 5a3e 9daf cabe 3cda 913e
000001b0: 8afb 95be 5ee6 f7bc 8496 993e 4aa4 383e
000001c0: 598c e63c 4857 d7bc d059 a2be 7191 aa3e
000001d0: 3763 4abe f134 ec3b 1f9d e5bd cdbc 433e
000001e0: 9f41 b03e ba34 6dbe df97 1c3e 45f7 e73d
000001f0: e796 aa3e 7099 4fbd 7df1 bbbd 836e 73bd
00000200: 732c 03be c462 2ebd 06ac b63e 6f78 3ebe
00000210: b74c ac3e 3493 15be a04a d0be d35a 29be
00000220: 6508 1abf 1d94 233e 3aee 01bd c8cc 81bb
00000230: 7d1f 0d3e 2100 54be 2561 cc3d 6e85 033e
00000240: aecd 9d3d 4b5d 2a3e a96d 833d 7adc 0ebf
00000250: bca3 3f3f d0f8 b03d 8513 133c 96fb 793e
00000260: fcaa 24bf 32d5 96be 0253 513e 846d 7f3f
00000270: c70d 70be cc5f 31bf 659c c6be 71c5 b8bd
00000280: ae7e 423f 0777 a23e 23d8 0dbe 38ac d1be
00000290: 89dc 15bf 5e1c 06be e8ed 393f 23d5 0abe
000002a0: 6744 d0bf 9814 afbe cd26 d23e 2761 8c3f
000002b0: 206c dfbb bfdc 8bbf cfc2 fdbe 670b debe
000002c0: 6095 a8bd 9f62 70be eb72 b83d c92e ed3d
000002d0: 6375 533e 03af 1cbe 0c57 e9bb ffda cabd
000002e0: fdb8 85be f969 963e a3ed 75bc bf8a 5bbe
000002f0: f5c4 82be d4e2 d33d 16c9 77be 332f 9f3d
00000300: 9de9 ee3c 5480 fb3d 8371 243e 8a1e 893e
00000310: 8acd 0abe e95c 09be aeec 5bbd 2192 a63d
00000320: 4612 0d3e f735 943e 7f16 28bd 253a e2bd
00000330: 4b95 0c3e fc61 eabc 3fec 953e 550e 2a3d
00000340: e368 8bbf 2843 d739 4292 ad3f 300c 7cbf
00000350: 2dcf a3bf a6cf 953b c196 2d3f 165a 1a3e
00000360: 1a15 4fbf 0552 adbe ba7f bfbd b8a8 44c0
00000370: 0caa ac3e da77 ca3e de92 86be 4cba 0a3d
00000380: bda8 373e 23b3 9ebe a347 4b3e 9289 163f
00000390: c430 4ebe 1f83 a43e ea9d b5be 594d fb3d
000003a0: c5bd a4bf b233 bf3e 094b 74be 5549 5ebe
000003b0: d8b0 8c3e c345 d33e 32c3 21bd 7e7e a2ba
000003c0: 13c1 ae3e 13f6 a33e 1f74 dd3e 21b7 7fbe
000003d0: e521 1e40 acbb 59be 1851 8b39 f1d1 40bf
000003e0: f459 0dbf d9f1 b13e 50a8 cd3e a7fd 0e40
000003f0: e1e7 1fbe 00b7 5fbf 4ca3 93be cc1c dcbe

layers.1.bias f4 [16]
0.09445941 -0.039524164 0.052120067 0.3477879 0.53292733 0.0021729004 -0.04426826 -0.004226668
-0.17501158 0.061767854 -0.030855954 0.6787748 -0.09295441 0.0043814434 0.14165138 -0.0016615769
00000000: ef73 c13d 17e4 21bd da7b 553d 4111 b23e
00000010: ed6d 083f 3867 0e3b a352 35bd dc7f 8abb
00000020: 3c36 33be 4a00 7d3d a0c5 fcbc 2fc4 2d3f
00000030: e25e bebd 3692 8f3b 0f0d 113e 45c9 d9ba

layers.2.weight f4 [32, 16]
0.13483593 -0.33848426 -0.34215418 -0.27825388 -0.267401 0.087812014 -0.150139 -0.03194496
-0.04692542 0.16467613 -0.09303732 -0.22607079 -0.062159672 -0.07124233 0.03484695 -0.13757299
-0.16236155 0.25808913 0.1807015 0.10412051 -0.3008913 -0.22971413 -0.022056958 0.17300798
-0.18185386 0.29392362 -0.13600996 0.044869725 0.15069613 -0.37263346 -0.41183776 0.14033212
0.07691286 -0.17334834 -0.032876566 0.09441008 0.24317813 -0.0939379 -0.2624575 -0.19092712
0.013317856 -0.06691364 -0.33680597 0.23942882 0.23182996 0.04201556 -0.33837214 0.3242918
0.057903785 -0.13286273 -0.3579109 0.16455127 -0.6374047 0.040202096 -0.34516552 -0.125131
-0.3257835 -0.20249306 -0.35424766 -0.330292 -0.38852435 -0.104580514 -0.2305151 0.2877374
-0.4023644 0.21028139 -0.04917733 -0.13596857 -0.06901104 -0.22036622 -0.43383482 0.027120417
-0.55798095 -0.115787454 -0.004850267 -0.30135047 0.0661485 -0.15601493 -0.42816955 -0.31307897
-0.25717348 0.15960322 -0.034158755 -0.18604958 -0.32302028 0.1382614 -0.15233393 -0.2950864
-0.38024262 -0.032625906 -0.32726726 -0.27672106 0.088885024 0.093695424 -0.17136171 -0.017160714
0.24378558 0.027414173 -0.24775478 -0.06818266 -0.18487732 0.2035632 -0.15984222 0.042660687
-0.015472332 -0.06458298 0.17519425 -0.38873532 -0.16430724 -0.24304223 0.009330012 -0.13947664
-0.28853568 0.24714516 0.06513251 0.27894074 0.210019 -0.1266885 -0.28074896 0.01672661
-0.2732529 0.073966704 -0.05439607 -0.086101666 0.0823238 0.028363269 0.19006889 -0.009955043
0.22741838 -0.087300695 -0.22608341 -0.28124306 -0.25144473 -0.22537094 -0.32699707 -0.11523532
-0.27043205 -0.209938 -0.21379434 -0.2819199 -0.4419975 -0.23828694 -0.25489154 0.051557414
-0.1566159 -0.57793987 -0.026817113 -0.22764178 -0.3314665 -0.09139924 0.044849716 0.039837603
-0.119844474 0.19550306 -0.15551634 -0.24425842 -0.27927715 -0.06222989 -0.43412727 -0.42894948
-0.34489617 0.06818907 -0.46000147 -0.14861752 -0.5767952 -0.3494308 -0.23595531 0.17498425
-0.54845333 -0.17401092 -0.3419812 -0.119173564 -0.36051667 -0.30321115 -0.24339019 0.074586935
-0.13352554 0.10980412 0.09222027 0.04387109 0.1390609 -0.358228 -0.31853247 0.15094633
-0.17753503 -0.45270413 0.0314106 -0.36724243 0.22130093 0.1700947 -0.054128207 -0.13218817
0.17036402 -0.21940851 0.20060493 -0.037148874 -0.29188272 -0.07939113 0.15662754 0.00028094384
-0.36229232 0.2506316 0.12557086 0.24701509 0.20662123 0.0013617636 -0.11165583 0.16142832
-0.31338242 -0.21820451 -0.18124202 -0.20251626 -0.16192177 0.10525003 -0.17200284 0.17201127
0.19111472 0.12296059 -0.15315795 -0.29302365 -0.14449617 -0.065039515 0.09423749 -0.107746266
-0.34121 -0.00070722436 -0.33235818 -0.3827029 -0.1988397 -0.21707477 -0.13987903 0.21437721
-0.3216179 -0.24266125 -0.48546386 -0.15861192 -0.4668134 0.09411723 0.16056857 -0.36042148
0.06453182 -0.20858665 -0.24754003 -0.3973871 0.015944093 -0.1830334 -0.28846395 -0.28807905
-0.3688965 -0.024802506 -0.2793517 -0.10310472 -0.45040077 -0.22519192 0.059472464 -0.18960397
00000000: 6e12 0a3e cf4d adbe d52e afbe 4b77 8ebe
00000010: c9e8 88be c9d6 b33d 0abe 19be b8d8 02bd
00000020: df34 40bd dca0 283e 5a8a bebd 1a7f 67be
00000030: 249b 7ebd 80e7 91bd adbb 0e3d efdf 0cbe
00000040: 1b42 26be 4224 843e d009 393e 223d d53d
00000050: 6d0e 9abe 2e3a 6bbe cbb0 b4bc 0129 313e
00000060: e637 3abe 287d 963e 3246 0bbe 51c9 373d
00000070: 1650 1a3e d0c9 bebe 66dc d2be 39b3 0f3e
00000080: 7d84 9d3d 3a82 31be 94a9 06bd 125a c13d
00000090: b003 793e 8462 c0bd d460 86be 6682 43be
000000a0: 2333 5a3c 050a 89bd d571 acbe d42c 753e
000000b0: d564 6d3e 8218 2c3d 1d3f adbe 9309 a63e
000000c0: 852c 6d3d 2b0d 08be 1940 b7be 2180 283e
000000d0: f42c 23bf f4aa 243d 89b9 b0be 5722 00be
000000e0: 18cd a6be 575a 4fbe f35f b5be 081c a9be
000000f0: aaec c6be 4f2e d6bd 260c 6cbe 5152 933e
00000100: b502 cebe 0154 573e 2b6e 49bd 583b 0bbe
00000110: a955 8dbd afa7 61be 991f debe a32b de3c
00000120: d7d7 0ebf f921 edbd fdee 9ebb 9c4a 9abe
00000130: dd78 873d 61c2 1fbe 0a39 dbbe e34b a0be
00000140: 3eac 83be 076f 233e 0dea 0bbd c883 3ebe
00000150: ea62 a5be 6594 0d3e 6dfd 1bbe 9115 97be
00000160: 29af c2be bea2 05bd 938f a7be 62ae 8dbe
00000170: 5a09 b63d 63e3 bf3d 7279 2fbe a094 8cbc
00000180: eda2 793e b093 e03c 6eb3 7dbe 5aa3 8bbd
00000190: 7b50 3dbe df72 503e aead 23be f9bc 2e3d
000001a0: aa7f 7dbc 1544 84bd 1f66 333e 5108 c7be
000001b0: 2840 28be 10e0 78be e8dc 183c f7d2 0ebe
000001c0: f3ba 93be 9f13 7d3e 3264 853d 52d1 8e3e
000001d0: 390f 573e a1ba 01be 54be 8fbe 3e06 893c
000001e0: cee7 8bbe db7b 973d 6ace 5ebd 1256 b0bd
000001f0: 6199 a83d 165a e83c 6ba1 423e 7a1a 23bc
00000200: 5de0 683e b5ca b2bd 6982 67be 17ff 8fbe
00000210: 5dbd 80be a4c7 66be 296c a7be 7f00 ecbd
00000220: 1276 8abe fdf9 56be e7ec 5abe ce57 90be
00000230: 7f4d e2be 7e01 74be 2581 82be de2d 533d
00000240: eb5f 20be def3 13bf 90af dbbc ed1a 69be
00000250: fab5 a9be 862f bbbd 56b4 373d c12c 233d
00000260: 0571 f5bd f431 483e ad3f 1fbe e11e 7abe
00000270: 6afd 8ebe c5e4 7ebd ee45 debe 449f dbbe
00000280: 3b96 b0be b6a6 8b3d 5085 ebbe 312f 18be
00000290: daa8 13bf 98e8 b2be 459e 71be 122f 333e
000002a0: 7067 0cbf eb2f 32be 2918 afbe 4511 f4bd
000002b0: a495 b8be 7e3e 9bbe 473b 79be 09c1 983d
000002c0: ebba 08be fce0 e03d fbdd bc3d 2cb2 333d
000002d0: fb65 0e3e a969 b7be b016 a3be ad91 1a3e
000002e0: becb 35be d6c8 e7be 67a8 003d 3307 bcbe
000002f0: b69c 623e 4e2d 2e3e 8ab5 5dbd 565c 07be
00000300: e873 2e3e a0ac 60be 616b 4d3e 6b29 18bd
00000310: a771 95be d197 a2bd f862 203e a54b 9339
00000320: 617e b9be c952 803e a695 003e 86f1 7c3e
00000330: 8494 533e 347d b23a d0ab e4bd 774d 253e
00000340: a973 a0be 0171 5fbe 8297 39be 6c60 4fbe
00000350: d2ce 25be 548d d73d 8321 30be b923 303e
00000360: 94b3 433e c3d2 fb3d 70d5 1cbe 3207 96be
00000370: cef6 13be 7033 85bd 96ff c03d 13aa dcbd
00000380: 14b3 aebe 0665 39ba da2a aabe a2f1 c3be
00000390: a29c 4bbe d948 5ebe 733c 0fbe b385 5b3e
000003a0: 1aab a4be 317c 78be b88e f8be 2a6b 22be
000003b0: 2a02 efbe 89c0 c03d 166c 243e 2a89 b8be
000003c0: 4229 843d bd97 55be 227b 7dbe 5276 cbbe
000003d0: 309d 823c 1c6d 3bbe 8cb1 93be 197f 93be
000003e0: 01e0 bcbe a02e cbbc 3007 8fbe 9128 d3bd
000003f0: ee9a e6be b698 66be 6699 733d 8b27 42be

layers.2.bias f4 [16]
-1.0987152 -0.29565236 -1.3206475 -0.7674787 -1.1407914 -0.51829773 -1.0054066 -0.32738853
-1.4929298 -0.87039393 -0.60048366 -1.3279827 -0.5472573 -0.68167096 -0.557285 -0.76712614
00000000: b3a2 8cbf bf5f 97be fa0a a9bf 7c79 44bf
00000010: 7405 92bf 29af 04bf 2ab1 80bf 789f a7be
00000020: 5318 bfbf 23d2 5ebf 4cb9 19bf 56fb a9bf
00000030: 0e19 0cbf fd81 2ebf 3baa 0ebf 6162 44bf
