src/features/VGAE_AT.pth (torch, 8407 bytes, 6 tensors)

layers.0.weight f4 [17, 32]
00000000: 7a04 f83d 703f 893e 9436 e83d f97b 323e
00000010: 0cd9 fa3c 99c4 42be 6c60 0fbd b402 a2be
00000020: a56b a33d 4917 9ebe c72f c93d 01e0 fd3d
00000030: a698 a8be da5e 483e 19b4 99bd a86d 9c3d
00000040: 3cee 5c3d 45d3 9fbe 4ca1 913d 1857 acbe
00000050: f6c1 383e 7d99 983d 3e69 8e3e fcc4 fb3d
00000060: a205 933d 20b2 a43d 1e7f db3d ecb8 1e3e
00000070: 7d23 1d3d 419a 7ebd 8645 a3be 07cb 803d
00000080: adb5 7a3e 0a96 a4be 5e99 3abe d613 e13d
00000090: 9202 aabe a5c5 33be 91ec 10be fdc5 1e3d
000000a0: 5323 b13e 1f42 4dbe 8750 9cbd 5aa2 123d
000000b0: 14b0 7abd cc84 84be dd72 9abe c51d 1ebd
000000c0: f7a8 9b3c 6ae2 9c3e 1d4a 58be 61d4 583e
000000d0: 5060 9f3e 26aa de3d 5b82 2fbe d2fe 32be
000000e0: 71e6 443e c8cb 50be 84e7 d8bd 5c91 0a3d
000000f0: 7236 d1be 50cb 603e 9e99 e63d f26e a0bd
00000100: 1a9c b4bd e8c6 523e 578c 37be 1c1b fc3d
00000110: 8f9f e43d aa96 a43e 28c1 333d 887b b7be
00000120: 12e7 e8bd 0fad b33e 66a7 44be 51ba 4d3e
00000130: 3df4 8cbe c469 85be 9b67 863e 44ce be3e
00000140: ca1b b5be 7429 d13d 43fb 1a3e bd25 063e
00000150: c467 983e fa52 303e a87f fe3d 192d 02be
00000160: d64d 1b3d acaf e5bd 22bd debe e8d6 0cbd
00000170: a799 14be 19b0 563d af89 8c3e 4bdb 373c
00000180: fa18 9e3e 5edb d0be d3ae cf3e e8e4 a8be
00000190: 924a 6bbe 5dd8 88be c5ff 2d3e e37d 8fbe
000001a0: 9402 4dbe 68d7 71be c0a8 b2be 8e52 acbe
000001b0: 0a2e 6ebe 4b9a e7bc 42e9 743e 13a9 4dbd
000001c0: 5f56 17be a3d3 203e 7b6b 5bbe a215 9dbe
000001d0: 6f91 1e3e 3e97 48be 855c a9be 5d0b 1dbe
000001e0: fe16 a1bd a4b9 33be 1da1 aebe bc35 463d
000001f0: d599 24bb 8f6c 8d3d 47f3 a03d ecd8 f9bd
00000200: 43e6 c1be 8f22 753e 74ac 00bd 35a4 dcbe
00000210: 728e 7a3e 12c4 f13e 3907 54be c517 013e
00000220: ff36 22be 4e23 923d 3597 3d3e 0920 48be
00000230: 804f 483e e289 b3be 50b6 65be 55e2 323e
00000240: f702 933d 8497 633d e3d9 76be 1474 833e
00000250: 616c 4d3e e860 bdbe fd9b 823e 375b 8cbd
00000260: 06a6 8e3e 0728 473e 47e3 e63d 0578 8a3e
00000270: bb01 babe 91bf 843e d653 2f3e d35d 9c3c
00000280: acb7 8a3b 80c6 adbe ef5f 84be a1c2 933d
00000290: 9082 cabe 81e6 cb3d 2946 743e 2181 dbbd
000002a0: 4d71 8fbe a21c 623e 32fe 19be bcfc 6a3e
000002b0: ec88 1fbe 78cc 60bd 7e0d 21be 4eeb 6b3d
000002c0: 8ce8 22be 7e66 063e acd2 0ebd 2715 073e
000002d0: a171 973e 34e8 6e3e db8f 5fbe 8c90 ad3e
000002e0: 9650 3fbe 3752 a0be df3f a9be 11ef f13c
000002f0: f6c0 983b b5da 193e ec11 cebc c2d9 0f3d
00000300: c1f3 8d3c d09f 913e 64c7 f13d 886a b73c
00000310: 43fd 77be 3f82 76be 109c 993e 9254 673e
00000320: 34ff 813d 8c2a 6a3e 1893 383e 8558 3ebe
00000330: f23f b1bd 223c d0bd 9258 a1be 5978 643e
00000340: 613c acbe 4fb5 5fbe c90d 7bbe e4ac a2bd
00000350: 8e82 95be 18be a4be ef15 5e3e 8c1f 0d3e
00000360: dec5 0a3e 748b 283e 20b4 9fbd 4159 6bbe
00000370: 2335 b53c c881 84be 12f2 863e 739f b2be
00000380: a5b2 fe3c c73b 2abe 0ccd a33e 104b 8a3d
00000390: ef6f 473e 5ad7 8d3d 0299 963e 4b98 59be
000003a0: 3c57 dd3d 09d1 c63d 246d 71be 7930 df3d
000003b0: 50db 73be 428a 633e 6759 303e d41a 173c
000003c0: 14cc c3be 84c4 97be 6ddc 74be 75b7 303e
000003d0: c0ee 4cbe c1d8 6f3e 1e88 1dbe 8043 78be
000003e0: 7995 26be d2d0 773d 0613 6a3e ac73 243d
000003f0: 2487 323e 6851 08bd 5635 72be 7d01 83be
0.12110229 0.2680621 0.11338535 0.17430104 0.030621074 -0.19020309 -0.035004064 -0.31642687
0.07979516 -0.3087714 0.09823566 0.12396241 -0.32928962 0.19567433 -0.07505054 0.07638103
0.053938136 -0.31215873 0.07110843 -0.33660197 0.1804274 0.074511506 0.27814668 0.12293431
0.07178809 0.08041787 0.10717605 0.1550023 0.038363922 -0.062158827 -0.3188898 0.062887244
0.24483366 -0.3214572 -0.18222567 0.109901115 -0.33205086 -0.17555864 -0.14152743 0.038763035
0.34597263 -0.20044754 -0.07632547 0.03579936 -0.061203077 -0.25882566 -0.3016576 -0.03860261
0.019001467 0.3064149 -0.21122022 0.21174766 0.31128168 0.10872297 -0.1713957 -0.17480019
0.19228531 -0.20390236 -0.10591033 0.03383003 -0.4086185 0.21952558 0.11259769 -0.07833661
-0.088188365 0.20583689 -0.17924629 0.12309858 0.11163246 0.32146198 0.04388538 -0.35836434
-0.11372198 0.3509297 -0.19204482 0.20090605 -0.2753009 -0.26057255 0.2625092 0.37266743
-0.35372764 0.10212985 0.15134911 0.13100334 0.29766667 0.17219153 0.12426692 -0.12712516
0.037916027 -0.112151474 -0.43503672 -0.034384638 -0.14511739 0.052414034 0.27448794 0.011221717
0.3087843 -0.40792364 0.40563068 -0.32987142 -0.22977665 -0.26727572 0.169921 -0.2802573
-0.20020515 -0.23617327 -0.3489437 -0.33656734 -0.2325975 -0.028271815 0.23917106 -0.05021007
-0.14779042 0.15705733 -0.2142772 -0.30680567 0.15485166 -0.19588944 -0.330784 -0.15336366
-0.078657135 -0.17551285 -0.34107295 0.04839109 -0.0025116105 0.069054715 0.078589015 -0.12199578
-0.37870988 0.23938964 -0.031414464 -0.4309403 0.24468401 0.47219902 -0.2070588 0.12606724
-0.15841292 0.0713564 0.18514712 -0.1954347 0.19561577 -0.35066134 -0.22432828 0.17469151
0.071783 0.05556442 -0.24106555 0.25674498 0.20060875 -0.36987996 0.25509635 -0.06853335
0.2786104 0.19448863 0.112738185 0.27044693 -0.36329445 0.25927404 0.17121825 0.019087708
0.004233321 -0.33940506 -0.25854442 0.07214857 -0.39552736 0.099560745 0.23854889 -0.10717989
-0.2801613 0.22081235 -0.15038374 0.22947973 -0.15579575 -0.054882497 -0.15727803 0.05759745
-0.15909022 0.13125035 -0.03486888 0.13191663 0.2957888 0.23330766 -0.2183222 0.33899343
-0.18683085 -0.31312725 -0.33056542 0.029532941 0.0046616746 0.15024836 -0.02515503 0.03511978
0.017328145 0.2844224 0.11805609 0.022389665 -0.24217705 -0.24073122 0.3000188 0.22590855
0.06347504 0.22867793 0.18024862 -0.18588455 -0.08654775 -0.101677194 -0.31512886 0.22311534
-0.33639815 -0.21846507 -0.24516977 -0.079431325 -0.29201168 -0.3217628 0.21688055 0.13781565
0.13552043 0.16459447 -0.07798028 -0.22983266 0.022120064 -0.25880265 0.2635656 -0.34887275
0.031091044 -0.16624366 0.31992376 0.06752598 0.19476293 0.06925841 0.2941361 -0.21249501
0.10807654 0.09707839 -0.2357679 0.10897917 -0.2381413 0.2222071 0.17221604 0.009222705
-0.38241637 -0.29642117 -0.23912211 0.17257483 -0.20012951 0.23422529 -0.15383956 -0.24244499
-0.16267957 0.06050188 0.2285882 0.040149376 0.17434365 -0.03328076 -0.23653159 -0.25587073

layers.0.bias f4 [32]
00000000: 4f86 fbbc aeab 75bd 69d0 b53d 5306 ebbd
00000010: 92ab 75bd 0dc0 f53d cde3 253e f011 c3bd
00000020: 0000 0000 6c75 933c 0000 0000 b2f1 b7bd
00000030: 7079 9abd 373f fb3b d840 9c3d 04a6 a53d
00000040: 7fa9 f8bd 24b3 61bd 576f c5bd 59cd a9bd
00000050: bccd 023d 981f c23d c424 a4bd 0000 0000
00000060: d836 9ebb 0000 0000 dc68 d8bd 9b0a 993d
00000070: b018 80bd da3e 963d 7198 a13d 0000 0000
-0.030703692 -0.05997818 0.08877642 -0.114758156 -0.059978075 0.119995214 0.1620018 -0.09524906
0.0 0.018000327 0.0 -0.089816466 -0.075426936 0.007667448 0.076295555 0.080883056
-0.12141704 -0.055102482 -0.09640377 -0.0829112 0.031934485 0.09478682 -0.08014825 0.0
-0.004828315 0.0 -0.10566875 0.07472726 -0.06254709 0.07336207 0.07890404 0.0

layers.1.weight f4 [32, 16]
00000000: 0262 093e a47d b9be 4d3d 963e 537e 853c
00000010: b826 443e 30a3 363e f474 dbbd 64ef 1c3d
00000020: 14d1 f93d a7a4 aa3d 2316 fc3d 61a6 48be
00000030: 6fb4 813e 43cd 95be 7d0e aebe 5ff7 b9be
00000040: 8ec4 cbbe 3249 a2bc e4da 663e 5dad 43be
00000050: 509d 223e cb72 133c 9ea6 67be 9cc8 8fbd
00000060: 857c b93d 27d2 913e a447 a7bd f29c 65be
00000070: fbfa 49be 337e d03d f56d 6bbd 87f5 6f3e
00000080: a30e 52be 129d 46bd 3bfc 513e 08e4 21be
00000090: 2c50 8e3c 676f 433e de54 05bf fa56 843e
000000a0: 3c51 283e da44 e13d e126 b93e 9618 043e
000000b0: ad46 923e 82c5 0abe 3f0a 2d3e 3dba a13d
000000c0: a424 8f3e d84d 83bb b6a8 30be 00f2 c0bd
000000d0: dfcb 053c 9de7 04bd 71cc 003e 515e 4dbe
000000e0: ab3a 0f3e 11a1 703e 79fd 4d3e 08d7 d13d
000000f0: 45a2 36bd b95d 33be 2778 75be f6b1 323e
00000100: 41f2 7d3b 9667 ae3e 8971 ad3e 89d5 36bd
00000110: 31c2 b13d abe1 dcbd a29c 24be 721d 1f3e
00000120: 44ae 173e 8859 633e 2cd8 c63d c17c aebe
00000130: 0b84 623e 0126 a3be 1a4d 31be 5c2f d73d
00000140: a27a 183e 2108 493e 2cf4 9cbe f432 923e
00000150: 1e33 913d 062a cbbd 417b b83e bfbc 2bbe
00000160: 97dd b2be eb53 703e 0c4f 8abe e2f6 5f3e
00000170: 6b13 713e 8c7c 91bd 578c bb3e 7034 86be
00000180: 1102 b7bc 272a 943e 2b50 633e aa0d 87be
00000190: a5ac 5bbd e751 58be 178d 3bbd d30e 60bd
000001a0: b879 4a3e c469 23be 9ddc 793e 65e4 2dbe
000001b0: cbf5 78be 91c9 a83d 29c7 033e 00dc 613e
000001c0: 2fac 613c c3a9 ad3d 8cc0 b13e 01e2 a53e
000001d0: bbc1 24be e6b1 11be 8bdd d1be d1ad 9abe
000001e0: e33c 0dbe c4df 763e c20d d13d 4cd9 0c3e
000001f0: b5f2 233c 7d9e dabe 6821 f5bd e515 43be
00000200: 506e 1bbe 3ec4 9a3e bf14 c63b ad6c 153e
00000210: ff1d b73d c6a0 4b3e 6ad1 b1bd 4a54 a8be
00000220: a8c6 d23d 89ed 973e 91f5 a2be 24c2 12be
00000230: dcb0 f13d b8b0 813d 8705 30bd dda9 8abe
00000240: 3cad 063e 2ee7 fdbc 25b4 103d 1b72 ce3e
00000250: 8c5d 2bbd 7053 41ba 633b eb3e 3f01 debe
00000260: dbc8 97bd 0eb9 23be 70e5 1b3e 901b 8b3d
00000270: 369f 403e 1f20 943e 4568 943e 3030 91be
00000280: d3ef 56bd 7d71 83bd 4180 41be f52c 8dbd
00000290: 70f0 463e a11b f7bd c8c2 64be 942f a83e
000002a0: ba5b 8dbe 14a4 2fbe 2ab1 4c3e 9d99 a53d
000002b0: e375 033e 536d 74be b33e 443c 50c9 ffbd
000002c0: 9ec8 9e3e b94d 32be 8a10 7e3d f3f9 acbd
000002d0: 5174 89be 5e3a ddbd 0ca6 12bd acfe 90be
000002e0: 11ac 46be 443d 983e 5bab 113e 1574 92be
000002f0: 2246 9fbd 39a5 573d ac72 4d3e 42fb ae3e
00000300: 633c c33e d3a8 5dbe b90c 70bd 7edb 86be
00000310: bb84 1d3e 9339 893e 6d65 f03c aebe af3d
00000320: 19ec 8c3e f006 bbbe 178d 293d b058 2e3e
00000330: 99af 0d3e 7968 ab3c d5f6 903c d5f4 a2bc
00000340: cb11 693d b48e 973e e03b de3c 2943 243e
00000350: df13 10be 15eb 68bd c112 a1be 6941 723e
00000360: 98a9 b2bd f6a4 d43d b356 103f bcc7 47be
00000370: 5938 473e 548d 753e 74f1 abbe a1ac a13d
00000380: b6ed ce3d 115c a1be 34d6 27be 0b31 98be
00000390: 474e be3e 4829 69be 127a 8ebe 0b77 023f
000003a0: ffa9 d93e 8733 cebd f2aa 8c3e 8564 cabe
000003b0: 9267 eb3c 9f24 1e3d 2f86 52be 2964 823d
000003c0: 09c0 91bd a588 c73d 4536 503e c076 52be
000003d0: e5d9 54be 21c2 58be 576a b53d 3dde b7bd
000003e0: ac38 86be 7d61 98be fd01 89be ed5b a03d
000003f0: f662 113e f8ce c13e 9957 803e 1076 803e
0.13416293 -0.3622867 0.29343644 0.016295588 0.19155395 0.17835689 -0.107156664 0.03831424
0.121980816 0.08332186 0.1230891 -0.19594719 0.25332972 -0.29258165 -0.3399543 -0.36321542
-0.39798397 -0.019810293 0.22544438 -0.19109102 0.15880322 0.008999537 -0.22622153 -0.07020685
0.09056953 0.28480646 -0.08167961 -0.22423151 -0.19724648 0.101803206 -0.05747791 0.23433505
-0.20513396 -0.048489638 0.20506375 -0.15809643 0.017372213 0.19085465 -0.5208262 0.25847608
0.16437238 0.109994605 0.36162475 0.12900004 0.28569546 -0.13551906 0.1689844 0.0789685
0.27957642 -0.0040070824 -0.17251858 -0.09421158 0.008166282 -0.032447446 0.12577988 -0.2005551
0.13987224 0.23498942 0.20116223 0.10246092 -0.044588346 -0.17516221 -0.23971616 0.17450699
0.003874913 0.34063405 0.33875683 -0.044637237 0.08679617 -0.1078523 -0.16075376 0.15538576
0.14812571 0.22202122 0.097092 -0.34079555 0.22120683 -0.31864932 -0.17314568 0.1050708
0.1489053 0.19632007 -0.30655038 0.285545 0.07089828 -0.09920125 0.36031535 -0.1677122
-0.34934685 0.23469512 -0.27013433 0.21871522 0.23542564 -0.071038336 0.36630508 -0.26211882
-0.022339853 0.2893841 0.2219855 -0.26377612 -0.053631444 -0.21124993 -0.04578885 -0.054701637
0.19772995 -0.15958315 0.24400564 -0.16981657 -0.24312513 0.08241571 0.12868942 0.2205658
0.013773962 0.08479645 0.34717214 0.3239899 -0.16089527 -0.14228019 -0.40989336 -0.30210736
-0.13792758 0.24108797 0.10207702 0.13754767 0.010006596 -0.42699042 -0.11969262 -0.19051321
-0.151788 0.30227846 0.0060449536 0.14592238 0.08941268 0.19885549 -0.08682521 -0.32876807
0.10291797 0.29673412 -0.31827977 -0.14331871 0.118013114 0.063325346 -0.04297402 -0.2708272
0.13152021 -0.030994024 0.03532805 0.4032143 -0.04183726 -0.0007374799 0.45943746 -0.43360326
-0.07411357 -0.15988562 0.15224242 0.067923665 0.18810734 0.28930756 0.289858 -0.28357077
-0.052474808 -0.064181305 -0.18896581 -0.068933405 0.19427657 -0.12065817 -0.22339928 0.328488
-0.27609044 -0.17152435 0.19989458 0.0808594 0.12837939 -0.23869829 0.011977839 -0.12489569
0.31012434 -0.17412461 0.06202749 -0.084461115 -0.26846555 -0.10802148 -0.035802886 -0.283193
-0.19401576 0.29734242 0.14225523 -0.2860419 -0.07777049 0.052647803 0.20063275 0.3417607
0.3813201 -0.21646433 -0.058605883 -0.26339334 0.15382664 0.26801738 0.029345239 0.08581291
0.27523878 -0.3652873 0.04139432 0.17026019 0.13836516 0.02092384 0.017695824 -0.019892136
0.056901734 0.2960106 0.02712816 0.16041245 -0.1407008 -0.056864817 -0.3145962 0.23657764
-0.08723754 0.10383026 0.5638229 -0.19509786 0.19455089 0.23979694 -0.33582652 0.078942545
0.101039335 -0.31515554 -0.16390306 -0.29724917 0.37169096 -0.22769654 -0.27827507 0.50962895
0.4251251 -0.10068422 0.2747417 -0.39529815 0.02873591 0.038609143 -0.20559 0.0636676
-0.07116706 0.0974286 0.20333202 -0.20553112 -0.20786245 -0.21167804 0.08858173 -0.089779355
-0.26215112 -0.29761878 -0.2675933 0.078300335 0.14197907 0.37853217 0.25066832 0.25090075

layers.1.bias f4 [16]
00000000: 1a19 8b3d 7f2a 153c a67f 613c dbc7 b53d
00000010: 514c 15bd 073e b23d c0a8 cbbc 3c2e 613d
00000020: 2630 683c 0ef0 063d e3b7 013d 39c3 57bc
00000030: 487d 90bc bc79 c1bc 273b c7bd ebf0 b1bc
0.06791897 0.00910437 0.013763344 0.0887601 -0.036449734 0.08703237 -0.02486074 0.054975733
0.014171636 0.032943778 0.03166951 -0.013169103 -0.017637864 -0.023617618 -0.09728079 -0.021721324

layers.2.weight f4 [32, 16]
00000000: 08e6 993d 4564 e9be 0d7c 623e cec4 313e
00000010: 105f bdbd c385 85bc 8f1f 7a3c 007f 17be
00000020: 4254 1d3e 6257 13be 6296 2f3c fb50 adbe
00000030: 62a1 d7bb 58f4 82be f360 e4be 2f8b e53d
00000040: 3271 abbd 21c8 f33d 556a c8be cadb 9ebe
00000050: 73e8 0b3e 34ea e23d c25e 0bbd 0a4d 4f3e
00000060: bfd3 95be 763d 263e 1822 c0bb c54a bcbe
00000070: b9f3 56bd 3bd1 73bc d5a0 8b3e 1c38 97be
00000080: 6762 40be 119b 51bd 61b6 2d3e c1c5 e0be
00000090: 86c1 99be c91a 40be c787 92be d113 023e
000000a0: 9eff ab3d de73 2abe 2326 d8be d7c3 81be
000000b0: 4bbd 06bf faf5 1e3d 3db3 dcbc 25ac 85be
000000c0: 797c e3be 530a 283d da16 723e aafe d1be
000000d0: 2412 c1be b946 6c3e 8628 bebe 8726 013e
000000e0: b64f bb3d 004d 303e d4c2 a93d 1de8 d1be
000000f0: f38a c2be 7465 afbe f16f 73bd dd64 543e
00000100: d98b 87bd 2f9e 233d 862c 99be c5c3 893d
00000110: 8c94 773e 55b1 913e d218 c5bc de8e 393e
00000120: 2b51 043e 9beb 373e 0f64 16be 20a4 0abe
00000130: 8628 f93d 6e97 bfbc f94e 6dbd 203f 9dbe
00000140: 3c26 b23d e55f b5be cfdb 7b3d fb46 41be
00000150: 5bd1 96be 9906 343d 28e8 59be 0028 953d
00000160: 746d 97be f987 ddbe 365d fabe 158e 86be
00000170: 0348 aabd f85a 843c 3b80 103e f5ab bdbe
00000180: 96e8 98be 92e4 06be b82a b2be fce0 dbbd
00000190: ccd3 bdbe f3af 5abe 3ccd 843d 2f28 86be
000001a0: 1e68 bbbe 502c e2be 510b a9be eff4 8dbc
000001b0: b0c2 c2bc c43b c5be b3a1 e6be 8bc2 90be
000001c0: 2841 573d 6b82 ff3d 31b2 7a3e 1102 93be
000001d0: a45b 80be 625f 3cbd e179 96be 59de 213e
000001e0: b2d5 18bd 8aee 8dbe a656 a8bd b4e8 e93d
000001f0: a514 4b3e 0a1a 9c3e 652a 9abe cfbd 583e
00000200: f355 503e ef4d 6c3e 3a66 b8bd 70e2 afbc
00000210: ae57 683e 0131 a1be 0193 32be 45b7 423e
00000220: 4f1a 99bc 19c9 933e 6b6f 8ebd b952 17be
00000230: 9f77 2f3e 0caf 90bc 1457 4b3d ca9f 58be
00000240: 945f 553e faea c7be fc7e 263e 3e0d be3d
00000250: d345 513e 2b59 78be 50df 61be 99b1 aa3a
00000260: c857 a4be 2df4 ab3b 6af5 143e bac3 debe
00000270: ce1c a0be fb81 79be 7fcb e83c 5a13 2abe
00000280: 407e 4a3e 355f 913e 234b a2be 1b9a 353d
00000290: 114d d43d 2395 893e c73e b23e 6d76 9abe
000002a0: b53a f5bb 65ea 8b3e c597 903e 1684 91bd
000002b0: cd48 3bbe dc7b 903e f75a 7c3e 5828 babd
000002c0: a5e3 e93d 0a31 a5be c28e 4fbe df2e da3c
000002d0: 1b77 ccbe 7c89 2a3e d699 b5be 29ff dd3c
000002e0: 16ad 88bd cb2f d13d 54d6 bfbe 6510 2dbe
000002f0: 3a8b 423e 972d f2bb a140 473e 48c2 6abe
00000300: e083 533e 153a 9bbe 1842 64bc e3c8 373e
00000310: 7eb6 843d e38b ba3d f405 1cbe d32a 093e
00000320: cdc1 7e3d c072 7ebe ac25 e2be a53b 74be
00000330: 1487 373e f276 b0be df43 e0bd 33f4 6dbd
00000340: a446 95be ac29 533e 5e75 bbbc 61da 2fbd
00000350: 7797 353e 8234 babe 7163 d3be 77b6 dabc
00000360: 903f a83d b9c4 09be f375 d9bd 5c71 033e
00000370: 5bfc ffbd b665 d7be 79c9 fe3d ac07 8bbe
00000380: 4abb a2be 4e1a d9be a6f6 5fbd e8eb b9be
00000390: 4802 ba3b 20fc a9be a2d5 d9be 7361 f8be
000003a0: c688 e2bc f72d 94bd 0ee2 133c c8ae d7be
000003b0: 8eb9 383d 2861 54bd 78e5 8dbd ced9 353d
000003c0: 5d2a 9cbe a9ee b7be 7bea e3be 1ffa 5dbd
000003d0: 61b9 34be 2c49 fcbe 5231 b2bd 813f 333c
000003e0: 991c 263e 58c0 fe39 acae cabc 558d 993d
000003f0: ab7e e7be c3e6 013e 341e 183e 8e0e bebe
0.07514578 -0.45584312 0.22117634 0.17360231 -0.09246647 -0.016299134 0.015266313 -0.1479454
0.15364173 -0.14388803 0.010717006 -0.33850846 -0.0065805176 -0.25577044 -0.44605216 0.11208188
-0.083712 0.11903406 -0.39143625 -0.3102706 0.13662891 0.11079827 -0.034025915 0.20244232
-0.29263112 0.16234383 -0.0058634393 -0.36775795 -0.052478526 -0.014881427 0.27271143 -0.29534996
-0.18787538 -0.051173273 0.16964103 -0.43900874 -0.3003046 -0.18760218 -0.28619215 0.12702872
0.083983645 -0.16645762 -0.42216596 -0.25344726 -0.5263259 0.0388088 -0.026940936 -0.26107898
-0.44430903 0.04102547 0.2364153 -0.41014606 -0.37709153 0.23073854 -0.37140292 0.12612353
0.09146063 0.17216873 0.08289114 -0.409974 -0.37996635 -0.3425709 -0.059432928 0.20741601
-0.06618471 0.039945778 -0.2991678 0.06726793 0.2417776 0.28455606 -0.024059687 0.18120906
0.12921588 0.1796097 -0.14686607 -0.13539171 0.12165932 -0.023387637 -0.057936642 -0.30712223
0.08698699 -0.35424724 0.061488923 -0.18874733 -0.294566 0.043951605 -0.21279967 0.0728302
-0.29575694 -0.432678 -0.4889924 -0.26280275 -0.083145164 0.016156659 0.14111416 -0.37045255
-0.2986495 -0.1317313 -0.34798217 -0.10736272 -0.3707565 -0.21356182 0.06484458 -0.26202533
-0.36602873 -0.44174433 -0.33016446 -0.017328708 -0.023774475 -0.3852216 -0.45045242 -0.28273425
0.052552372 0.12476047 0.24482037 -0.28712514 -0.25069916 -0.0459894 -0.2938986 0.15807475
-0.03731317 -0.27721053 -0.08219652 0.11421338 0.19832094 0.30488616 -0.3011047 0.21166156
0.20345287 0.23076604 -0.09003873 -0.021470279 0.22689697 -0.314827 -0.1743889 0.19015224
-0.018689303 0.28864363 -0.06954845 -0.1477765 0.17135476 -0.017661594 0.04964359 -0.21154705
0.20837241 -0.3904646 0.16259378 0.092798695 0.20436792 -0.24252765 -0.22057843 0.0013022899
-0.32098222 0.005247614 0.14546743 -0.43508703 -0.31271976 -0.2436599 0.028417347 -0.16608945
0.19774723 0.2839295 -0.3169795 0.04433642 0.10366262 0.26871595 0.3481352 -0.30168477
-0.007483805 0.27327266 0.2824079 -0.071052715 -0.1828949 0.28219497 0.24644075 -0.09089726
0.11420373 -0.32263976 -0.20269302 0.026633678 -0.3993462 0.16654009 -0.3546893 0.027099209
-0.066736385 0.10214194 -0.37468207 -0.16900785 0.18998423 -0.0073906886 0.19458248 -0.22925675
0.20655775 -0.3031775 -0.013931774 0.17947726 0.0648012 0.091087125 -0.15236646 0.13395242
0.06219654 -0.24848461 -0.44169366 -0.23850878 0.17922622 -0.34465748 -0.109504454 -0.058094215
-0.29155457 0.20621365 -0.022883113 -0.04293287 0.1773356 -0.36368185 -0.41286805 -0.026698334
0.082152486 -0.1345395 -0.106182 0.12836212 -0.12499305 -0.42069787 0.124407716 -0.2715429
-0.31783515 -0.4240288 -0.05467858 -0.36312795 0.0056765415 -0.3320017 -0.425458 -0.48511848
-0.02765311 -0.072353296 0.009026064 -0.42125535 0.045098834 -0.051850468 -0.06928533 0.044397168
-0.3050107 -0.3592427 -0.44514832 -0.054193612 -0.17648841 -0.49274576 -0.08700813 0.0109404335
0.16221847 0.00048589963 -0.024741493 0.0749766 -0.45213827 0.12685685 0.14855272 -0.3712048

layers.2.bias f4 [16]
00000000: ddad cfbd 1479 14be 00a4 c0bd 82be 22be
00000010: d87a 07be ed46 28be 871f 3cbe cb7b 30be
00000020: b7cb 45be 9f0e 1bbe 7928 3cbe 6916 40be
00000030: faab 36be b885 60be 8291 3bbe 2cda 1abe
-0.10140584 -0.14499313 -0.094062805 -0.15892985 -0.13230455 -0.16433306 -0.18371402 -0.17234723
-0.19315992 -0.15142296 -0.18374814 -0.18758549 -0.17839041 -0.2192601 -0.18317226 -0.15122288
