src/features/VGAE_CM.pth (torch, 7639 bytes, 6 tensors)

layers.0.weight f4 [11, 32]
000000 68 1f 9f be 24 aa 62 3f 57 21 11 3f c9 ca c7 3e
       -0.3107865 0.88540864 0.566915 0.390219
000010 f8 74 8b be ff 34 97 be c3 0f 47 3d 71 a1 1e bf
       -0.27237678 -0.2953262 0.048599016 -0.6196509
000020 6e 14 50 3e a7 f4 b1 3d ba 89 38 3d 62 5e f9 3e
       0.20320293 0.08689242 0.04505322 0.4870482
000030 f9 b3 1a 3f e5 ed da 3d c6 81 06 be 80 97 46 be
       0.60430866 0.10689906 -0.13135442 -0.1939373
000040 f1 82 cd bf cc 89 0c bc 6e f0 74 be 84 19 34 be
       -1.6055585 -0.008577775 -0.23919842 -0.17587858
000050 c5 4a 02 3f e7 b5 c3 bd cb 72 a5 be e6 ea 38 bf
       0.5089534 -0.095561795 -0.32314143 -0.72233427
000060 69 32 45 3f 37 bb 08 3f 30 2b eb 3e da 96 34 be
       0.77030045 0.5341067 0.45931387 -0.1763567
000070 75 5b 02 bd 42 a5 01 c0 83 18 25 bf 53 8e 61 3e
       -0.0318255 -2.0257115 -0.64490527 0.22026949
000080 06 15 20 be a4 3c b3 be 07 9d 88 bf 07 dc 04 be
       -0.1563302 -0.35007203 -1.0672921 -0.12974559
000090 9a 22 66 3e c1 a8 6b 3f 68 e9 a2 bb d7 a4 70 bf
       0.22474137 0.92054373 -0.004971672 -0.94001526
0000a0 40 9e d2 3d ab fa 9b be 9a a3 8e 3f c3 67 e6 bc
       0.1028409 -0.30464682 1.1143677 -0.02812565
0000b0 2e 0e 6a 3e ef f9 fa 3d 5d 3a c4 bd b9 4e 53 3f
       0.22856972 0.12254702 -0.095814444 0.82541996
0000c0 3b 18 14 3e ce 45 e5 be bc a9 2b be 8f ce 38 3e
       0.14462368 -0.4477982 -0.16763967 0.18047546
0000d0 e0 26 19 c0 28 32 a9 be 4c b3 68 3f 64 ef 80 3f
       -2.3929977 -0.3304608 0.90898585 1.0073056
0000e0 d0 26 0b bf 0b 2b 57 3e 8a 56 2c 3f d7 e4 d2 bc
       -0.543561 0.21012513 0.6731955 -0.025743885
0000f0 95 fa a3 3e 03 f0 13 3f 2b bf e6 3f 34 b7 5f 3f
       0.32027116 0.57788104 1.802709 0.8738892
000100 ca 4c 0d be 31 4a 79 3e a2 5b b1 3e cd 1a 86 be
       -0.13798824 0.24344708 0.34640223 -0.26192322
000110 62 42 3f be c7 49 80 3d aa 00 9e be 5a 56 f4 3e
       -0.18677667 0.06264072 -0.30859882 0.4772213
000120 d0 e9 3b be 4b 60 db be 53 b1 09 bf ce e0 9b bf
       -0.18350911 -0.42846903 -0.537862 -1.217798
000130 76 e6 6f 3e af d9 a2 bb 5b 4d 06 3e 50 b5 a9 3e
       0.23427758 -0.0049697976 0.13115446 0.33146143
000140 51 84 69 3f 03 c4 86 be e4 ae ef bd 7f 65 f0 3d
       0.91217524 -0.2632142 -0.117032796 0.11738109
000150 79 74 2a 3f e9 21 e3 3d 84 99 05 3f dd 14 86 3e
       0.66583973 0.11090452 0.5218737 0.26187792
000160 6e 50 12 3f ae c8 34 3d d8 4c f2 3e 50 32 ca 3e
       0.57153976 0.044136696 0.47324252 0.3949151
000170 8c ff ab be b4 59 19 3f 66 d6 51 3f 44 5a 9a 3e
       -0.33593404 0.599025 0.8196777 0.30146992
000180 58 23 a4 3d bd f6 82 3f 56 c8 42 3e 6e 57 63 bf
       0.08014554 1.0231549 0.19021735 -0.8880528
000190 54 3a 5e 3c 0d 73 87 bf f3 4e d0 3c db f8 b1 3e
       0.013563711 -1.0581986 0.02542827 0.34760174
0001a0 e7 97 cd 3e 7e 51 b2 be 3c d5 ed be 0e a4 b6 3f
       0.40154955 -0.348278 -0.46451747 1.4268816
0001b0 55 5e 84 3e 87 6c 8d 3f d7 ea 9c 3d aa 6d aa bd
       0.2585322 1.1048745 0.0766198 -0.08321698
0001c0 41 fb 00 3e b8 57 a3 be 2a 87 de 3d d1 30 18 3d
       0.12595846 -0.31902862 0.10865624 0.03715593
0001d0 f2 b4 5e 3f c6 dd 40 bd 7b 33 e1 bd bb c4 1f c0
       0.8699485 -0.0470865 -0.10996147 -2.4963825
0001e0 51 a1 d9 3e 96 b0 44 3f a3 dc 75 3f 0b 6d 85 bd
       0.42505887 0.7683195 0.9603979 -0.06514939
0001f0 03 ad 99 bd 59 c4 e3 bf 46 88 f3 be 29 5d 36 3f
       -0.075037025 -1.7794296 -0.47564906 0.712359
000200 cd ba be 3e 3c 39 d4 3f 97 4a 72 bf 67 ea 5f 3e
       0.37251893 1.6579967 -0.94645065 0.21866761
000210 90 b4 4b 3e c7 39 59 be 36 e3 c7 bd 99 4c 0d 3f
       0.19893098 -0.21213447 -0.09760134 0.55195004
000220 fb 9d 85 be 62 75 b2 bd b6 9e 2f 3f 77 0d b5 bf
       -0.26097092 -0.08713795 0.6860155 -1.4144734
000230 a3 86 eb be cb 45 17 bf 9f 2e d5 be 99 77 98 3e
       -0.46001157 -0.5909087 -0.41637132 0.29778746
000240 34 20 35 3d 7b 5e 51 be d9 c8 dc 3d a5 d4 af bd
       0.044220164 -0.20446198 0.10780496 -0.085854806
000250 90 85 3a bf 77 ed c8 bd fe 16 02 c0 bc 5f 36 bf
       -0.7286005 -0.09810918 -2.0326533 -0.7123983
000260 6e ee 18 3e 15 bb 3e 3f 53 f3 a4 bf f4 42 c3 3f
       0.14934704 0.74504215 -1.2886757 1.5254807
000270 e0 ba 32 be 86 7e 90 3d eb 31 77 bf 03 cd 8d bf
       -0.174541 0.070553824 -0.96560544 -1.107819
000280 de 11 fa bd c5 0c 1d bf d8 fb c2 be 5e fe 12 3f
       -0.12210439 -0.6134761 -0.38082767 0.57419384
000290 91 1e 8e be bd 63 30 3f ef 12 38 be 0f 48 9d bd
       -0.27757695 0.6890219 -0.17975973 -0.0767976
0002a0 8a 2c dc 3e 56 7a b8 bc c6 50 24 3e 28 61 a0 be
       0.4300273 -0.022519272 0.16046438 -0.31324124
0002b0 b8 53 84 bd ac 07 2f 3e b8 58 a0 3d b5 f6 1f 3f
       -0.064612806 0.1709277 0.07829422 0.6248582
0002c0 3a 92 67 bf 12 5a 9e be f8 3f bc bd 3b a2 8b be
       -0.904575 -0.30928093 -0.091918886 -0.2727221
0002d0 0b 05 e1 be d3 12 3c 3e 48 b5 9e bd 1e a7 93 be
       -0.4394916 0.18366556 -0.077494204 -0.28838438
0002e0 d1 fc 1d bd 7f 33 4e 3e 30 b8 c3 3e db 96 db bc
       -0.038571183 0.20136832 0.3822646 -0.026805332
0002f0 88 3e bb be 05 dc 1d c0 1f 09 c9 bf 55 bf 0d 3f
       -0.36571145 -2.466554 -1.5705909 0.55370075
000300 5f bd e2 3d cf 8f 54 bd 5a 8b 7b 3e 77 c0 06 be
       0.11071276 -0.05189496 0.24564877 -0.13159357
000310 e9 48 3a bd 2c d8 93 be d1 d5 9d be 36 02 9a be
       -0.04547969 -0.28875864 -0.3082719 -0.30079812
000320 26 0b b0 3f ec df e8 be d7 3a 8e 3f 47 a7 9b bf
       1.3753402 -0.4548334 1.1111706 -1.2160424
000330 cd 9a 64 3e 58 71 99 bf f2 c5 ab 3d 3c 38 15 3f
       0.22324677 -1.1987715 0.083873644 0.5828893
000340 db 34 1e be 5b ac 4e 3e 57 2c 81 be 3a 13 47 bd
       -0.1544985 0.20182936 -0.2522914 -0.04860232
000350 04 72 9f be 82 9b 8a be 1c b9 ab 3e d7 fe 8a bd
       -0.31141675 -0.27071768 0.33539665 -0.06786888
000360 09 f1 1a 3f cd db ff be 92 ce 45 be 1f b5 8a bd
       0.6052404 -0.49972382 -0.19317082 -0.06772827
000370 1e 0c 90 3d 36 da bb 3e f8 ab bf bb 3c ab 82 bd
       0.07033561 0.3668992 -0.0058493577 -0.063803166
000380 65 da b2 bd ab 3f f3 3e 40 b3 8d 3e 13 2e 7d be
       -0.08733062 0.47509512 0.2767582 -0.24724607
000390 5f a9 42 be 02 8b 12 3e aa 96 a0 3c f0 35 14 3e
       -0.19009922 0.1431084 0.019603092 0.144737
0003a0 e2 54 06 bd 1f 64 a2 3d 46 2d 47 3f 63 14 40 3f
       -0.032795794 0.07929253 0.77803457 0.7503111
0003b0 32 2e 8d 3e ca c9 b1 be b4 17 b1 be 7a a3 bd 3d
       0.27574307 -0.34724265 -0.34588397 0.09259696
0003c0 7b 4d e9 3e 31 ca 2e 3c aa 0c 24 be 94 c4 b5 be
       0.45566925 0.010668323 -0.16020456 -0.3550154
0003d0 10 69 cc 3e f7 70 76 be e1 43 a3 3e 53 66 24 3f
       0.39923906 -0.2406653 0.31887725 0.64218634
0003e0 bb 5e 81 3e 75 7a 9a bf 38 0d 95 3e f2 e5 bf 3e
       0.25267586 -1.2068621 0.29111648 0.37480122
0003f0 45 ad 9d be cb 77 b1 bc 83 60 3b be 26 3a 24 be
       -0.30796257 -0.021663567 -0.18298535 -0.16037807

layers.0.bias f4 [32]
000000 00 00 00 00 a6 14 b3 3d 1d 0c 4d 3e 71 a6 bb be
       0.0 0.08744173 0.20024152 -0.36650422
000010 a1 4a 98 bd 16 6b ea bd 41 f5 75 bd fa 77 03 3e
       -0.07436109 -0.11446206 -0.060048345 0.12838736
000020 db 76 09 bf c6 d9 d4 bd 61 18 5d be ab 7e d1 3e
       -0.53696984 -0.103930995 -0.21591331 0.40916952
000030 5a 0e 0e 3e dd 68 dc 3e ab fd 08 be d8 86 a8 3d
       0.13872662 0.43048754 -0.13378017 0.082288444
000040 87 03 ac be d7 9f d2 bd 00 00 00 00 e3 51 d5 bd
       -0.3359644 -0.10284393 0.0 -0.10416009
000050 b3 6d 00 be 21 88 b9 bd 53 75 8b 3e fd 6a 22 bf
       -0.12541847 -0.09059168 0.2723795 -0.634445
000060 82 e2 ec 3d d7 4c 51 3f 7f 3e c5 bd 4f 19 72 3e
       0.115666404 0.81757873 -0.09631061 0.23642467
000070 00 00 00 00 a9 61 df 3d 4d 26 85 3d fa 75 22 bd
       0.0 0.10907299 0.06501446 -0.039663292

layers.1.weight f4 [32, 16]
000000 d6 fc 5d 3e 96 58 b5 3d f0 85 92 3d 2c b2 2c bd
       0.2167848 0.08854787 0.07154453 -0.042162105
000010 dd 0c 8a 3e e6 86 ad bd 95 90 48 be 03 35 98 be
       0.2696294 -0.084729955 -0.19586404 -0.29727945
000020 bd c4 cd 3d 61 0d c8 3d 31 ca 86 3c 10 b5 74 bd
       0.100472905 0.09768177 0.016453834 -0.059742987
000030 59 7e a5 be 31 ff 34 be 35 5b e1 bd 87 b3 1e 3a
       -0.32322958 -0.17675473 -0.110037245 0.00060539733
000040 c4 2d 7b 3d f4 34 aa be c6 0b ad be f2 b7 0c be
       0.061322942 -0.33243525 -0.33798045 -0.13742045
000050 cb be 11 bf a8 af e5 3d 40 91 9a 3e e7 28 c8 be
       -0.5693175 0.112151444 0.30188942 -0.39093706
000060 3e ac 1b 3d 3c 03 93 3e 1d 7d cd bd f2 58 de bc
       0.03800606 0.28713405 -0.10033629 -0.027142022
000070 44 f4 ac 3e ee a7 72 3e 4f 84 a3 3e 6c 49 1a 3f
       0.3378011 0.23696873 0.3193688 0.6026828
000080 dc c4 dd 3e 7c fc 0a be c3 f4 13 bf bf f7 f6 3e
       0.43314254 -0.13572878 -0.5779535 0.4823589
000090 07 78 a2 bf cd fb 19 bf 54 06 64 bf ec 68 23 be
       -1.269288 -0.6014984 -0.89072156 -0.15957993
0000a0 be 0f 42 be ed eb 9f 3f 90 d1 be bd 4e 5c 0d bf
       -0.18951318 1.2493874 -0.093173146 -0.5521897
0000b0 59 57 f2 be d5 0e 38 3f 53 a7 5f 3f b9 52 65 3f
       -0.47332266 0.7189763 0.8736469 0.8957935
0000c0 ad a8 76 be 61 ab 8f 3f 13 35 82 3f 4d 57 18 3f
       -0.24087782 1.1224176 1.0172447 0.5950821
0000d0 f2 7d 2d 40 af d1 80 3f b2 c5 97 bd 5e 75 a7 be
       2.710812 1.006399 -0.07410754 -0.32706732
0000e0 2e 4a 2c 3e 1e 2a 67 3f b8 2f c4 3d ee 6f e0 3e
       0.16825172 0.9029864 0.09579414 0.43835396
0000f0 ec b0 90 bd ae 82 0d bf 74 91 1e bf 85 74 e5 bf
       -0.07064995 -0.55277526 -0.61940694 -1.7926184
000100 74 cb 26 be 64 68 a3 3d 67 18 85 be 17 23 ef bd
       -0.16288549 0.07978895 -0.2599518 -0.11676615
000110 f6 16 6c 3e 16 0f 6d 3e ef 12 27 be 9c 4c 69 bd
       0.23055634 0.23150286 -0.16315816 -0.056957826
000120 a7 f9 85 3e 37 64 ba bd fc cd a9 3d 10 eb 5a be
       0.26167032 -0.09101146 0.082912415 -0.21378732
000130 0a 56 90 3e d6 15 7e 3e 65 83 3b 3e b0 40 90 be
       0.28190643 0.24813017 0.18311842 -0.28174353
000140 e4 9b ce bd 59 cc 59 3f 79 04 1b 3f 62 09 68 bf
       -0.100883275 0.85077435 0.605537 -0.9063932
000150 55 a8 e1 3f fc f6 8a bd 57 6e c5 3e 4e 55 f5 3c
       1.7629496 -0.0678539 0.38560745 0.029947903
000160 8f d9 05 be 03 bc b9 3d 12 75 f7 3d 74 cc 32 3e
       -0.13071273 0.090690635 0.12082876 0.17460805
000170 a1 ce 8a 3e 53 2c 72 bf 03 cf 74 be 9d 7d 2b bf
       0.2711077 -0.94598883 -0.23907094 -0.66988546
000180 69 27 24 be 7a eb 99 be 73 6e 16 3e f9 f1 1e 3e
       -0.16030659 -0.30062467 0.1469057 0.15521993
000190 8e 18 4b be a7 f2 f0 bc 8d d4 2d be ba ad c1 3e
       -0.19833586 -0.02941258 -0.16975613 0.37827855
0001a0 ac 58 11 3c cb ec 48 bb 3f 40 ae bd 99 df c0 be
       0.008871239 -0.0030658718 -0.08508348 -0.3767059
0001b0 be 5a cb 3d 8c 34 95 be 0e 8d dc bd 54 bf d0 be
       0.09929417 -0.29141653 -0.107690915 -0.40770972
0001c0 29 a4 02 be dc ec 36 3f 4f 02 3e bf 1a 3a 79 3e
       -0.12757935 0.7145517 -0.7422227 0.2433857
0001d0 5c 10 3b 3d 9b e5 c2 3e 3f 21 2a bf f8 20 89 3e
       0.0456699 0.380658 -0.6645698 0.26782966
0001e0 81 2b 80 bb fa fb 2a 3f 33 69 75 3d fc 61 84 be
       -0.003911436 0.66790736 0.05991478 -0.25856006
0001f0 d1 3c dd be ed 24 42 3f 96 4b 6b bd d1 36 24 bf
       -0.43210462 0.75837594 -0.05744513 -0.64146143
000200 f6 c3 5c bc 92 a4 84 3f 61 1c 4c 40 5f 97 ae be
       -0.013474455 1.0362723 3.189232 -0.34099862
000210 79 0c dc 3f ca 68 fa 3e fb a3 ae 3f 53 c3 9d bf
       1.7191306 0.48908073 1.3643793 -1.2325233
000220 e6 7e 12 3f c9 75 d3 3f eb 7f e2 3e b7 fe 60 3f
       0.5722488 1.652032 0.4423822 0.87888664
000230 4a 6a 5a 3b 4b 0f 7d bf c8 cd 9f bf 1a 63 57 bf
       0.0033327513 -0.9885146 -1.2484674 -0.8413559
000240 16 a3 a6 3e f6 ec 97 3e 7f f2 80 3e 13 12 47 3e
       0.325463 0.29672974 0.2518501 0.19440489
000250 a3 16 40 3e b2 8f 87 be 64 8c da bd 3a a3 93 bd
       0.18758635 -0.26476818 -0.10671309 -0.07208867
000260 ea da 3f 3c 5d 93 4e be 18 0d d8 3d 4f 8b 1f be
       0.011709908 -0.20173402 0.105493724 -0.15580486
000270 2f ab 77 be 77 4e 51 3c ca d2 84 be a5 2d 41 be
       -0.24186395 0.012775055 -0.2594207 -0.18865068
000280 ba 1e 8b 3d c9 55 cb bc c0 8c 81 3f 10 60 c2 bf
       0.0679297 -0.024821179 1.0121078 -1.5185566
000290 c0 32 3d 3f c4 59 6d be b2 3d 2c 3e 3c 9b 53 bf
       0.73905563 -0.23178774 0.1682041 -0.82658744
0002a0 7c 1d e0 be 2e fc 46 3f 72 63 0c 3d 22 02 76 bd
       -0.43772495 0.77728546 0.034274526 -0.060060628
0002b0 2a 8d ad 3e 73 4a ca bf 05 6a 7b 3d ed 19 e7 3e
       0.33896762 -1.580397 0.061380405 0.45136967
0002c0 a7 45 4a 3d 50 66 55 bf 3a 16 c0 3f 68 c4 70 bf
       0.049382832 -0.8335924 1.5006783 -0.9404969
0002d0 2c 69 3a bf 66 13 d0 be 59 32 82 3e 44 26 5f bf
       -0.7281673 -0.406398 0.25429037 -0.87167764
0002e0 76 0e 0c bf a0 3e de bc 00 4f dd 3d 73 d9 8a be
       -0.54709566 -0.027129471 0.10806084 -0.27119026
0002f0 19 9a d8 3e 13 0c e9 be 34 88 12 3f 59 f8 a2 3f
       0.42305067 -0.45517024 0.5723908 1.273204
000300 6c 7d 10 3e d0 58 30 be b0 94 9c 3e cd cd 99 3e
       0.14110345 -0.1722138 0.3058219 0.30039826
000310 69 38 9f be d0 b9 24 bd e5 2a 5c 3e 64 3f 99 be
       -0.31097725 -0.040216267 0.21500738 -0.29931176
000320 9e 55 95 bb aa 4b 84 3d 5e f8 cf 3d a3 4c 4e 3d
       -0.0045573255 0.06459744 0.10154794 0.050366055
000330 19 20 d1 bc 25 7a 2c be 75 a2 1b 3e ba a7 54 3e
       -0.025528 -0.1684347 0.15198691 0.20767108
000340 70 59 68 3e 86 a4 01 3e 5c bb 1a 3f 68 e5 c3 be
       0.22690368 0.12660417 0.6044214 -0.3826096
000350 37 0a 69 be ca 32 6c bd 16 1c 76 3e 76 4b 76 3e
       -0.22757803 -0.057665624 0.24034151 0.24052224
000360 88 17 21 3e a3 ee 73 bf 88 3c a6 bd b3 e2 93 3e
       0.15731633 -0.95286006 -0.08117014 0.28883895
000370 be 92 21 3e b0 86 b1 3f fa 57 06 be cf 96 ae bc
       0.15778634 1.3869228 -0.13119498 -0.021312146
000380 75 8c 4b be 9f 8a 37 bd 2c 94 2f 3d 22 f8 3e be
       -0.19877799 -0.044809934 0.042865917 -0.18649343
000390 95 b0 5f be 9b 36 86 be 5e 90 56 bd 30 33 43 be
       -0.21844704 -0.26213536 -0.052383773 -0.19062495
0003a0 3d 10 0d 3e 52 18 43 be 83 9d 63 be ee 3e 8e be
       0.13775726 -0.19052246 -0.22228055 -0.27782387
0003b0 5e 25 7a be d8 33 04 3d 8c 22 bf 3e f2 57 b6 be
       -0.24428317 0.032276005 0.37331045 -0.35613972
0003c0 e5 d2 f4 bd 39 ee 00 3f e8 2b 61 3e 59 9a a7 be
       -0.119542874 0.503635 0.21989405 -0.32734945
0003d0 87 40 2a 3f ce 56 ab 3d 24 72 59 be a2 d3 eb be
       0.6650471 0.08366166 -0.21234947 -0.460599
0003e0 15 af d6 bc 9d 14 51 3f 0a 10 0b 3e a9 86 05 3e
       -0.026206532 0.8167208 0.13580337 0.1303965
0003f0 64 c3 ee 3d db 48 e3 be 5a a5 04 be 5e df 00 bf
       0.116583616 -0.44391522 -0.12953702 -0.5034083

layers.1.bias f4 [16]
000000 3c 85 b2 3d 10 6a 2d 3e d7 e9 f3 3e 0e 1e 50 bf
       0.08716819 0.16934991 0.47639343 -0.8129586
000010 08 c2 1c be 95 77 37 be 4c 40 5d be a1 39 0d bf
       -0.15308392 -0.1791671 -0.21606559 -0.5516606
000020 5a b9 ad be 89 4b e9 3e f0 0c e3 3d 6e 17 3d be
       -0.33930475 0.4556544 0.11086452 -0.18465969
000030 54 75 1a bd bf bc 22 3d 4f 01 cd 3e fa 58 e4 3e
       -0.03770955 0.039730784 0.4004006 0.44599134

layers.2.weight f4 [32, 16]
000000 ac f4 00 be 98 e7 ba bd ae e7 aa bd b2 9d 9a be
       -0.12593335 -0.09126204 -0.08344971 -0.30198437
000010 21 ae 36 be 45 ed 9b 3e b1 0f 99 be 80 e0 dc 3d
       -0.17839862 0.3045446 -0.29894784 0.107850075
000020 cb 2d a5 be df cd 0a be 6b 53 24 be 63 5e a4 3e
       -0.322615 -0.13555096 -0.16047446 0.3210326
000030 b0 61 91 be 10 38 90 3e 8d 1f 87 3e 4b 1a 97 3e
       -0.28394842 0.28167772 0.2639126 0.29512247
000040 2b ea 18 bf 8d 9c d5 be f0 f5 29 bf 1b 93 92 be
       -0.5973231 -0.41721 -0.66390896 -0.28627858
000050 07 48 ce be 3e a5 ae 3b 2a 01 a8 bd 0f 18 b9 be
       -0.40289328 0.005329757 -0.08203347 -0.36151168
000060 3f 1a 12 be 2b 21 ab be f1 ae 32 be be a2 aa 3d
       -0.14267825 -0.33423743 -0.17449547 0.08331822
000070 c5 87 d8 be ff 15 08 bf 4d ba d3 be d6 ec 36 be
       -0.42291084 -0.53158563 -0.41353074 -0.17863783
000080 89 ec d6 bd be 84 26 3f f8 7a 1a 3f 32 80 0c 3f
       -0.10494334 0.650463 0.60343885 0.5488311
000090 b0 50 5e 3f 4b 30 8b bc 55 d5 f9 3e 48 68 75 bd
       0.8684187 -0.016990801 0.48795572 -0.059913903
0000a0 c3 21 07 3e 24 b8 09 3e 23 37 9f 3e cc 91 f3 3b
       0.13196473 0.1344915 0.31096753 0.007433152
0000b0 9f af a4 3d ef 0f 11 3f 47 e5 6c 3e 33 73 0d 3f
       0.080413096 0.5666494 0.23134337 0.55253905
0000c0 15 d6 db 3c 09 a0 bf bd 2a b8 50 be 83 44 c4 be
       0.02683548 -0.09356696 -0.20382753 -0.3833352
0000d0 d8 42 96 be 62 02 ef 3c 47 f3 95 be f2 90 52 be
       -0.29347873 0.02917594 -0.29287168 -0.20563105
0000e0 18 7f 48 bd d8 bc 6c be 9a 85 84 be 6c a4 38 3e
       -0.04894933 -0.23118913 -0.2588318 0.18031472
0000f0 c6 47 3c 3d 8c 66 df bd 41 47 dc 3c 3b c6 bf bd
       0.045966886 -0.10908231 0.026889445 -0.09363981
000100 8b d2 d6 bc 9f 27 9f 3d 21 89 39 3e 62 b6 8d be
       -0.026223442 0.07771229 0.18118717 -0.2767821
000110 cb ab c6 3d 5e bc 68 be c1 40 8d 3e e9 a8 9d be
       0.09700736 -0.22728106 0.27588466 -0.3079293
000120 c9 a9 d1 be 01 cb 34 3e 94 6a 72 3e 33 44 96 be
       -0.40949848 0.17655565 0.23673469 -0.29348907
000130 c5 30 91 be ba 85 97 bb 4c 04 32 3e 18 a1 c2 3d
       -0.2835752 -0.0046240957 0.17384452 0.095033824
000140 a6 01 89 be 59 45 b6 ba 52 c2 8e be 98 ed fc bd
       -0.2675907 -0.0013906165 -0.2788263 -0.12350005
000150 86 9d d6 bc de cf 41 be 7d 59 2e be ff 75 52 3d
       -0.02619816 -0.18926951 -0.17026325 0.05138206
000160 cf 67 be be 7d 1d 8d be 75 bc 83 be 7c 08 23 3e
       -0.37188575 -0.2756156 -0.2572972 0.15921205
000170 f7 bf 1d 3e 9d 04 ee bd 6e 3d 26 3e 88 77 a5 3d
       0.1540526 -0.11621974 0.16234371 0.080794394
000180 53 77 d1 3c df e4 56 3e dd 81 a7 3d 4c d9 88 be
       0.025569594 0.20985745 0.08179066 -0.26728284
000190 59 84 cc be f9 9f 70 be 1f fd c7 3d 77 bf 2b 3e
       -0.39944723 -0.23498525 0.09765076 0.16772257
0001a0 0d 22 a7 bb 0a 72 ae 3c 63 01 24 3e 75 01 81 bd
       -0.0051004947 0.021294612 0.16016154 -0.06299106
0001b0 9a c5 5d 3e 0e a3 3b bc bc 6d 53 be 07 45 62 3e
       0.2165741 -0.0114524495 -0.20647329 0.22096644
0001c0 b6 29 1b 3e 62 4a 6a be 00 31 b0 3d 34 05 85 be
       0.1515263 -0.22879937 0.08603096 -0.25980532
0001d0 2c bf 64 bd dc 90 b5 be d9 e0 8a be b5 a8 c1 be
       -0.05584638 -0.3546208 -0.2712467 -0.37824026
0001e0 f6 4a cd bd eb fd cd be d5 be 04 3d f6 47 55 be
       -0.10024063 -0.40232787 0.032408554 -0.20828232
0001f0 5a 6c f0 bc 9d ff 0e 3e a7 a1 c3 3d 63 89 8b be
       -0.029348541 0.13964696 0.09552317 -0.27253255
000200 55 d6 60 3e fa 34 f7 bd 68 bc 37 3d e3 0a e5 be
       0.21956761 -0.12070651 0.044857413 -0.44734868
000210 99 87 8c be c2 b7 0e 3c 84 3a eb be 77 10 bd bd
       -0.27447203 0.008710803 -0.4594308 -0.09231656
000220 8d 0c a6 3d f1 95 8a be 92 21 d0 3d 39 c3 9b bd
       0.081078626 -0.2706752 0.10162653 -0.07605595
000230 96 38 6a be d4 7b c2 be 59 3c 7a be 21 7d 2f 3d
       -0.22873148 -0.37985098 -0.24437083 0.04284394
000240 9a a1 5a 3e 18 4c 65 3e 1a e8 8e be c2 a2 89 be
       0.21350709 0.22392309 -0.27911454 -0.26881987
000250 2c 0e cf be e3 f6 c2 be 18 aa 33 be 2a 0c 47 3e
       -0.404405 -0.38078985 -0.17545354 0.19438234
000260 da 16 a8 be eb 26 e9 3d db 14 b5 bd 66 9d 5e be
       -0.32829934 0.11384376 -0.088418685 -0.2173973
000270 c3 3a dc bd 3b 73 3a be dc 16 fd 3d c3 f9 ba 3c
       -0.107533954 -0.1820802 0.12357876 0.022824174
000280 a8 60 ec bd 7d ea 2b bd 77 02 57 3c 2c 1a 13 be
       -0.11541873 -0.041971672 0.013123146 -0.14365453
000290 94 56 3e be ae fc 85 bd 19 a3 47 3d c5 a8 e2 be
       -0.18587714 -0.065423355 0.048739526 -0.44269386
0002a0 f6 e3 3c be d4 7c f3 be 13 4a 80 3e fc 3b c5 be
       -0.18446335 -0.47556174 0.25056514 -0.38522327
0002b0 c7 07 10 3e 2d cb 55 3e c6 f1 6b be 85 5d c5 bd
       0.14065467 0.20878287 -0.23041448 -0.09636978
0002c0 0b 6f e3 3c 88 ef 01 bf e9 fb e3 bc e0 55 af be
       0.02776291 -0.5075612 -0.027830081 -0.34245205
0002d0 7a 44 b6 be fb 91 ca bc f0 cd fb bd b4 68 97 be
       -0.35599118 -0.024727812 -0.12295139 -0.2957207
0002e0 5c af 0d bd 21 f2 83 3c fc 4a fc bd 6d 70 40 be
       -0.034591064 0.016106667 -0.1231899 -0.18792887
0002f0 26 40 6a 3d 48 88 70 bc c1 3c fb be 76 15 80 be
       0.057190083 -0.0146809295 -0.4906979 -0.25016373
000300 5e 60 59 be 3c 37 10 be 39 f6 5b be 00 12 f3 be
       -0.21228167 -0.1408357 -0.21480645 -0.4747467
000310 03 86 72 3d 9b 26 dd be 9f d4 80 be 71 ed 15 bf
       0.059209835 -0.43193516 -0.25162217 -0.5856543
000320 ea 62 4f be fe 19 a5 be 21 15 80 bb c1 17 21 be
       -0.20252576 -0.32246393 -0.0039087688 -0.15731718
000330 d1 4a 36 be 54 6e bb be bb 5b 84 be d3 6d 8d be
       -0.17801978 -0.3660761 -0.25851235 -0.27622852
000340 a8 39 f0 bd 56 11 55 be 17 2d 99 be b9 b3 8e be
       -0.11729747 -0.20807394 -0.29917213 -0.27871493
000350 c8 95 2c 3d 90 c1 66 be 2d 29 2d be 22 7b c9 be
       0.04213503 -0.22534776 -0.16910239 -0.39351755
000360 2b cc 35 be 83 c3 0f bf 06 72 8d be 1e d2 9f bd
       -0.17753665 -0.561577 -0.27626055 -0.078037485
000370 f8 26 0c be b5 c6 91 be c8 70 11 bd 21 5a a6 be
       -0.1368674 -0.28471914 -0.035507947 -0.32490638
000380 69 ce 20 3d 47 ab 3b 3e ed fd 92 bc c3 b2 ec bd
       0.039259348 0.18327056 -0.017943347 -0.115575336
000390 f8 53 2e bd 38 be fe bd 07 76 2e be 42 b2 18 3d
       -0.042560548 -0.12438625 -0.17037211 0.037279375
0003a0 45 0e 24 3e 83 b6 ba be b1 15 87 be d5 5b 3d 3e
       0.16021068 -0.3646737 -0.26383737 0.18492062
0003b0 34 23 a7 3c 92 87 09 bd 5a b0 4d 3d 39 48 46 be
       0.020402528 -0.033576556 0.05021701 -0.19363488
0003c0 bf d7 ad be ec 6f c8 be 61 b4 07 bf df 6a 2b 3e
       -0.33953664 -0.3914789 -0.5300961 0.16739987
0003d0 ae 2c c8 be 10 4f 1a be a5 b1 85 be 2a 2b dc bd
       -0.39096588 -0.15069222 -0.26112095 -0.107504204
0003e0 bd 16 83 be 1e ca 7b be ef aa 94 be 5f b6 95 be
       -0.25603285 -0.2458882 -0.29036662 -0.292407
0003f0 a9 f4 7d be 01 12 e4 bd 40 0b 18 bd e4 66 f6 be
       -0.24800362 -0.111362465 -0.037120104 -0.48125374

layers.2.bias f4 [16]
000000 fe 09 4b be c0 36 9d be 66 86 ec be 60 4b 1b bf
       -0.1982803 -0.30705833 -0.46196288 -0.6066189
000010 10 3e d7 be f7 18 8a be 68 f1 c9 be df 10 92 be
       -0.42039537 -0.26972172 -0.3944199 -0.28528497
000020 21 28 83 be 3c 47 e0 be c5 36 ab be ca e2 64 be
       -0.25616553 -0.43804348 -0.33440223 -0.22352138
000030 51 97 6f be 69 31 33 bf 6b 16 6a be 18 c3 94 be
       -0.23397566 -0.6999727 -0.22860114 -0.29055095
